{"class_name": "Sequential", "config": {"name": "sequential_8", "layers": [{"class_name": "BatchNormalization", "config": {"name": "batch_normalization_907", "trainable": true, "batch_input_shape": [null, 128, 128, 1], "dtype": "float32", "axis": [3], "momentum": 0.99, "epsilon": 0.001, "center": true, "scale": true, "beta_initializer": {"class_name": "Zeros", "config": {}}, "gamma_initializer": {"class_name": "Ones", "config": {}}, "moving_mean_initializer": {"class_name": "Zeros", "config": {}}, "moving_variance_initializer": {"class_name": "Ones", "config": {}}, "beta_regularizer": null, "gamma_regularizer": null, "beta_constraint": null, "gamma_constraint": null}}, {"class_name": "Model", "config": {"name": "inception_resnet_v2", "layers": [{"class_name": "InputLayer", "config": {"batch_input_shape": [null, 128, 128, 1], "dtype": "float32", "sparse": false, "name": "input_9"}, "name": "input_9", "inbound_nodes": []}, {"class_name": "Conv2D", "config": {"name": "conv2d_688", "trainable": true, "dtype": "float32", "filters": 32, "kernel_size": [3, 3], "strides": [2, 2], "padding": "valid", "data_format": "channels_last", "dilation_rate": [1, 1], "activation": "linear", "use_bias": false, "kernel_initializer": {"class_name": "GlorotUniform", "config": {"seed": null}}, "bias_initializer": {"class_name": "Zeros", "config": {}}, "kernel_regularizer": null, "bias_regularizer": null, "activity_regularizer": null, "kernel_constraint": null, "bias_constraint": null}, "name": "conv2d_688", "inbound_nodes": [[["input_9", 0, 0, {}]]]}, {"class_name": "BatchNormalization", "config": {"name": "batch_normalization_704", "trainable": true, "dtype": "float32", "axis": [3], "momentum": 0.99, "epsilon": 0.001, "center": true, "scale": false, "beta_initializer": {"class_name": "Zeros", "config": {}}, "gamma_initializer": {"class_name": "Ones", "config": {}}, "moving_mean_initializer": {"class_name": "Zeros", "config": {}}, "moving_variance_initializer": {"class_name": "Ones", "config": {}}, "beta_regularizer": null, "gamma_regularizer": null, "beta_constraint": null, "gamma_constraint": null}, "name": "batch_normalization_704", "inbound_nodes": [[["conv2d_688", 0, 0, {}]]]}, {"class_name": "Activation", "config": {"name": "activation_688", "trainable": true, "dtype": "float32", "activation": "relu"}, "name": "activation_688", "inbound_nodes": [[["batch_normalization_704", 0, 0, {}]]]}, {"class_name": "Conv2D", "config": {"name": "conv2d_689", "trainable": true, "dtype": "float32", "filters": 32, "kernel_size": [3, 3], "strides": [1, 1], "padding": "valid", "data_format": "channels_last", "dilation_rate": [1, 1], "activation": "linear", "use_bias": false, "kernel_initializer": {"class_name": "GlorotUniform", "config": {"seed": null}}, "bias_initializer": {"class_name": "Zeros", "config": {}}, "kernel_regularizer": null, "bias_regularizer": null, "activity_regularizer": null, "kernel_constraint": null, "bias_constraint": null}, "name": "conv2d_689", "inbound_nodes": [[["activation_688", 0, 0, {}]]]}, {"class_name": "BatchNormalization", "config": {"name": "batch_normalization_705", "trainable": true, "dtype": "float32", "axis": [3], "momentum": 0.99, "epsilon": 0.001, "center": true, "scale": false, "beta_initializer": {"class_name": "Zeros", "config": {}}, "gamma_initializer": {"class_name": "Ones", "config": {}}, "moving_mean_initializer": {"class_name": "Zeros", "config": {}}, "moving_variance_initializer": {"class_name": "Ones", "config": {}}, "beta_regularizer": null, "gamma_regularizer": null, "beta_constraint": null, "gamma_constraint": null}, "name": "batch_normalization_705", "inbound_nodes": [[["conv2d_689", 0, 0, {}]]]}, {"class_name": "Activation", "config": {"name": "activation_689", "trainable": true, "dtype": "float32", "activation": "relu"}, "name": "activation_689", "inbound_nodes": [[["batch_normalization_705", 0, 0, {}]]]}, {"class_name": "Conv2D", "config": {"name": "conv2d_690", "trainable": true, "dtype": "float32", "filters": 64, "kernel_size": [3, 3], "strides": [1, 1], "padding": "same", "data_format": "channels_last", "dilation_rate": [1, 1], "activation": "linear", "use_bias": false, "kernel_initializer": {"class_name": "GlorotUniform", "config": {"seed": null}}, "bias_initializer": {"class_name": "Zeros", "config": {}}, "kernel_regularizer": null, "bias_regularizer": null, "activity_regularizer": null, "kernel_constraint": null, "bias_constraint": null}, "name": "conv2d_690", "inbound_nodes": [[["activation_689", 0, 0, {}]]]}, {"class_name": "BatchNormalization", "config": {"name": "batch_normalization_706", "trainable": true, "dtype": "float32", "axis": [3], "momentum": 0.99, "epsilon": 0.001, "center": true, "scale": false, "beta_initializer": {"class_name": "Zeros", "config": {}}, "gamma_initializer": {"class_name": "Ones", "config": {}}, "moving_mean_initializer": {"class_name": "Zeros", "config": {}}, "moving_variance_initializer": {"class_name": "Ones", "config": {}}, "beta_regularizer": null, "gamma_regularizer": null, "beta_constraint": null, "gamma_constraint": null}, "name": "batch_normalization_706", "inbound_nodes": [[["conv2d_690", 0, 0, {}]]]}, {"class_name": "Activation", "config": {"name": "activation_690", "trainable": true, "dtype": "float32", "activation": "relu"}, "name": "activation_690", "inbound_nodes": [[["batch_normalization_706", 0, 0, {}]]]}, {"class_name": "MaxPooling2D", "config": {"name": "max_pooling2d_20", "trainable": true, "dtype": "float32", "pool_size": [3, 3], "padding": "valid", "strides": [2, 2], "data_format": "channels_last"}, "name": "max_pooling2d_20", "inbound_nodes": [[["activation_690", 0, 0, {}]]]}, {"class_name": "Conv2D", "config": {"name": "conv2d_691", "trainable": true, "dtype": "float32", "filters": 80, "kernel_size": [1, 1], "strides": [1, 1], "padding": "valid", "data_format": "channels_last", "dilation_rate": [1, 1], "activation": "linear", "use_bias": false, "kernel_initializer": {"class_name": "GlorotUniform", "config": {"seed": null}}, "bias_initializer": {"class_name": "Zeros", "config": {}}, "kernel_regularizer": null, "bias_regularizer": null, "activity_regularizer": null, "kernel_constraint": null, "bias_constraint": null}, "name": "conv2d_691", "inbound_nodes": [[["max_pooling2d_20", 0, 0, {}]]]}, {"class_name": "BatchNormalization", "config": {"name": "batch_normalization_707", "trainable": true, "dtype": "float32", "axis": [3], "momentum": 0.99, "epsilon": 0.001, "center": true, "scale": false, "beta_initializer": {"class_name": "Zeros", "config": {}}, "gamma_initializer": {"class_name": "Ones", "config": {}}, "moving_mean_initializer": {"class_name": "Zeros", "config": {}}, "moving_variance_initializer": {"class_name": "Ones", "config": {}}, "beta_regularizer": null, "gamma_regularizer": null, "beta_constraint": null, "gamma_constraint": null}, "name": "batch_normalization_707", "inbound_nodes": [[["conv2d_691", 0, 0, {}]]]}, {"class_name": "Activation", "config": {"name": "activation_691", "trainable": true, "dtype": "float32", "activation": "relu"}, "name": "activation_691", "inbound_nodes": [[["batch_normalization_707", 0, 0, {}]]]}, {"class_name": "Conv2D", "config": {"name": "conv2d_692", "trainable": true, "dtype": "float32", "filters": 192, "kernel_size": [3, 3], "strides": [1, 1], "padding": "valid", "data_format": "channels_last", "dilation_rate": [1, 1], "activation": "linear", "use_bias": false, "kernel_initializer": {"class_name": "GlorotUniform", "config": {"seed": null}}, "bias_initializer": {"class_name": "Zeros", "config": {}}, "kernel_regularizer": null, "bias_regularizer": null, "activity_regularizer": null, "kernel_constraint": null, "bias_constraint": null}, "name": "conv2d_692", "inbound_nodes": [[["activation_691", 0, 0, {}]]]}, {"class_name": "BatchNormalization", "config": {"name": "batch_normalization_708", "trainable": true, "dtype": "float32", "axis": [3], "momentum": 0.99, "epsilon": 0.001, "center": true, "scale": false, "beta_initializer": {"class_name": "Zeros", "config": {}}, "gamma_initializer": {"class_name": "Ones", "config": {}}, "moving_mean_initializer": {"class_name": "Zeros", "config": {}}, "moving_variance_initializer": {"class_name": "Ones", "config": {}}, "beta_regularizer": null, "gamma_regularizer": null, "beta_constraint": null, "gamma_constraint": null}, "name": "batch_normalization_708", "inbound_nodes": [[["conv2d_692", 0, 0, {}]]]}, {"class_name": "Activation", "config": {"name": "activation_692", "trainable": true, "dtype": "float32", "activation": "relu"}, "name": "activation_692", "inbound_nodes": [[["batch_normalization_708", 0, 0, {}]]]}, {"class_name": "MaxPooling2D", "config": {"name": "max_pooling2d_21", "trainable": true, "dtype": "float32", "pool_size": [3, 3], "padding": "valid", "strides": [2, 2], "data_format": "channels_last"}, "name": "max_pooling2d_21", "inbound_nodes": [[["activation_692", 0, 0, {}]]]}, {"class_name": "Conv2D", "config": {"name": "conv2d_696", "trainable": true, "dtype": "float32", "filters": 64, "kernel_size": [1, 1], "strides": [1, 1], "padding": "same", "data_format": "channels_last", "dilation_rate": [1, 1], "activation": "linear", "use_bias": false, "kernel_initializer": {"class_name": "GlorotUniform", "config": {"seed": null}}, "bias_initializer": {"class_name": "Zeros", "config": {}}, "kernel_regularizer": null, "bias_regularizer": null, "activity_regularizer": null, "kernel_constraint": null, "bias_constraint": null}, "name": "conv2d_696", "inbound_nodes": [[["max_pooling2d_21", 0, 0, {}]]]}, {"class_name": "BatchNormalization", "config": {"name": "batch_normalization_712", "trainable": true, "dtype": "float32", "axis": [3], "momentum": 0.99, "epsilon": 0.001, "center": true, "scale": false, "beta_initializer": {"class_name": "Zeros", "config": {}}, "gamma_initializer": {"class_name": "Ones", "config": {}}, "moving_mean_initializer": {"class_name": "Zeros", "config": {}}, "moving_variance_initializer": {"class_name": "Ones", "config": {}}, "beta_regularizer": null, "gamma_regularizer": null, "beta_constraint": null, "gamma_constraint": null}, "name": "batch_normalization_712", "inbound_nodes": [[["conv2d_696", 0, 0, {}]]]}, {"class_name": "Activation", "config": {"name": "activation_696", "trainable": true, "dtype": "float32", "activation": "relu"}, "name": "activation_696", "inbound_nodes": [[["batch_normalization_712", 0, 0, {}]]]}, {"class_name": "Conv2D", "config": {"name": "conv2d_694", "trainable": true, "dtype": "float32", "filters": 48, "kernel_size": [1, 1], "strides": [1, 1], "padding": "same", "data_format": "channels_last", "dilation_rate": [1, 1], "activation": "linear", "use_bias": false, "kernel_initializer": {"class_name": "GlorotUniform", "config": {"seed": null}}, "bias_initializer": {"class_name": "Zeros", "config": {}}, "kernel_regularizer": null, "bias_regularizer": null, "activity_regularizer": null, "kernel_constraint": null, "bias_constraint": null}, "name": "conv2d_694", "inbound_nodes": [[["max_pooling2d_21", 0, 0, {}]]]}, {"class_name": "Conv2D", "config": {"name": "conv2d_697", "trainable": true, "dtype": "float32", "filters": 96, "kernel_size": [3, 3], "strides": [1, 1], "padding": "same", "data_format": "channels_last", "dilation_rate": [1, 1], "activation": "linear", "use_bias": false, "kernel_initializer": {"class_name": "GlorotUniform", "config": {"seed": null}}, "bias_initializer": {"class_name": "Zeros", "config": {}}, "kernel_regularizer": null, "bias_regularizer": null, "activity_regularizer": null, "kernel_constraint": null, "bias_constraint": null}, "name": "conv2d_697", "inbound_nodes": [[["activation_696", 0, 0, {}]]]}, {"class_name": "BatchNormalization", "config": {"name": "batch_normalization_710", "trainable": true, "dtype": "float32", "axis": [3], "momentum": 0.99, "epsilon": 0.001, "center": true, "scale": false, "beta_initializer": {"class_name": "Zeros", "config": {}}, "gamma_initializer": {"class_name": "Ones", "config": {}}, "moving_mean_initializer": {"class_name": "Zeros", "config": {}}, "moving_variance_initializer": {"class_name": "Ones", "config": {}}, "beta_regularizer": null, "gamma_regularizer": null, "beta_constraint": null, "gamma_constraint": null}, "name": "batch_normalization_710", "inbound_nodes": [[["conv2d_694", 0, 0, {}]]]}, {"class_name": "BatchNormalization", "config": {"name": "batch_normalization_713", "trainable": true, "dtype": "float32", "axis": [3], "momentum": 0.99, "epsilon": 0.001, "center": true, "scale": false, "beta_initializer": {"class_name": "Zeros", "config": {}}, "gamma_initializer": {"class_name": "Ones", "config": {}}, "moving_mean_initializer": {"class_name": "Zeros", "config": {}}, "moving_variance_initializer": {"class_name": "Ones", "config": {}}, "beta_regularizer": null, "gamma_regularizer": null, "beta_constraint": null, "gamma_constraint": null}, "name": "batch_normalization_713", "inbound_nodes": [[["conv2d_697", 0, 0, {}]]]}, {"class_name": "Activation", "config": {"name": "activation_694", "trainable": true, "dtype": "float32", "activation": "relu"}, "name": "activation_694", "inbound_nodes": [[["batch_normalization_710", 0, 0, {}]]]}, {"class_name": "Activation", "config": {"name": "activation_697", "trainable": true, "dtype": "float32", "activation": "relu"}, "name": "activation_697", "inbound_nodes": [[["batch_normalization_713", 0, 0, {}]]]}, {"class_name": "AveragePooling2D", "config": {"name": "average_pooling2d_29", "trainable": true, "dtype": "float32", "pool_size": [3, 3], "padding": "same", "strides": [1, 1], "data_format": "channels_last"}, "name": "average_pooling2d_29", "inbound_nodes": [[["max_pooling2d_21", 0, 0, {}]]]}, {"class_name": "Conv2D", "config": {"name": "conv2d_693", "trainable": true, "dtype": "float32", "filters": 96, "kernel_size": [1, 1], "strides": [1, 1], "padding": "same", "data_format": "channels_last", "dilation_rate": [1, 1], "activation": "linear", "use_bias": false, "kernel_initializer": {"class_name": "GlorotUniform", "config": {"seed": null}}, "bias_initializer": {"class_name": "Zeros", "config": {}}, "kernel_regularizer": null, "bias_regularizer": null, "activity_regularizer": null, "kernel_constraint": null, "bias_constraint": null}, "name": "conv2d_693", "inbound_nodes": [[["max_pooling2d_21", 0, 0, {}]]]}, {"class_name": "Conv2D", "config": {"name": "conv2d_695", "trainable": true, "dtype": "float32", "filters": 64, "kernel_size": [5, 5], "strides": [1, 1], "padding": "same", "data_format": "channels_last", "dilation_rate": [1, 1], "activation": "linear", "use_bias": false, "kernel_initializer": {"class_name": "GlorotUniform", "config": {"seed": null}}, "bias_initializer": {"class_name": "Zeros", "config": {}}, "kernel_regularizer": null, "bias_regularizer": null, "activity_regularizer": null, "kernel_constraint": null, "bias_constraint": null}, "name": "conv2d_695", "inbound_nodes": [[["activation_694", 0, 0, {}]]]}, {"class_name": "Conv2D", "config": {"name": "conv2d_698", "trainable": true, "dtype": "float32", "filters": 96, "kernel_size": [3, 3], "strides": [1, 1], "padding": "same", "data_format": "channels_last", "dilation_rate": [1, 1], "activation": "linear", "use_bias": false, "kernel_initializer": {"class_name": "GlorotUniform", "config": {"seed": null}}, "bias_initializer": {"class_name": "Zeros", "config": {}}, "kernel_regularizer": null, "bias_regularizer": null, "activity_regularizer": null, "kernel_constraint": null, "bias_constraint": null}, "name": "conv2d_698", "inbound_nodes": [[["activation_697", 0, 0, {}]]]}, {"class_name": "Conv2D", "config": {"name": "conv2d_699", "trainable": true, "dtype": "float32", "filters": 64, "kernel_size": [1, 1], "strides": [1, 1], "padding": "same", "data_format": "channels_last", "dilation_rate": [1, 1], "activation": "linear", "use_bias": false, "kernel_initializer": {"class_name": "GlorotUniform", "config": {"seed": null}}, "bias_initializer": {"class_name": "Zeros", "config": {}}, "kernel_regularizer": null, "bias_regularizer": null, "activity_regularizer": null, "kernel_constraint": null, "bias_constraint": null}, "name": "conv2d_699", "inbound_nodes": [[["average_pooling2d_29", 0, 0, {}]]]}, {"class_name": "BatchNormalization", "config": {"name": "batch_normalization_709", "trainable": true, "dtype": "float32", "axis": [3], "momentum": 0.99, "epsilon": 0.001, "center": true, "scale": false, "beta_initializer": {"class_name": "Zeros", "config": {}}, "gamma_initializer": {"class_name": "Ones", "config": {}}, "moving_mean_initializer": {"class_name": "Zeros", "config": {}}, "moving_variance_initializer": {"class_name": "Ones", "config": {}}, "beta_regularizer": null, "gamma_regularizer": null, "beta_constraint": null, "gamma_constraint": null}, "name": "batch_normalization_709", "inbound_nodes": [[["conv2d_693", 0, 0, {}]]]}, {"class_name": "BatchNormalization", "config": {"name": "batch_normalization_711", "trainable": true, "dtype": "float32", "axis": [3], "momentum": 0.99, "epsilon": 0.001, "center": true, "scale": false, "beta_initializer": {"class_name": "Zeros", "config": {}}, "gamma_initializer": {"class_name": "Ones", "config": {}}, "moving_mean_initializer": {"class_name": "Zeros", "config": {}}, "moving_variance_initializer": {"class_name": "Ones", "config": {}}, "beta_regularizer": null, "gamma_regularizer": null, "beta_constraint": null, "gamma_constraint": null}, "name": "batch_normalization_711", "inbound_nodes": [[["conv2d_695", 0, 0, {}]]]}, {"class_name": "BatchNormalization", "config": {"name": "batch_normalization_714", "trainable": true, "dtype": "float32", "axis": [3], "momentum": 0.99, "epsilon": 0.001, "center": true, "scale": false, "beta_initializer": {"class_name": "Zeros", "config": {}}, "gamma_initializer": {"class_name": "Ones", "config": {}}, "moving_mean_initializer": {"class_name": "Zeros", "config": {}}, "moving_variance_initializer": {"class_name": "Ones", "config": {}}, "beta_regularizer": null, "gamma_regularizer": null, "beta_constraint": null, "gamma_constraint": null}, "name": "batch_normalization_714", "inbound_nodes": [[["conv2d_698", 0, 0, {}]]]}, {"class_name": "BatchNormalization", "config": {"name": "batch_normalization_715", "trainable": true, "dtype": "float32", "axis": [3], "momentum": 0.99, "epsilon": 0.001, "center": true, "scale": false, "beta_initializer": {"class_name": "Zeros", "config": {}}, "gamma_initializer": {"class_name": "Ones", "config": {}}, "moving_mean_initializer": {"class_name": "Zeros", "config": {}}, "moving_variance_initializer": {"class_name": "Ones", "config": {}}, "beta_regularizer": null, "gamma_regularizer": null, "beta_constraint": null, "gamma_constraint": null}, "name": "batch_normalization_715", "inbound_nodes": [[["conv2d_699", 0, 0, {}]]]}, {"class_name": "Activation", "config": {"name": "activation_693", "trainable": true, "dtype": "float32", "activation": "relu"}, "name": "activation_693", "inbound_nodes": [[["batch_normalization_709", 0, 0, {}]]]}, {"class_name": "Activation", "config": {"name": "activation_695", "trainable": true, "dtype": "float32", "activation": "relu"}, "name": "activation_695", "inbound_nodes": [[["batch_normalization_711", 0, 0, {}]]]}, {"class_name": "Activation", "config": {"name": "activation_698", "trainable": true, "dtype": "float32", "activation": "relu"}, "name": "activation_698", "inbound_nodes": [[["batch_normalization_714", 0, 0, {}]]]}, {"class_name": "Activation", "config": {"name": "activation_699", "trainable": true, "dtype": "float32", "activation": "relu"}, "name": "activation_699", "inbound_nodes": [[["batch_normalization_715", 0, 0, {}]]]}, {"class_name": "Concatenate", "config": {"name": "mixed_5b", "trainable": true, "dtype": "float32", "axis": 3}, "name": "mixed_5b", "inbound_nodes": [[["activation_693", 0, 0, {}], ["activation_695", 0, 0, {}], ["activation_698", 0, 0, {}], ["activation_699", 0, 0, {}]]]}, {"class_name": "Conv2D", "config": {"name": "conv2d_703", "trainable": true, "dtype": "float32", "filters": 32, "kernel_size": [1, 1], "strides": [1, 1], "padding": "same", "data_format": "channels_last", "dilation_rate": [1, 1], "activation": "linear", "use_bias": false, "kernel_initializer": {"class_name": "GlorotUniform", "config": {"seed": null}}, "bias_initializer": {"class_name": "Zeros", "config": {}}, "kernel_regularizer": null, "bias_regularizer": null, "activity_regularizer": null, "kernel_constraint": null, "bias_constraint": null}, "name": "conv2d_703", "inbound_nodes": [[["mixed_5b", 0, 0, {}]]]}, {"class_name": "BatchNormalization", "config": {"name": "batch_normalization_719", "trainable": true, "dtype": "float32", "axis": [3], "momentum": 0.99, "epsilon": 0.001, "center": true, "scale": false, "beta_initializer": {"class_name": "Zeros", "config": {}}, "gamma_initializer": {"class_name": "Ones", "config": {}}, "moving_mean_initializer": {"class_name": "Zeros", "config": {}}, "moving_variance_initializer": {"class_name": "Ones", "config": {}}, "beta_regularizer": null, "gamma_regularizer": null, "beta_constraint": null, "gamma_constraint": null}, "name": "batch_normalization_719", "inbound_nodes": [[["conv2d_703", 0, 0, {}]]]}, {"class_name": "Activation", "config": {"name": "activation_703", "trainable": true, "dtype": "float32", "activation": "relu"}, "name": "activation_703", "inbound_nodes": [[["batch_normalization_719", 0, 0, {}]]]}, {"class_name": "Conv2D", "config": {"name": "conv2d_701", "trainable": true, "dtype": "float32", "filters": 32, "kernel_size": [1, 1], "strides": [1, 1], "padding": "same", "data_format": "channels_last", "dilation_rate": [1, 1], "activation": "linear", "use_bias": false, "kernel_initializer": {"class_name": "GlorotUniform", "config": {"seed": null}}, "bias_initializer": {"class_name": "Zeros", "config": {}}, "kernel_regularizer": null, "bias_regularizer": null, "activity_regularizer": null, "kernel_constraint": null, "bias_constraint": null}, "name": "conv2d_701", "inbound_nodes": [[["mixed_5b", 0, 0, {}]]]}, {"class_name": "Conv2D", "config": {"name": "conv2d_704", "trainable": true, "dtype": "float32", "filters": 48, "kernel_size": [3, 3], "strides": [1, 1], "padding": "same", "data_format": "channels_last", "dilation_rate": [1, 1], "activation": "linear", "use_bias": false, "kernel_initializer": {"class_name": "GlorotUniform", "config": {"seed": null}}, "bias_initializer": {"class_name": "Zeros", "config": {}}, "kernel_regularizer": null, "bias_regularizer": null, "activity_regularizer": null, "kernel_constraint": null, "bias_constraint": null}, "name": "conv2d_704", "inbound_nodes": [[["activation_703", 0, 0, {}]]]}, {"class_name": "BatchNormalization", "config": {"name": "batch_normalization_717", "trainable": true, "dtype": "float32", "axis": [3], "momentum": 0.99, "epsilon": 0.001, "center": true, "scale": false, "beta_initializer": {"class_name": "Zeros", "config": {}}, "gamma_initializer": {"class_name": "Ones", "config": {}}, "moving_mean_initializer": {"class_name": "Zeros", "config": {}}, "moving_variance_initializer": {"class_name": "Ones", "config": {}}, "beta_regularizer": null, "gamma_regularizer": null, "beta_constraint": null, "gamma_constraint": null}, "name": "batch_normalization_717", "inbound_nodes": [[["conv2d_701", 0, 0, {}]]]}, {"class_name": "BatchNormalization", "config": {"name": "batch_normalization_720", "trainable": true, "dtype": "float32", "axis": [3], "momentum": 0.99, "epsilon": 0.001, "center": true, "scale": false, "beta_initializer": {"class_name": "Zeros", "config": {}}, "gamma_initializer": {"class_name": "Ones", "config": {}}, "moving_mean_initializer": {"class_name": "Zeros", "config": {}}, "moving_variance_initializer": {"class_name": "Ones", "config": {}}, "beta_regularizer": null, "gamma_regularizer": null, "beta_constraint": null, "gamma_constraint": null}, "name": "batch_normalization_720", "inbound_nodes": [[["conv2d_704", 0, 0, {}]]]}, {"class_name": "Activation", "config": {"name": "activation_701", "trainable": true, "dtype": "float32", "activation": "relu"}, "name": "activation_701", "inbound_nodes": [[["batch_normalization_717", 0, 0, {}]]]}, {"class_name": "Activation", "config": {"name": "activation_704", "trainable": true, "dtype": "float32", "activation": "relu"}, "name": "activation_704", "inbound_nodes": [[["batch_normalization_720", 0, 0, {}]]]}, {"class_name": "Conv2D", "config": {"name": "conv2d_700", "trainable": true, "dtype": "float32", "filters": 32, "kernel_size": [1, 1], "strides": [1, 1], "padding": "same", "data_format": "channels_last", "dilation_rate": [1, 1], "activation": "linear", "use_bias": false, "kernel_initializer": {"class_name": "GlorotUniform", "config": {"seed": null}}, "bias_initializer": {"class_name": "Zeros", "config": {}}, "kernel_regularizer": null, "bias_regularizer": null, "activity_regularizer": null, "kernel_constraint": null, "bias_constraint": null}, "name": "conv2d_700", "inbound_nodes": [[["mixed_5b", 0, 0, {}]]]}, {"class_name": "Conv2D", "config": {"name": "conv2d_702", "trainable": true, "dtype": "float32", "filters": 32, "kernel_size": [3, 3], "strides": [1, 1], "padding": "same", "data_format": "channels_last", "dilation_rate": [1, 1], "activation": "linear", "use_bias": false, "kernel_initializer": {"class_name": "GlorotUniform", "config": {"seed": null}}, "bias_initializer": {"class_name": "Zeros", "config": {}}, "kernel_regularizer": null, "bias_regularizer": null, "activity_regularizer": null, "kernel_constraint": null, "bias_constraint": null}, "name": "conv2d_702", "inbound_nodes": [[["activation_701", 0, 0, {}]]]}, {"class_name": "Conv2D", "config": {"name": "conv2d_705", "trainable": true, "dtype": "float32", "filters": 64, "kernel_size": [3, 3], "strides": [1, 1], "padding": "same", "data_format": "channels_last", "dilation_rate": [1, 1], "activation": "linear", "use_bias": false, "kernel_initializer": {"class_name": "GlorotUniform", "config": {"seed": null}}, "bias_initializer": {"class_name": "Zeros", "config": {}}, "kernel_regularizer": null, "bias_regularizer": null, "activity_regularizer": null, "kernel_constraint": null, "bias_constraint": null}, "name": "conv2d_705", "inbound_nodes": [[["activation_704", 0, 0, {}]]]}, {"class_name": "BatchNormalization", "config": {"name": "batch_normalization_716", "trainable": true, "dtype": "float32", "axis": [3], "momentum": 0.99, "epsilon": 0.001, "center": true, "scale": false, "beta_initializer": {"class_name": "Zeros", "config": {}}, "gamma_initializer": {"class_name": "Ones", "config": {}}, "moving_mean_initializer": {"class_name": "Zeros", "config": {}}, "moving_variance_initializer": {"class_name": "Ones", "config": {}}, "beta_regularizer": null, "gamma_regularizer": null, "beta_constraint": null, "gamma_constraint": null}, "name": "batch_normalization_716", "inbound_nodes": [[["conv2d_700", 0, 0, {}]]]}, {"class_name": "BatchNormalization", "config": {"name": "batch_normalization_718", "trainable": true, "dtype": "float32", "axis": [3], "momentum": 0.99, "epsilon": 0.001, "center": true, "scale": false, "beta_initializer": {"class_name": "Zeros", "config": {}}, "gamma_initializer": {"class_name": "Ones", "config": {}}, "moving_mean_initializer": {"class_name": "Zeros", "config": {}}, "moving_variance_initializer": {"class_name": "Ones", "config": {}}, "beta_regularizer": null, "gamma_regularizer": null, "beta_constraint": null, "gamma_constraint": null}, "name": "batch_normalization_718", "inbound_nodes": [[["conv2d_702", 0, 0, {}]]]}, {"class_name": "BatchNormalization", "config": {"name": "batch_normalization_721", "trainable": true, "dtype": "float32", "axis": [3], "momentum": 0.99, "epsilon": 0.001, "center": true, "scale": false, "beta_initializer": {"class_name": "Zeros", "config": {}}, "gamma_initializer": {"class_name": "Ones", "config": {}}, "moving_mean_initializer": {"class_name": "Zeros", "config": {}}, "moving_variance_initializer": {"class_name": "Ones", "config": {}}, "beta_regularizer": null, "gamma_regularizer": null, "beta_constraint": null, "gamma_constraint": null}, "name": "batch_normalization_721", "inbound_nodes": [[["conv2d_705", 0, 0, {}]]]}, {"class_name": "Activation", "config": {"name": "activation_700", "trainable": true, "dtype": "float32", "activation": "relu"}, "name": "activation_700", "inbound_nodes": [[["batch_normalization_716", 0, 0, {}]]]}, {"class_name": "Activation", "config": {"name": "activation_702", "trainable": true, "dtype": "float32", "activation": "relu"}, "name": "activation_702", "inbound_nodes": [[["batch_normalization_718", 0, 0, {}]]]}, {"class_name": "Activation", "config": {"name": "activation_705", "trainable": true, "dtype": "float32", "activation": "relu"}, "name": "activation_705", "inbound_nodes": [[["batch_normalization_721", 0, 0, {}]]]}, {"class_name": "Concatenate", "config": {"name": "block35_1_mixed", "trainable": true, "dtype": "float32", "axis": 3}, "name": "block35_1_mixed", "inbound_nodes": [[["activation_700", 0, 0, {}], ["activation_702", 0, 0, {}], ["activation_705", 0, 0, {}]]]}, {"class_name": "Conv2D", "config": {"name": "block35_1_conv", "trainable": true, "dtype": "float32", "filters": 320, "kernel_size": [1, 1], "strides": [1, 1], "padding": "same", "data_format": "channels_last", "dilation_rate": [1, 1], "activation": "linear", "use_bias": true, "kernel_initializer": {"class_name": "GlorotUniform", "config": {"seed": null}}, "bias_initializer": {"class_name": "Zeros", "config": {}}, "kernel_regularizer": null, "bias_regularizer": null, "activity_regularizer": null, "kernel_constraint": null, "bias_constraint": null}, "name": "block35_1_conv", "inbound_nodes": [[["block35_1_mixed", 0, 0, {}]]]}, {"class_name": "Lambda", "config": {"name": "block35_1", "trainable": true, "dtype": "float32", "function": ["4wIAAAAAAAAAAgAAAAMAAABTAAAAcxQAAAB8AGQBGQB8AGQCGQB8ARQAFwBTACkDTukAAAAA6QEA\nAACpACkC2gZpbnB1dHPaBXNjYWxlcgMAAAByAwAAAPpkL2hvbWUvZmlsZnkvYW5hY29uZGEzL2Vu\ndnMvb3dnL2xpYi9weXRob24zLjcvc2l0ZS1wYWNrYWdlcy9rZXJhc19hcHBsaWNhdGlvbnMvaW5j\nZXB0aW9uX3Jlc25ldF92Mi5wedoIPGxhbWJkYT6oAAAA8wAAAAA=\n", null, null], "function_type": "lambda", "module": "keras_applications.inception_resnet_v2", "output_shape": [13, 13, 320], "output_shape_type": "raw", "output_shape_module": null, "arguments": {"scale": 0.17}}, "name": "block35_1", "inbound_nodes": [[["mixed_5b", 0, 0, {}], ["block35_1_conv", 0, 0, {}]]]}, {"class_name": "Activation", "config": {"name": "block35_1_ac", "trainable": true, "dtype": "float32", "activation": "relu"}, "name": "block35_1_ac", "inbound_nodes": [[["block35_1", 0, 0, {}]]]}, {"class_name": "Conv2D", "config": {"name": "conv2d_709", "trainable": true, "dtype": "float32", "filters": 32, "kernel_size": [1, 1], "strides": [1, 1], "padding": "same", "data_format": "channels_last", "dilation_rate": [1, 1], "activation": "linear", "use_bias": false, "kernel_initializer": {"class_name": "GlorotUniform", "config": {"seed": null}}, "bias_initializer": {"class_name": "Zeros", "config": {}}, "kernel_regularizer": null, "bias_regularizer": null, "activity_regularizer": null, "kernel_constraint": null, "bias_constraint": null}, "name": "conv2d_709", "inbound_nodes": [[["block35_1_ac", 0, 0, {}]]]}, {"class_name": "BatchNormalization", "config": {"name": "batch_normalization_725", "trainable": true, "dtype": "float32", "axis": [3], "momentum": 0.99, "epsilon": 0.001, "center": true, "scale": false, "beta_initializer": {"class_name": "Zeros", "config": {}}, "gamma_initializer": {"class_name": "Ones", "config": {}}, "moving_mean_initializer": {"class_name": "Zeros", "config": {}}, "moving_variance_initializer": {"class_name": "Ones", "config": {}}, "beta_regularizer": null, "gamma_regularizer": null, "beta_constraint": null, "gamma_constraint": null}, "name": "batch_normalization_725", "inbound_nodes": [[["conv2d_709", 0, 0, {}]]]}, {"class_name": "Activation", "config": {"name": "activation_709", "trainable": true, "dtype": "float32", "activation": "relu"}, "name": "activation_709", "inbound_nodes": [[["batch_normalization_725", 0, 0, {}]]]}, {"class_name": "Conv2D", "config": {"name": "conv2d_707", "trainable": true, "dtype": "float32", "filters": 32, "kernel_size": [1, 1], "strides": [1, 1], "padding": "same", "data_format": "channels_last", "dilation_rate": [1, 1], "activation": "linear", "use_bias": false, "kernel_initializer": {"class_name": "GlorotUniform", "config": {"seed": null}}, "bias_initializer": {"class_name": "Zeros", "config": {}}, "kernel_regularizer": null, "bias_regularizer": null, "activity_regularizer": null, "kernel_constraint": null, "bias_constraint": null}, "name": "conv2d_707", "inbound_nodes": [[["block35_1_ac", 0, 0, {}]]]}, {"class_name": "Conv2D", "config": {"name": "conv2d_710", "trainable": true, "dtype": "float32", "filters": 48, "kernel_size": [3, 3], "strides": [1, 1], "padding": "same", "data_format": "channels_last", "dilation_rate": [1, 1], "activation": "linear", "use_bias": false, "kernel_initializer": {"class_name": "GlorotUniform", "config": {"seed": null}}, "bias_initializer": {"class_name": "Zeros", "config": {}}, "kernel_regularizer": null, "bias_regularizer": null, "activity_regularizer": null, "kernel_constraint": null, "bias_constraint": null}, "name": "conv2d_710", "inbound_nodes": [[["activation_709", 0, 0, {}]]]}, {"class_name": "BatchNormalization", "config": {"name": "batch_normalization_723", "trainable": true, "dtype": "float32", "axis": [3], "momentum": 0.99, "epsilon": 0.001, "center": true, "scale": false, "beta_initializer": {"class_name": "Zeros", "config": {}}, "gamma_initializer": {"class_name": "Ones", "config": {}}, "moving_mean_initializer": {"class_name": "Zeros", "config": {}}, "moving_variance_initializer": {"class_name": "Ones", "config": {}}, "beta_regularizer": null, "gamma_regularizer": null, "beta_constraint": null, "gamma_constraint": null}, "name": "batch_normalization_723", "inbound_nodes": [[["conv2d_707", 0, 0, {}]]]}, {"class_name": "BatchNormalization", "config": {"name": "batch_normalization_726", "trainable": true, "dtype": "float32", "axis": [3], "momentum": 0.99, "epsilon": 0.001, "center": true, "scale": false, "beta_initializer": {"class_name": "Zeros", "config": {}}, "gamma_initializer": {"class_name": "Ones", "config": {}}, "moving_mean_initializer": {"class_name": "Zeros", "config": {}}, "moving_variance_initializer": {"class_name": "Ones", "config": {}}, "beta_regularizer": null, "gamma_regularizer": null, "beta_constraint": null, "gamma_constraint": null}, "name": "batch_normalization_726", "inbound_nodes": [[["conv2d_710", 0, 0, {}]]]}, {"class_name": "Activation", "config": {"name": "activation_707", "trainable": true, "dtype": "float32", "activation": "relu"}, "name": "activation_707", "inbound_nodes": [[["batch_normalization_723", 0, 0, {}]]]}, {"class_name": "Activation", "config": {"name": "activation_710", "trainable": true, "dtype": "float32", "activation": "relu"}, "name": "activation_710", "inbound_nodes": [[["batch_normalization_726", 0, 0, {}]]]}, {"class_name": "Conv2D", "config": {"name": "conv2d_706", "trainable": true, "dtype": "float32", "filters": 32, "kernel_size": [1, 1], "strides": [1, 1], "padding": "same", "data_format": "channels_last", "dilation_rate": [1, 1], "activation": "linear", "use_bias": false, "kernel_initializer": {"class_name": "GlorotUniform", "config": {"seed": null}}, "bias_initializer": {"class_name": "Zeros", "config": {}}, "kernel_regularizer": null, "bias_regularizer": null, "activity_regularizer": null, "kernel_constraint": null, "bias_constraint": null}, "name": "conv2d_706", "inbound_nodes": [[["block35_1_ac", 0, 0, {}]]]}, {"class_name": "Conv2D", "config": {"name": "conv2d_708", "trainable": true, "dtype": "float32", "filters": 32, "kernel_size": [3, 3], "strides": [1, 1], "padding": "same", "data_format": "channels_last", "dilation_rate": [1, 1], "activation": "linear", "use_bias": false, "kernel_initializer": {"class_name": "GlorotUniform", "config": {"seed": null}}, "bias_initializer": {"class_name": "Zeros", "config": {}}, "kernel_regularizer": null, "bias_regularizer": null, "activity_regularizer": null, "kernel_constraint": null, "bias_constraint": null}, "name": "conv2d_708", "inbound_nodes": [[["activation_707", 0, 0, {}]]]}, {"class_name": "Conv2D", "config": {"name": "conv2d_711", "trainable": true, "dtype": "float32", "filters": 64, "kernel_size": [3, 3], "strides": [1, 1], "padding": "same", "data_format": "channels_last", "dilation_rate": [1, 1], "activation": "linear", "use_bias": false, "kernel_initializer": {"class_name": "GlorotUniform", "config": {"seed": null}}, "bias_initializer": {"class_name": "Zeros", "config": {}}, "kernel_regularizer": null, "bias_regularizer": null, "activity_regularizer": null, "kernel_constraint": null, "bias_constraint": null}, "name": "conv2d_711", "inbound_nodes": [[["activation_710", 0, 0, {}]]]}, {"class_name": "BatchNormalization", "config": {"name": "batch_normalization_722", "trainable": true, "dtype": "float32", "axis": [3], "momentum": 0.99, "epsilon": 0.001, "center": true, "scale": false, "beta_initializer": {"class_name": "Zeros", "config": {}}, "gamma_initializer": {"class_name": "Ones", "config": {}}, "moving_mean_initializer": {"class_name": "Zeros", "config": {}}, "moving_variance_initializer": {"class_name": "Ones", "config": {}}, "beta_regularizer": null, "gamma_regularizer": null, "beta_constraint": null, "gamma_constraint": null}, "name": "batch_normalization_722", "inbound_nodes": [[["conv2d_706", 0, 0, {}]]]}, {"class_name": "BatchNormalization", "config": {"name": "batch_normalization_724", "trainable": true, "dtype": "float32", "axis": [3], "momentum": 0.99, "epsilon": 0.001, "center": true, "scale": false, "beta_initializer": {"class_name": "Zeros", "config": {}}, "gamma_initializer": {"class_name": "Ones", "config": {}}, "moving_mean_initializer": {"class_name": "Zeros", "config": {}}, "moving_variance_initializer": {"class_name": "Ones", "config": {}}, "beta_regularizer": null, "gamma_regularizer": null, "beta_constraint": null, "gamma_constraint": null}, "name": "batch_normalization_724", "inbound_nodes": [[["conv2d_708", 0, 0, {}]]]}, {"class_name": "BatchNormalization", "config": {"name": "batch_normalization_727", "trainable": true, "dtype": "float32", "axis": [3], "momentum": 0.99, "epsilon": 0.001, "center": true, "scale": false, "beta_initializer": {"class_name": "Zeros", "config": {}}, "gamma_initializer": {"class_name": "Ones", "config": {}}, "moving_mean_initializer": {"class_name": "Zeros", "config": {}}, "moving_variance_initializer": {"class_name": "Ones", "config": {}}, "beta_regularizer": null, "gamma_regularizer": null, "beta_constraint": null, "gamma_constraint": null}, "name": "batch_normalization_727", "inbound_nodes": [[["conv2d_711", 0, 0, {}]]]}, {"class_name": "Activation", "config": {"name": "activation_706", "trainable": true, "dtype": "float32", "activation": "relu"}, "name": "activation_706", "inbound_nodes": [[["batch_normalization_722", 0, 0, {}]]]}, {"class_name": "Activation", "config": {"name": "activation_708", "trainable": true, "dtype": "float32", "activation": "relu"}, "name": "activation_708", "inbound_nodes": [[["batch_normalization_724", 0, 0, {}]]]}, {"class_name": "Activation", "config": {"name": "activation_711", "trainable": true, "dtype": "float32", "activation": "relu"}, "name": "activation_711", "inbound_nodes": [[["batch_normalization_727", 0, 0, {}]]]}, {"class_name": "Concatenate", "config": {"name": "block35_2_mixed", "trainable": true, "dtype": "float32", "axis": 3}, "name": "block35_2_mixed", "inbound_nodes": [[["activation_706", 0, 0, {}], ["activation_708", 0, 0, {}], ["activation_711", 0, 0, {}]]]}, {"class_name": "Conv2D", "config": {"name": "block35_2_conv", "trainable": true, "dtype": "float32", "filters": 320, "kernel_size": [1, 1], "strides": [1, 1], "padding": "same", "data_format": "channels_last", "dilation_rate": [1, 1], "activation": "linear", "use_bias": true, "kernel_initializer": {"class_name": "GlorotUniform", "config": {"seed": null}}, "bias_initializer": {"class_name": "Zeros", "config": {}}, "kernel_regularizer": null, "bias_regularizer": null, "activity_regularizer": null, "kernel_constraint": null, "bias_constraint": null}, "name": "block35_2_conv", "inbound_nodes": [[["block35_2_mixed", 0, 0, {}]]]}, {"class_name": "Lambda", "config": {"name": "block35_2", "trainable": true, "dtype": "float32", "function": ["4wIAAAAAAAAAAgAAAAMAAABTAAAAcxQAAAB8AGQBGQB8AGQCGQB8ARQAFwBTACkDTukAAAAA6QEA\nAACpACkC2gZpbnB1dHPaBXNjYWxlcgMAAAByAwAAAPpkL2hvbWUvZmlsZnkvYW5hY29uZGEzL2Vu\ndnMvb3dnL2xpYi9weXRob24zLjcvc2l0ZS1wYWNrYWdlcy9rZXJhc19hcHBsaWNhdGlvbnMvaW5j\nZXB0aW9uX3Jlc25ldF92Mi5wedoIPGxhbWJkYT6oAAAA8wAAAAA=\n", null, null], "function_type": "lambda", "module": "keras_applications.inception_resnet_v2", "output_shape": [13, 13, 320], "output_shape_type": "raw", "output_shape_module": null, "arguments": {"scale": 0.17}}, "name": "block35_2", "inbound_nodes": [[["block35_1_ac", 0, 0, {}], ["block35_2_conv", 0, 0, {}]]]}, {"class_name": "Activation", "config": {"name": "block35_2_ac", "trainable": true, "dtype": "float32", "activation": "relu"}, "name": "block35_2_ac", "inbound_nodes": [[["block35_2", 0, 0, {}]]]}, {"class_name": "Conv2D", "config": {"name": "conv2d_715", "trainable": true, "dtype": "float32", "filters": 32, "kernel_size": [1, 1], "strides": [1, 1], "padding": "same", "data_format": "channels_last", "dilation_rate": [1, 1], "activation": "linear", "use_bias": false, "kernel_initializer": {"class_name": "GlorotUniform", "config": {"seed": null}}, "bias_initializer": {"class_name": "Zeros", "config": {}}, "kernel_regularizer": null, "bias_regularizer": null, "activity_regularizer": null, "kernel_constraint": null, "bias_constraint": null}, "name": "conv2d_715", "inbound_nodes": [[["block35_2_ac", 0, 0, {}]]]}, {"class_name": "BatchNormalization", "config": {"name": "batch_normalization_731", "trainable": true, "dtype": "float32", "axis": [3], "momentum": 0.99, "epsilon": 0.001, "center": true, "scale": false, "beta_initializer": {"class_name": "Zeros", "config": {}}, "gamma_initializer": {"class_name": "Ones", "config": {}}, "moving_mean_initializer": {"class_name": "Zeros", "config": {}}, "moving_variance_initializer": {"class_name": "Ones", "config": {}}, "beta_regularizer": null, "gamma_regularizer": null, "beta_constraint": null, "gamma_constraint": null}, "name": "batch_normalization_731", "inbound_nodes": [[["conv2d_715", 0, 0, {}]]]}, {"class_name": "Activation", "config": {"name": "activation_715", "trainable": true, "dtype": "float32", "activation": "relu"}, "name": "activation_715", "inbound_nodes": [[["batch_normalization_731", 0, 0, {}]]]}, {"class_name": "Conv2D", "config": {"name": "conv2d_713", "trainable": true, "dtype": "float32", "filters": 32, "kernel_size": [1, 1], "strides": [1, 1], "padding": "same", "data_format": "channels_last", "dilation_rate": [1, 1], "activation": "linear", "use_bias": false, "kernel_initializer": {"class_name": "GlorotUniform", "config": {"seed": null}}, "bias_initializer": {"class_name": "Zeros", "config": {}}, "kernel_regularizer": null, "bias_regularizer": null, "activity_regularizer": null, "kernel_constraint": null, "bias_constraint": null}, "name": "conv2d_713", "inbound_nodes": [[["block35_2_ac", 0, 0, {}]]]}, {"class_name": "Conv2D", "config": {"name": "conv2d_716", "trainable": true, "dtype": "float32", "filters": 48, "kernel_size": [3, 3], "strides": [1, 1], "padding": "same", "data_format": "channels_last", "dilation_rate": [1, 1], "activation": "linear", "use_bias": false, "kernel_initializer": {"class_name": "GlorotUniform", "config": {"seed": null}}, "bias_initializer": {"class_name": "Zeros", "config": {}}, "kernel_regularizer": null, "bias_regularizer": null, "activity_regularizer": null, "kernel_constraint": null, "bias_constraint": null}, "name": "conv2d_716", "inbound_nodes": [[["activation_715", 0, 0, {}]]]}, {"class_name": "BatchNormalization", "config": {"name": "batch_normalization_729", "trainable": true, "dtype": "float32", "axis": [3], "momentum": 0.99, "epsilon": 0.001, "center": true, "scale": false, "beta_initializer": {"class_name": "Zeros", "config": {}}, "gamma_initializer": {"class_name": "Ones", "config": {}}, "moving_mean_initializer": {"class_name": "Zeros", "config": {}}, "moving_variance_initializer": {"class_name": "Ones", "config": {}}, "beta_regularizer": null, "gamma_regularizer": null, "beta_constraint": null, "gamma_constraint": null}, "name": "batch_normalization_729", "inbound_nodes": [[["conv2d_713", 0, 0, {}]]]}, {"class_name": "BatchNormalization", "config": {"name": "batch_normalization_732", "trainable": true, "dtype": "float32", "axis": [3], "momentum": 0.99, "epsilon": 0.001, "center": true, "scale": false, "beta_initializer": {"class_name": "Zeros", "config": {}}, "gamma_initializer": {"class_name": "Ones", "config": {}}, "moving_mean_initializer": {"class_name": "Zeros", "config": {}}, "moving_variance_initializer": {"class_name": "Ones", "config": {}}, "beta_regularizer": null, "gamma_regularizer": null, "beta_constraint": null, "gamma_constraint": null}, "name": "batch_normalization_732", "inbound_nodes": [[["conv2d_716", 0, 0, {}]]]}, {"class_name": "Activation", "config": {"name": "activation_713", "trainable": true, "dtype": "float32", "activation": "relu"}, "name": "activation_713", "inbound_nodes": [[["batch_normalization_729", 0, 0, {}]]]}, {"class_name": "Activation", "config": {"name": "activation_716", "trainable": true, "dtype": "float32", "activation": "relu"}, "name": "activation_716", "inbound_nodes": [[["batch_normalization_732", 0, 0, {}]]]}, {"class_name": "Conv2D", "config": {"name": "conv2d_712", "trainable": true, "dtype": "float32", "filters": 32, "kernel_size": [1, 1], "strides": [1, 1], "padding": "same", "data_format": "channels_last", "dilation_rate": [1, 1], "activation": "linear", "use_bias": false, "kernel_initializer": {"class_name": "GlorotUniform", "config": {"seed": null}}, "bias_initializer": {"class_name": "Zeros", "config": {}}, "kernel_regularizer": null, "bias_regularizer": null, "activity_regularizer": null, "kernel_constraint": null, "bias_constraint": null}, "name": "conv2d_712", "inbound_nodes": [[["block35_2_ac", 0, 0, {}]]]}, {"class_name": "Conv2D", "config": {"name": "conv2d_714", "trainable": true, "dtype": "float32", "filters": 32, "kernel_size": [3, 3], "strides": [1, 1], "padding": "same", "data_format": "channels_last", "dilation_rate": [1, 1], "activation": "linear", "use_bias": false, "kernel_initializer": {"class_name": "GlorotUniform", "config": {"seed": null}}, "bias_initializer": {"class_name": "Zeros", "config": {}}, "kernel_regularizer": null, "bias_regularizer": null, "activity_regularizer": null, "kernel_constraint": null, "bias_constraint": null}, "name": "conv2d_714", "inbound_nodes": [[["activation_713", 0, 0, {}]]]}, {"class_name": "Conv2D", "config": {"name": "conv2d_717", "trainable": true, "dtype": "float32", "filters": 64, "kernel_size": [3, 3], "strides": [1, 1], "padding": "same", "data_format": "channels_last", "dilation_rate": [1, 1], "activation": "linear", "use_bias": false, "kernel_initializer": {"class_name": "GlorotUniform", "config": {"seed": null}}, "bias_initializer": {"class_name": "Zeros", "config": {}}, "kernel_regularizer": null, "bias_regularizer": null, "activity_regularizer": null, "kernel_constraint": null, "bias_constraint": null}, "name": "conv2d_717", "inbound_nodes": [[["activation_716", 0, 0, {}]]]}, {"class_name": "BatchNormalization", "config": {"name": "batch_normalization_728", "trainable": true, "dtype": "float32", "axis": [3], "momentum": 0.99, "epsilon": 0.001, "center": true, "scale": false, "beta_initializer": {"class_name": "Zeros", "config": {}}, "gamma_initializer": {"class_name": "Ones", "config": {}}, "moving_mean_initializer": {"class_name": "Zeros", "config": {}}, "moving_variance_initializer": {"class_name": "Ones", "config": {}}, "beta_regularizer": null, "gamma_regularizer": null, "beta_constraint": null, "gamma_constraint": null}, "name": "batch_normalization_728", "inbound_nodes": [[["conv2d_712", 0, 0, {}]]]}, {"class_name": "BatchNormalization", "config": {"name": "batch_normalization_730", "trainable": true, "dtype": "float32", "axis": [3], "momentum": 0.99, "epsilon": 0.001, "center": true, "scale": false, "beta_initializer": {"class_name": "Zeros", "config": {}}, "gamma_initializer": {"class_name": "Ones", "config": {}}, "moving_mean_initializer": {"class_name": "Zeros", "config": {}}, "moving_variance_initializer": {"class_name": "Ones", "config": {}}, "beta_regularizer": null, "gamma_regularizer": null, "beta_constraint": null, "gamma_constraint": null}, "name": "batch_normalization_730", "inbound_nodes": [[["conv2d_714", 0, 0, {}]]]}, {"class_name": "BatchNormalization", "config": {"name": "batch_normalization_733", "trainable": true, "dtype": "float32", "axis": [3], "momentum": 0.99, "epsilon": 0.001, "center": true, "scale": false, "beta_initializer": {"class_name": "Zeros", "config": {}}, "gamma_initializer": {"class_name": "Ones", "config": {}}, "moving_mean_initializer": {"class_name": "Zeros", "config": {}}, "moving_variance_initializer": {"class_name": "Ones", "config": {}}, "beta_regularizer": null, "gamma_regularizer": null, "beta_constraint": null, "gamma_constraint": null}, "name": "batch_normalization_733", "inbound_nodes": [[["conv2d_717", 0, 0, {}]]]}, {"class_name": "Activation", "config": {"name": "activation_712", "trainable": true, "dtype": "float32", "activation": "relu"}, "name": "activation_712", "inbound_nodes": [[["batch_normalization_728", 0, 0, {}]]]}, {"class_name": "Activation", "config": {"name": "activation_714", "trainable": true, "dtype": "float32", "activation": "relu"}, "name": "activation_714", "inbound_nodes": [[["batch_normalization_730", 0, 0, {}]]]}, {"class_name": "Activation", "config": {"name": "activation_717", "trainable": true, "dtype": "float32", "activation": "relu"}, "name": "activation_717", "inbound_nodes": [[["batch_normalization_733", 0, 0, {}]]]}, {"class_name": "Concatenate", "config": {"name": "block35_3_mixed", "trainable": true, "dtype": "float32", "axis": 3}, "name": "block35_3_mixed", "inbound_nodes": [[["activation_712", 0, 0, {}], ["activation_714", 0, 0, {}], ["activation_717", 0, 0, {}]]]}, {"class_name": "Conv2D", "config": {"name": "block35_3_conv", "trainable": true, "dtype": "float32", "filters": 320, "kernel_size": [1, 1], "strides": [1, 1], "padding": "same", "data_format": "channels_last", "dilation_rate": [1, 1], "activation": "linear", "use_bias": true, "kernel_initializer": {"class_name": "GlorotUniform", "config": {"seed": null}}, "bias_initializer": {"class_name": "Zeros", "config": {}}, "kernel_regularizer": null, "bias_regularizer": null, "activity_regularizer": null, "kernel_constraint": null, "bias_constraint": null}, "name": "block35_3_conv", "inbound_nodes": [[["block35_3_mixed", 0, 0, {}]]]}, {"class_name": "Lambda", "config": {"name": "block35_3", "trainable": true, "dtype": "float32", "function": ["4wIAAAAAAAAAAgAAAAMAAABTAAAAcxQAAAB8AGQBGQB8AGQCGQB8ARQAFwBTACkDTukAAAAA6QEA\nAACpACkC2gZpbnB1dHPaBXNjYWxlcgMAAAByAwAAAPpkL2hvbWUvZmlsZnkvYW5hY29uZGEzL2Vu\ndnMvb3dnL2xpYi9weXRob24zLjcvc2l0ZS1wYWNrYWdlcy9rZXJhc19hcHBsaWNhdGlvbnMvaW5j\nZXB0aW9uX3Jlc25ldF92Mi5wedoIPGxhbWJkYT6oAAAA8wAAAAA=\n", null, null], "function_type": "lambda", "module": "keras_applications.inception_resnet_v2", "output_shape": [13, 13, 320], "output_shape_type": "raw", "output_shape_module": null, "arguments": {"scale": 0.17}}, "name": "block35_3", "inbound_nodes": [[["block35_2_ac", 0, 0, {}], ["block35_3_conv", 0, 0, {}]]]}, {"class_name": "Activation", "config": {"name": "block35_3_ac", "trainable": true, "dtype": "float32", "activation": "relu"}, "name": "block35_3_ac", "inbound_nodes": [[["block35_3", 0, 0, {}]]]}, {"class_name": "Conv2D", "config": {"name": "conv2d_721", "trainable": true, "dtype": "float32", "filters": 32, "kernel_size": [1, 1], "strides": [1, 1], "padding": "same", "data_format": "channels_last", "dilation_rate": [1, 1], "activation": "linear", "use_bias": false, "kernel_initializer": {"class_name": "GlorotUniform", "config": {"seed": null}}, "bias_initializer": {"class_name": "Zeros", "config": {}}, "kernel_regularizer": null, "bias_regularizer": null, "activity_regularizer": null, "kernel_constraint": null, "bias_constraint": null}, "name": "conv2d_721", "inbound_nodes": [[["block35_3_ac", 0, 0, {}]]]}, {"class_name": "BatchNormalization", "config": {"name": "batch_normalization_737", "trainable": true, "dtype": "float32", "axis": [3], "momentum": 0.99, "epsilon": 0.001, "center": true, "scale": false, "beta_initializer": {"class_name": "Zeros", "config": {}}, "gamma_initializer": {"class_name": "Ones", "config": {}}, "moving_mean_initializer": {"class_name": "Zeros", "config": {}}, "moving_variance_initializer": {"class_name": "Ones", "config": {}}, "beta_regularizer": null, "gamma_regularizer": null, "beta_constraint": null, "gamma_constraint": null}, "name": "batch_normalization_737", "inbound_nodes": [[["conv2d_721", 0, 0, {}]]]}, {"class_name": "Activation", "config": {"name": "activation_721", "trainable": true, "dtype": "float32", "activation": "relu"}, "name": "activation_721", "inbound_nodes": [[["batch_normalization_737", 0, 0, {}]]]}, {"class_name": "Conv2D", "config": {"name": "conv2d_719", "trainable": true, "dtype": "float32", "filters": 32, "kernel_size": [1, 1], "strides": [1, 1], "padding": "same", "data_format": "channels_last", "dilation_rate": [1, 1], "activation": "linear", "use_bias": false, "kernel_initializer": {"class_name": "GlorotUniform", "config": {"seed": null}}, "bias_initializer": {"class_name": "Zeros", "config": {}}, "kernel_regularizer": null, "bias_regularizer": null, "activity_regularizer": null, "kernel_constraint": null, "bias_constraint": null}, "name": "conv2d_719", "inbound_nodes": [[["block35_3_ac", 0, 0, {}]]]}, {"class_name": "Conv2D", "config": {"name": "conv2d_722", "trainable": true, "dtype": "float32", "filters": 48, "kernel_size": [3, 3], "strides": [1, 1], "padding": "same", "data_format": "channels_last", "dilation_rate": [1, 1], "activation": "linear", "use_bias": false, "kernel_initializer": {"class_name": "GlorotUniform", "config": {"seed": null}}, "bias_initializer": {"class_name": "Zeros", "config": {}}, "kernel_regularizer": null, "bias_regularizer": null, "activity_regularizer": null, "kernel_constraint": null, "bias_constraint": null}, "name": "conv2d_722", "inbound_nodes": [[["activation_721", 0, 0, {}]]]}, {"class_name": "BatchNormalization", "config": {"name": "batch_normalization_735", "trainable": true, "dtype": "float32", "axis": [3], "momentum": 0.99, "epsilon": 0.001, "center": true, "scale": false, "beta_initializer": {"class_name": "Zeros", "config": {}}, "gamma_initializer": {"class_name": "Ones", "config": {}}, "moving_mean_initializer": {"class_name": "Zeros", "config": {}}, "moving_variance_initializer": {"class_name": "Ones", "config": {}}, "beta_regularizer": null, "gamma_regularizer": null, "beta_constraint": null, "gamma_constraint": null}, "name": "batch_normalization_735", "inbound_nodes": [[["conv2d_719", 0, 0, {}]]]}, {"class_name": "BatchNormalization", "config": {"name": "batch_normalization_738", "trainable": true, "dtype": "float32", "axis": [3], "momentum": 0.99, "epsilon": 0.001, "center": true, "scale": false, "beta_initializer": {"class_name": "Zeros", "config": {}}, "gamma_initializer": {"class_name": "Ones", "config": {}}, "moving_mean_initializer": {"class_name": "Zeros", "config": {}}, "moving_variance_initializer": {"class_name": "Ones", "config": {}}, "beta_regularizer": null, "gamma_regularizer": null, "beta_constraint": null, "gamma_constraint": null}, "name": "batch_normalization_738", "inbound_nodes": [[["conv2d_722", 0, 0, {}]]]}, {"class_name": "Activation", "config": {"name": "activation_719", "trainable": true, "dtype": "float32", "activation": "relu"}, "name": "activation_719", "inbound_nodes": [[["batch_normalization_735", 0, 0, {}]]]}, {"class_name": "Activation", "config": {"name": "activation_722", "trainable": true, "dtype": "float32", "activation": "relu"}, "name": "activation_722", "inbound_nodes": [[["batch_normalization_738", 0, 0, {}]]]}, {"class_name": "Conv2D", "config": {"name": "conv2d_718", "trainable": true, "dtype": "float32", "filters": 32, "kernel_size": [1, 1], "strides": [1, 1], "padding": "same", "data_format": "channels_last", "dilation_rate": [1, 1], "activation": "linear", "use_bias": false, "kernel_initializer": {"class_name": "GlorotUniform", "config": {"seed": null}}, "bias_initializer": {"class_name": "Zeros", "config": {}}, "kernel_regularizer": null, "bias_regularizer": null, "activity_regularizer": null, "kernel_constraint": null, "bias_constraint": null}, "name": "conv2d_718", "inbound_nodes": [[["block35_3_ac", 0, 0, {}]]]}, {"class_name": "Conv2D", "config": {"name": "conv2d_720", "trainable": true, "dtype": "float32", "filters": 32, "kernel_size": [3, 3], "strides": [1, 1], "padding": "same", "data_format": "channels_last", "dilation_rate": [1, 1], "activation": "linear", "use_bias": false, "kernel_initializer": {"class_name": "GlorotUniform", "config": {"seed": null}}, "bias_initializer": {"class_name": "Zeros", "config": {}}, "kernel_regularizer": null, "bias_regularizer": null, "activity_regularizer": null, "kernel_constraint": null, "bias_constraint": null}, "name": "conv2d_720", "inbound_nodes": [[["activation_719", 0, 0, {}]]]}, {"class_name": "Conv2D", "config": {"name": "conv2d_723", "trainable": true, "dtype": "float32", "filters": 64, "kernel_size": [3, 3], "strides": [1, 1], "padding": "same", "data_format": "channels_last", "dilation_rate": [1, 1], "activation": "linear", "use_bias": false, "kernel_initializer": {"class_name": "GlorotUniform", "config": {"seed": null}}, "bias_initializer": {"class_name": "Zeros", "config": {}}, "kernel_regularizer": null, "bias_regularizer": null, "activity_regularizer": null, "kernel_constraint": null, "bias_constraint": null}, "name": "conv2d_723", "inbound_nodes": [[["activation_722", 0, 0, {}]]]}, {"class_name": "BatchNormalization", "config": {"name": "batch_normalization_734", "trainable": true, "dtype": "float32", "axis": [3], "momentum": 0.99, "epsilon": 0.001, "center": true, "scale": false, "beta_initializer": {"class_name": "Zeros", "config": {}}, "gamma_initializer": {"class_name": "Ones", "config": {}}, "moving_mean_initializer": {"class_name": "Zeros", "config": {}}, "moving_variance_initializer": {"class_name": "Ones", "config": {}}, "beta_regularizer": null, "gamma_regularizer": null, "beta_constraint": null, "gamma_constraint": null}, "name": "batch_normalization_734", "inbound_nodes": [[["conv2d_718", 0, 0, {}]]]}, {"class_name": "BatchNormalization", "config": {"name": "batch_normalization_736", "trainable": true, "dtype": "float32", "axis": [3], "momentum": 0.99, "epsilon": 0.001, "center": true, "scale": false, "beta_initializer": {"class_name": "Zeros", "config": {}}, "gamma_initializer": {"class_name": "Ones", "config": {}}, "moving_mean_initializer": {"class_name": "Zeros", "config": {}}, "moving_variance_initializer": {"class_name": "Ones", "config": {}}, "beta_regularizer": null, "gamma_regularizer": null, "beta_constraint": null, "gamma_constraint": null}, "name": "batch_normalization_736", "inbound_nodes": [[["conv2d_720", 0, 0, {}]]]}, {"class_name": "BatchNormalization", "config": {"name": "batch_normalization_739", "trainable": true, "dtype": "float32", "axis": [3], "momentum": 0.99, "epsilon": 0.001, "center": true, "scale": false, "beta_initializer": {"class_name": "Zeros", "config": {}}, "gamma_initializer": {"class_name": "Ones", "config": {}}, "moving_mean_initializer": {"class_name": "Zeros", "config": {}}, "moving_variance_initializer": {"class_name": "Ones", "config": {}}, "beta_regularizer": null, "gamma_regularizer": null, "beta_constraint": null, "gamma_constraint": null}, "name": "batch_normalization_739", "inbound_nodes": [[["conv2d_723", 0, 0, {}]]]}, {"class_name": "Activation", "config": {"name": "activation_718", "trainable": true, "dtype": "float32", "activation": "relu"}, "name": "activation_718", "inbound_nodes": [[["batch_normalization_734", 0, 0, {}]]]}, {"class_name": "Activation", "config": {"name": "activation_720", "trainable": true, "dtype": "float32", "activation": "relu"}, "name": "activation_720", "inbound_nodes": [[["batch_normalization_736", 0, 0, {}]]]}, {"class_name": "Activation", "config": {"name": "activation_723", "trainable": true, "dtype": "float32", "activation": "relu"}, "name": "activation_723", "inbound_nodes": [[["batch_normalization_739", 0, 0, {}]]]}, {"class_name": "Concatenate", "config": {"name": "block35_4_mixed", "trainable": true, "dtype": "float32", "axis": 3}, "name": "block35_4_mixed", "inbound_nodes": [[["activation_718", 0, 0, {}], ["activation_720", 0, 0, {}], ["activation_723", 0, 0, {}]]]}, {"class_name": "Conv2D", "config": {"name": "block35_4_conv", "trainable": true, "dtype": "float32", "filters": 320, "kernel_size": [1, 1], "strides": [1, 1], "padding": "same", "data_format": "channels_last", "dilation_rate": [1, 1], "activation": "linear", "use_bias": true, "kernel_initializer": {"class_name": "GlorotUniform", "config": {"seed": null}}, "bias_initializer": {"class_name": "Zeros", "config": {}}, "kernel_regularizer": null, "bias_regularizer": null, "activity_regularizer": null, "kernel_constraint": null, "bias_constraint": null}, "name": "block35_4_conv", "inbound_nodes": [[["block35_4_mixed", 0, 0, {}]]]}, {"class_name": "Lambda", "config": {"name": "block35_4", "trainable": true, "dtype": "float32", "function": ["4wIAAAAAAAAAAgAAAAMAAABTAAAAcxQAAAB8AGQBGQB8AGQCGQB8ARQAFwBTACkDTukAAAAA6QEA\nAACpACkC2gZpbnB1dHPaBXNjYWxlcgMAAAByAwAAAPpkL2hvbWUvZmlsZnkvYW5hY29uZGEzL2Vu\ndnMvb3dnL2xpYi9weXRob24zLjcvc2l0ZS1wYWNrYWdlcy9rZXJhc19hcHBsaWNhdGlvbnMvaW5j\nZXB0aW9uX3Jlc25ldF92Mi5wedoIPGxhbWJkYT6oAAAA8wAAAAA=\n", null, null], "function_type": "lambda", "module": "keras_applications.inception_resnet_v2", "output_shape": [13, 13, 320], "output_shape_type": "raw", "output_shape_module": null, "arguments": {"scale": 0.17}}, "name": "block35_4", "inbound_nodes": [[["block35_3_ac", 0, 0, {}], ["block35_4_conv", 0, 0, {}]]]}, {"class_name": "Activation", "config": {"name": "block35_4_ac", "trainable": true, "dtype": "float32", "activation": "relu"}, "name": "block35_4_ac", "inbound_nodes": [[["block35_4", 0, 0, {}]]]}, {"class_name": "Conv2D", "config": {"name": "conv2d_727", "trainable": true, "dtype": "float32", "filters": 32, "kernel_size": [1, 1], "strides": [1, 1], "padding": "same", "data_format": "channels_last", "dilation_rate": [1, 1], "activation": "linear", "use_bias": false, "kernel_initializer": {"class_name": "GlorotUniform", "config": {"seed": null}}, "bias_initializer": {"class_name": "Zeros", "config": {}}, "kernel_regularizer": null, "bias_regularizer": null, "activity_regularizer": null, "kernel_constraint": null, "bias_constraint": null}, "name": "conv2d_727", "inbound_nodes": [[["block35_4_ac", 0, 0, {}]]]}, {"class_name": "BatchNormalization", "config": {"name": "batch_normalization_743", "trainable": true, "dtype": "float32", "axis": [3], "momentum": 0.99, "epsilon": 0.001, "center": true, "scale": false, "beta_initializer": {"class_name": "Zeros", "config": {}}, "gamma_initializer": {"class_name": "Ones", "config": {}}, "moving_mean_initializer": {"class_name": "Zeros", "config": {}}, "moving_variance_initializer": {"class_name": "Ones", "config": {}}, "beta_regularizer": null, "gamma_regularizer": null, "beta_constraint": null, "gamma_constraint": null}, "name": "batch_normalization_743", "inbound_nodes": [[["conv2d_727", 0, 0, {}]]]}, {"class_name": "Activation", "config": {"name": "activation_727", "trainable": true, "dtype": "float32", "activation": "relu"}, "name": "activation_727", "inbound_nodes": [[["batch_normalization_743", 0, 0, {}]]]}, {"class_name": "Conv2D", "config": {"name": "conv2d_725", "trainable": true, "dtype": "float32", "filters": 32, "kernel_size": [1, 1], "strides": [1, 1], "padding": "same", "data_format": "channels_last", "dilation_rate": [1, 1], "activation": "linear", "use_bias": false, "kernel_initializer": {"class_name": "GlorotUniform", "config": {"seed": null}}, "bias_initializer": {"class_name": "Zeros", "config": {}}, "kernel_regularizer": null, "bias_regularizer": null, "activity_regularizer": null, "kernel_constraint": null, "bias_constraint": null}, "name": "conv2d_725", "inbound_nodes": [[["block35_4_ac", 0, 0, {}]]]}, {"class_name": "Conv2D", "config": {"name": "conv2d_728", "trainable": true, "dtype": "float32", "filters": 48, "kernel_size": [3, 3], "strides": [1, 1], "padding": "same", "data_format": "channels_last", "dilation_rate": [1, 1], "activation": "linear", "use_bias": false, "kernel_initializer": {"class_name": "GlorotUniform", "config": {"seed": null}}, "bias_initializer": {"class_name": "Zeros", "config": {}}, "kernel_regularizer": null, "bias_regularizer": null, "activity_regularizer": null, "kernel_constraint": null, "bias_constraint": null}, "name": "conv2d_728", "inbound_nodes": [[["activation_727", 0, 0, {}]]]}, {"class_name": "BatchNormalization", "config": {"name": "batch_normalization_741", "trainable": true, "dtype": "float32", "axis": [3], "momentum": 0.99, "epsilon": 0.001, "center": true, "scale": false, "beta_initializer": {"class_name": "Zeros", "config": {}}, "gamma_initializer": {"class_name": "Ones", "config": {}}, "moving_mean_initializer": {"class_name": "Zeros", "config": {}}, "moving_variance_initializer": {"class_name": "Ones", "config": {}}, "beta_regularizer": null, "gamma_regularizer": null, "beta_constraint": null, "gamma_constraint": null}, "name": "batch_normalization_741", "inbound_nodes": [[["conv2d_725", 0, 0, {}]]]}, {"class_name": "BatchNormalization", "config": {"name": "batch_normalization_744", "trainable": true, "dtype": "float32", "axis": [3], "momentum": 0.99, "epsilon": 0.001, "center": true, "scale": false, "beta_initializer": {"class_name": "Zeros", "config": {}}, "gamma_initializer": {"class_name": "Ones", "config": {}}, "moving_mean_initializer": {"class_name": "Zeros", "config": {}}, "moving_variance_initializer": {"class_name": "Ones", "config": {}}, "beta_regularizer": null, "gamma_regularizer": null, "beta_constraint": null, "gamma_constraint": null}, "name": "batch_normalization_744", "inbound_nodes": [[["conv2d_728", 0, 0, {}]]]}, {"class_name": "Activation", "config": {"name": "activation_725", "trainable": true, "dtype": "float32", "activation": "relu"}, "name": "activation_725", "inbound_nodes": [[["batch_normalization_741", 0, 0, {}]]]}, {"class_name": "Activation", "config": {"name": "activation_728", "trainable": true, "dtype": "float32", "activation": "relu"}, "name": "activation_728", "inbound_nodes": [[["batch_normalization_744", 0, 0, {}]]]}, {"class_name": "Conv2D", "config": {"name": "conv2d_724", "trainable": true, "dtype": "float32", "filters": 32, "kernel_size": [1, 1], "strides": [1, 1], "padding": "same", "data_format": "channels_last", "dilation_rate": [1, 1], "activation": "linear", "use_bias": false, "kernel_initializer": {"class_name": "GlorotUniform", "config": {"seed": null}}, "bias_initializer": {"class_name": "Zeros", "config": {}}, "kernel_regularizer": null, "bias_regularizer": null, "activity_regularizer": null, "kernel_constraint": null, "bias_constraint": null}, "name": "conv2d_724", "inbound_nodes": [[["block35_4_ac", 0, 0, {}]]]}, {"class_name": "Conv2D", "config": {"name": "conv2d_726", "trainable": true, "dtype": "float32", "filters": 32, "kernel_size": [3, 3], "strides": [1, 1], "padding": "same", "data_format": "channels_last", "dilation_rate": [1, 1], "activation": "linear", "use_bias": false, "kernel_initializer": {"class_name": "GlorotUniform", "config": {"seed": null}}, "bias_initializer": {"class_name": "Zeros", "config": {}}, "kernel_regularizer": null, "bias_regularizer": null, "activity_regularizer": null, "kernel_constraint": null, "bias_constraint": null}, "name": "conv2d_726", "inbound_nodes": [[["activation_725", 0, 0, {}]]]}, {"class_name": "Conv2D", "config": {"name": "conv2d_729", "trainable": true, "dtype": "float32", "filters": 64, "kernel_size": [3, 3], "strides": [1, 1], "padding": "same", "data_format": "channels_last", "dilation_rate": [1, 1], "activation": "linear", "use_bias": false, "kernel_initializer": {"class_name": "GlorotUniform", "config": {"seed": null}}, "bias_initializer": {"class_name": "Zeros", "config": {}}, "kernel_regularizer": null, "bias_regularizer": null, "activity_regularizer": null, "kernel_constraint": null, "bias_constraint": null}, "name": "conv2d_729", "inbound_nodes": [[["activation_728", 0, 0, {}]]]}, {"class_name": "BatchNormalization", "config": {"name": "batch_normalization_740", "trainable": true, "dtype": "float32", "axis": [3], "momentum": 0.99, "epsilon": 0.001, "center": true, "scale": false, "beta_initializer": {"class_name": "Zeros", "config": {}}, "gamma_initializer": {"class_name": "Ones", "config": {}}, "moving_mean_initializer": {"class_name": "Zeros", "config": {}}, "moving_variance_initializer": {"class_name": "Ones", "config": {}}, "beta_regularizer": null, "gamma_regularizer": null, "beta_constraint": null, "gamma_constraint": null}, "name": "batch_normalization_740", "inbound_nodes": [[["conv2d_724", 0, 0, {}]]]}, {"class_name": "BatchNormalization", "config": {"name": "batch_normalization_742", "trainable": true, "dtype": "float32", "axis": [3], "momentum": 0.99, "epsilon": 0.001, "center": true, "scale": false, "beta_initializer": {"class_name": "Zeros", "config": {}}, "gamma_initializer": {"class_name": "Ones", "config": {}}, "moving_mean_initializer": {"class_name": "Zeros", "config": {}}, "moving_variance_initializer": {"class_name": "Ones", "config": {}}, "beta_regularizer": null, "gamma_regularizer": null, "beta_constraint": null, "gamma_constraint": null}, "name": "batch_normalization_742", "inbound_nodes": [[["conv2d_726", 0, 0, {}]]]}, {"class_name": "BatchNormalization", "config": {"name": "batch_normalization_745", "trainable": true, "dtype": "float32", "axis": [3], "momentum": 0.99, "epsilon": 0.001, "center": true, "scale": false, "beta_initializer": {"class_name": "Zeros", "config": {}}, "gamma_initializer": {"class_name": "Ones", "config": {}}, "moving_mean_initializer": {"class_name": "Zeros", "config": {}}, "moving_variance_initializer": {"class_name": "Ones", "config": {}}, "beta_regularizer": null, "gamma_regularizer": null, "beta_constraint": null, "gamma_constraint": null}, "name": "batch_normalization_745", "inbound_nodes": [[["conv2d_729", 0, 0, {}]]]}, {"class_name": "Activation", "config": {"name": "activation_724", "trainable": true, "dtype": "float32", "activation": "relu"}, "name": "activation_724", "inbound_nodes": [[["batch_normalization_740", 0, 0, {}]]]}, {"class_name": "Activation", "config": {"name": "activation_726", "trainable": true, "dtype": "float32", "activation": "relu"}, "name": "activation_726", "inbound_nodes": [[["batch_normalization_742", 0, 0, {}]]]}, {"class_name": "Activation", "config": {"name": "activation_729", "trainable": true, "dtype": "float32", "activation": "relu"}, "name": "activation_729", "inbound_nodes": [[["batch_normalization_745", 0, 0, {}]]]}, {"class_name": "Concatenate", "config": {"name": "block35_5_mixed", "trainable": true, "dtype": "float32", "axis": 3}, "name": "block35_5_mixed", "inbound_nodes": [[["activation_724", 0, 0, {}], ["activation_726", 0, 0, {}], ["activation_729", 0, 0, {}]]]}, {"class_name": "Conv2D", "config": {"name": "block35_5_conv", "trainable": true, "dtype": "float32", "filters": 320, "kernel_size": [1, 1], "strides": [1, 1], "padding": "same", "data_format": "channels_last", "dilation_rate": [1, 1], "activation": "linear", "use_bias": true, "kernel_initializer": {"class_name": "GlorotUniform", "config": {"seed": null}}, "bias_initializer": {"class_name": "Zeros", "config": {}}, "kernel_regularizer": null, "bias_regularizer": null, "activity_regularizer": null, "kernel_constraint": null, "bias_constraint": null}, "name": "block35_5_conv", "inbound_nodes": [[["block35_5_mixed", 0, 0, {}]]]}, {"class_name": "Lambda", "config": {"name": "block35_5", "trainable": true, "dtype": "float32", "function": ["4wIAAAAAAAAAAgAAAAMAAABTAAAAcxQAAAB8AGQBGQB8AGQCGQB8ARQAFwBTACkDTukAAAAA6QEA\nAACpACkC2gZpbnB1dHPaBXNjYWxlcgMAAAByAwAAAPpkL2hvbWUvZmlsZnkvYW5hY29uZGEzL2Vu\ndnMvb3dnL2xpYi9weXRob24zLjcvc2l0ZS1wYWNrYWdlcy9rZXJhc19hcHBsaWNhdGlvbnMvaW5j\nZXB0aW9uX3Jlc25ldF92Mi5wedoIPGxhbWJkYT6oAAAA8wAAAAA=\n", null, null], "function_type": "lambda", "module": "keras_applications.inception_resnet_v2", "output_shape": [13, 13, 320], "output_shape_type": "raw", "output_shape_module": null, "arguments": {"scale": 0.17}}, "name": "block35_5", "inbound_nodes": [[["block35_4_ac", 0, 0, {}], ["block35_5_conv", 0, 0, {}]]]}, {"class_name": "Activation", "config": {"name": "block35_5_ac", "trainable": true, "dtype": "float32", "activation": "relu"}, "name": "block35_5_ac", "inbound_nodes": [[["block35_5", 0, 0, {}]]]}, {"class_name": "Conv2D", "config": {"name": "conv2d_733", "trainable": true, "dtype": "float32", "filters": 32, "kernel_size": [1, 1], "strides": [1, 1], "padding": "same", "data_format": "channels_last", "dilation_rate": [1, 1], "activation": "linear", "use_bias": false, "kernel_initializer": {"class_name": "GlorotUniform", "config": {"seed": null}}, "bias_initializer": {"class_name": "Zeros", "config": {}}, "kernel_regularizer": null, "bias_regularizer": null, "activity_regularizer": null, "kernel_constraint": null, "bias_constraint": null}, "name": "conv2d_733", "inbound_nodes": [[["block35_5_ac", 0, 0, {}]]]}, {"class_name": "BatchNormalization", "config": {"name": "batch_normalization_749", "trainable": true, "dtype": "float32", "axis": [3], "momentum": 0.99, "epsilon": 0.001, "center": true, "scale": false, "beta_initializer": {"class_name": "Zeros", "config": {}}, "gamma_initializer": {"class_name": "Ones", "config": {}}, "moving_mean_initializer": {"class_name": "Zeros", "config": {}}, "moving_variance_initializer": {"class_name": "Ones", "config": {}}, "beta_regularizer": null, "gamma_regularizer": null, "beta_constraint": null, "gamma_constraint": null}, "name": "batch_normalization_749", "inbound_nodes": [[["conv2d_733", 0, 0, {}]]]}, {"class_name": "Activation", "config": {"name": "activation_733", "trainable": true, "dtype": "float32", "activation": "relu"}, "name": "activation_733", "inbound_nodes": [[["batch_normalization_749", 0, 0, {}]]]}, {"class_name": "Conv2D", "config": {"name": "conv2d_731", "trainable": true, "dtype": "float32", "filters": 32, "kernel_size": [1, 1], "strides": [1, 1], "padding": "same", "data_format": "channels_last", "dilation_rate": [1, 1], "activation": "linear", "use_bias": false, "kernel_initializer": {"class_name": "GlorotUniform", "config": {"seed": null}}, "bias_initializer": {"class_name": "Zeros", "config": {}}, "kernel_regularizer": null, "bias_regularizer": null, "activity_regularizer": null, "kernel_constraint": null, "bias_constraint": null}, "name": "conv2d_731", "inbound_nodes": [[["block35_5_ac", 0, 0, {}]]]}, {"class_name": "Conv2D", "config": {"name": "conv2d_734", "trainable": true, "dtype": "float32", "filters": 48, "kernel_size": [3, 3], "strides": [1, 1], "padding": "same", "data_format": "channels_last", "dilation_rate": [1, 1], "activation": "linear", "use_bias": false, "kernel_initializer": {"class_name": "GlorotUniform", "config": {"seed": null}}, "bias_initializer": {"class_name": "Zeros", "config": {}}, "kernel_regularizer": null, "bias_regularizer": null, "activity_regularizer": null, "kernel_constraint": null, "bias_constraint": null}, "name": "conv2d_734", "inbound_nodes": [[["activation_733", 0, 0, {}]]]}, {"class_name": "BatchNormalization", "config": {"name": "batch_normalization_747", "trainable": true, "dtype": "float32", "axis": [3], "momentum": 0.99, "epsilon": 0.001, "center": true, "scale": false, "beta_initializer": {"class_name": "Zeros", "config": {}}, "gamma_initializer": {"class_name": "Ones", "config": {}}, "moving_mean_initializer": {"class_name": "Zeros", "config": {}}, "moving_variance_initializer": {"class_name": "Ones", "config": {}}, "beta_regularizer": null, "gamma_regularizer": null, "beta_constraint": null, "gamma_constraint": null}, "name": "batch_normalization_747", "inbound_nodes": [[["conv2d_731", 0, 0, {}]]]}, {"class_name": "BatchNormalization", "config": {"name": "batch_normalization_750", "trainable": true, "dtype": "float32", "axis": [3], "momentum": 0.99, "epsilon": 0.001, "center": true, "scale": false, "beta_initializer": {"class_name": "Zeros", "config": {}}, "gamma_initializer": {"class_name": "Ones", "config": {}}, "moving_mean_initializer": {"class_name": "Zeros", "config": {}}, "moving_variance_initializer": {"class_name": "Ones", "config": {}}, "beta_regularizer": null, "gamma_regularizer": null, "beta_constraint": null, "gamma_constraint": null}, "name": "batch_normalization_750", "inbound_nodes": [[["conv2d_734", 0, 0, {}]]]}, {"class_name": "Activation", "config": {"name": "activation_731", "trainable": true, "dtype": "float32", "activation": "relu"}, "name": "activation_731", "inbound_nodes": [[["batch_normalization_747", 0, 0, {}]]]}, {"class_name": "Activation", "config": {"name": "activation_734", "trainable": true, "dtype": "float32", "activation": "relu"}, "name": "activation_734", "inbound_nodes": [[["batch_normalization_750", 0, 0, {}]]]}, {"class_name": "Conv2D", "config": {"name": "conv2d_730", "trainable": true, "dtype": "float32", "filters": 32, "kernel_size": [1, 1], "strides": [1, 1], "padding": "same", "data_format": "channels_last", "dilation_rate": [1, 1], "activation": "linear", "use_bias": false, "kernel_initializer": {"class_name": "GlorotUniform", "config": {"seed": null}}, "bias_initializer": {"class_name": "Zeros", "config": {}}, "kernel_regularizer": null, "bias_regularizer": null, "activity_regularizer": null, "kernel_constraint": null, "bias_constraint": null}, "name": "conv2d_730", "inbound_nodes": [[["block35_5_ac", 0, 0, {}]]]}, {"class_name": "Conv2D", "config": {"name": "conv2d_732", "trainable": true, "dtype": "float32", "filters": 32, "kernel_size": [3, 3], "strides": [1, 1], "padding": "same", "data_format": "channels_last", "dilation_rate": [1, 1], "activation": "linear", "use_bias": false, "kernel_initializer": {"class_name": "GlorotUniform", "config": {"seed": null}}, "bias_initializer": {"class_name": "Zeros", "config": {}}, "kernel_regularizer": null, "bias_regularizer": null, "activity_regularizer": null, "kernel_constraint": null, "bias_constraint": null}, "name": "conv2d_732", "inbound_nodes": [[["activation_731", 0, 0, {}]]]}, {"class_name": "Conv2D", "config": {"name": "conv2d_735", "trainable": true, "dtype": "float32", "filters": 64, "kernel_size": [3, 3], "strides": [1, 1], "padding": "same", "data_format": "channels_last", "dilation_rate": [1, 1], "activation": "linear", "use_bias": false, "kernel_initializer": {"class_name": "GlorotUniform", "config": {"seed": null}}, "bias_initializer": {"class_name": "Zeros", "config": {}}, "kernel_regularizer": null, "bias_regularizer": null, "activity_regularizer": null, "kernel_constraint": null, "bias_constraint": null}, "name": "conv2d_735", "inbound_nodes": [[["activation_734", 0, 0, {}]]]}, {"class_name": "BatchNormalization", "config": {"name": "batch_normalization_746", "trainable": true, "dtype": "float32", "axis": [3], "momentum": 0.99, "epsilon": 0.001, "center": true, "scale": false, "beta_initializer": {"class_name": "Zeros", "config": {}}, "gamma_initializer": {"class_name": "Ones", "config": {}}, "moving_mean_initializer": {"class_name": "Zeros", "config": {}}, "moving_variance_initializer": {"class_name": "Ones", "config": {}}, "beta_regularizer": null, "gamma_regularizer": null, "beta_constraint": null, "gamma_constraint": null}, "name": "batch_normalization_746", "inbound_nodes": [[["conv2d_730", 0, 0, {}]]]}, {"class_name": "BatchNormalization", "config": {"name": "batch_normalization_748", "trainable": true, "dtype": "float32", "axis": [3], "momentum": 0.99, "epsilon": 0.001, "center": true, "scale": false, "beta_initializer": {"class_name": "Zeros", "config": {}}, "gamma_initializer": {"class_name": "Ones", "config": {}}, "moving_mean_initializer": {"class_name": "Zeros", "config": {}}, "moving_variance_initializer": {"class_name": "Ones", "config": {}}, "beta_regularizer": null, "gamma_regularizer": null, "beta_constraint": null, "gamma_constraint": null}, "name": "batch_normalization_748", "inbound_nodes": [[["conv2d_732", 0, 0, {}]]]}, {"class_name": "BatchNormalization", "config": {"name": "batch_normalization_751", "trainable": true, "dtype": "float32", "axis": [3], "momentum": 0.99, "epsilon": 0.001, "center": true, "scale": false, "beta_initializer": {"class_name": "Zeros", "config": {}}, "gamma_initializer": {"class_name": "Ones", "config": {}}, "moving_mean_initializer": {"class_name": "Zeros", "config": {}}, "moving_variance_initializer": {"class_name": "Ones", "config": {}}, "beta_regularizer": null, "gamma_regularizer": null, "beta_constraint": null, "gamma_constraint": null}, "name": "batch_normalization_751", "inbound_nodes": [[["conv2d_735", 0, 0, {}]]]}, {"class_name": "Activation", "config": {"name": "activation_730", "trainable": true, "dtype": "float32", "activation": "relu"}, "name": "activation_730", "inbound_nodes": [[["batch_normalization_746", 0, 0, {}]]]}, {"class_name": "Activation", "config": {"name": "activation_732", "trainable": true, "dtype": "float32", "activation": "relu"}, "name": "activation_732", "inbound_nodes": [[["batch_normalization_748", 0, 0, {}]]]}, {"class_name": "Activation", "config": {"name": "activation_735", "trainable": true, "dtype": "float32", "activation": "relu"}, "name": "activation_735", "inbound_nodes": [[["batch_normalization_751", 0, 0, {}]]]}, {"class_name": "Concatenate", "config": {"name": "block35_6_mixed", "trainable": true, "dtype": "float32", "axis": 3}, "name": "block35_6_mixed", "inbound_nodes": [[["activation_730", 0, 0, {}], ["activation_732", 0, 0, {}], ["activation_735", 0, 0, {}]]]}, {"class_name": "Conv2D", "config": {"name": "block35_6_conv", "trainable": true, "dtype": "float32", "filters": 320, "kernel_size": [1, 1], "strides": [1, 1], "padding": "same", "data_format": "channels_last", "dilation_rate": [1, 1], "activation": "linear", "use_bias": true, "kernel_initializer": {"class_name": "GlorotUniform", "config": {"seed": null}}, "bias_initializer": {"class_name": "Zeros", "config": {}}, "kernel_regularizer": null, "bias_regularizer": null, "activity_regularizer": null, "kernel_constraint": null, "bias_constraint": null}, "name": "block35_6_conv", "inbound_nodes": [[["block35_6_mixed", 0, 0, {}]]]}, {"class_name": "Lambda", "config": {"name": "block35_6", "trainable": true, "dtype": "float32", "function": ["4wIAAAAAAAAAAgAAAAMAAABTAAAAcxQAAAB8AGQBGQB8AGQCGQB8ARQAFwBTACkDTukAAAAA6QEA\nAACpACkC2gZpbnB1dHPaBXNjYWxlcgMAAAByAwAAAPpkL2hvbWUvZmlsZnkvYW5hY29uZGEzL2Vu\ndnMvb3dnL2xpYi9weXRob24zLjcvc2l0ZS1wYWNrYWdlcy9rZXJhc19hcHBsaWNhdGlvbnMvaW5j\nZXB0aW9uX3Jlc25ldF92Mi5wedoIPGxhbWJkYT6oAAAA8wAAAAA=\n", null, null], "function_type": "lambda", "module": "keras_applications.inception_resnet_v2", "output_shape": [13, 13, 320], "output_shape_type": "raw", "output_shape_module": null, "arguments": {"scale": 0.17}}, "name": "block35_6", "inbound_nodes": [[["block35_5_ac", 0, 0, {}], ["block35_6_conv", 0, 0, {}]]]}, {"class_name": "Activation", "config": {"name": "block35_6_ac", "trainable": true, "dtype": "float32", "activation": "relu"}, "name": "block35_6_ac", "inbound_nodes": [[["block35_6", 0, 0, {}]]]}, {"class_name": "Conv2D", "config": {"name": "conv2d_739", "trainable": true, "dtype": "float32", "filters": 32, "kernel_size": [1, 1], "strides": [1, 1], "padding": "same", "data_format": "channels_last", "dilation_rate": [1, 1], "activation": "linear", "use_bias": false, "kernel_initializer": {"class_name": "GlorotUniform", "config": {"seed": null}}, "bias_initializer": {"class_name": "Zeros", "config": {}}, "kernel_regularizer": null, "bias_regularizer": null, "activity_regularizer": null, "kernel_constraint": null, "bias_constraint": null}, "name": "conv2d_739", "inbound_nodes": [[["block35_6_ac", 0, 0, {}]]]}, {"class_name": "BatchNormalization", "config": {"name": "batch_normalization_755", "trainable": true, "dtype": "float32", "axis": [3], "momentum": 0.99, "epsilon": 0.001, "center": true, "scale": false, "beta_initializer": {"class_name": "Zeros", "config": {}}, "gamma_initializer": {"class_name": "Ones", "config": {}}, "moving_mean_initializer": {"class_name": "Zeros", "config": {}}, "moving_variance_initializer": {"class_name": "Ones", "config": {}}, "beta_regularizer": null, "gamma_regularizer": null, "beta_constraint": null, "gamma_constraint": null}, "name": "batch_normalization_755", "inbound_nodes": [[["conv2d_739", 0, 0, {}]]]}, {"class_name": "Activation", "config": {"name": "activation_739", "trainable": true, "dtype": "float32", "activation": "relu"}, "name": "activation_739", "inbound_nodes": [[["batch_normalization_755", 0, 0, {}]]]}, {"class_name": "Conv2D", "config": {"name": "conv2d_737", "trainable": true, "dtype": "float32", "filters": 32, "kernel_size": [1, 1], "strides": [1, 1], "padding": "same", "data_format": "channels_last", "dilation_rate": [1, 1], "activation": "linear", "use_bias": false, "kernel_initializer": {"class_name": "GlorotUniform", "config": {"seed": null}}, "bias_initializer": {"class_name": "Zeros", "config": {}}, "kernel_regularizer": null, "bias_regularizer": null, "activity_regularizer": null, "kernel_constraint": null, "bias_constraint": null}, "name": "conv2d_737", "inbound_nodes": [[["block35_6_ac", 0, 0, {}]]]}, {"class_name": "Conv2D", "config": {"name": "conv2d_740", "trainable": true, "dtype": "float32", "filters": 48, "kernel_size": [3, 3], "strides": [1, 1], "padding": "same", "data_format": "channels_last", "dilation_rate": [1, 1], "activation": "linear", "use_bias": false, "kernel_initializer": {"class_name": "GlorotUniform", "config": {"seed": null}}, "bias_initializer": {"class_name": "Zeros", "config": {}}, "kernel_regularizer": null, "bias_regularizer": null, "activity_regularizer": null, "kernel_constraint": null, "bias_constraint": null}, "name": "conv2d_740", "inbound_nodes": [[["activation_739", 0, 0, {}]]]}, {"class_name": "BatchNormalization", "config": {"name": "batch_normalization_753", "trainable": true, "dtype": "float32", "axis": [3], "momentum": 0.99, "epsilon": 0.001, "center": true, "scale": false, "beta_initializer": {"class_name": "Zeros", "config": {}}, "gamma_initializer": {"class_name": "Ones", "config": {}}, "moving_mean_initializer": {"class_name": "Zeros", "config": {}}, "moving_variance_initializer": {"class_name": "Ones", "config": {}}, "beta_regularizer": null, "gamma_regularizer": null, "beta_constraint": null, "gamma_constraint": null}, "name": "batch_normalization_753", "inbound_nodes": [[["conv2d_737", 0, 0, {}]]]}, {"class_name": "BatchNormalization", "config": {"name": "batch_normalization_756", "trainable": true, "dtype": "float32", "axis": [3], "momentum": 0.99, "epsilon": 0.001, "center": true, "scale": false, "beta_initializer": {"class_name": "Zeros", "config": {}}, "gamma_initializer": {"class_name": "Ones", "config": {}}, "moving_mean_initializer": {"class_name": "Zeros", "config": {}}, "moving_variance_initializer": {"class_name": "Ones", "config": {}}, "beta_regularizer": null, "gamma_regularizer": null, "beta_constraint": null, "gamma_constraint": null}, "name": "batch_normalization_756", "inbound_nodes": [[["conv2d_740", 0, 0, {}]]]}, {"class_name": "Activation", "config": {"name": "activation_737", "trainable": true, "dtype": "float32", "activation": "relu"}, "name": "activation_737", "inbound_nodes": [[["batch_normalization_753", 0, 0, {}]]]}, {"class_name": "Activation", "config": {"name": "activation_740", "trainable": true, "dtype": "float32", "activation": "relu"}, "name": "activation_740", "inbound_nodes": [[["batch_normalization_756", 0, 0, {}]]]}, {"class_name": "Conv2D", "config": {"name": "conv2d_736", "trainable": true, "dtype": "float32", "filters": 32, "kernel_size": [1, 1], "strides": [1, 1], "padding": "same", "data_format": "channels_last", "dilation_rate": [1, 1], "activation": "linear", "use_bias": false, "kernel_initializer": {"class_name": "GlorotUniform", "config": {"seed": null}}, "bias_initializer": {"class_name": "Zeros", "config": {}}, "kernel_regularizer": null, "bias_regularizer": null, "activity_regularizer": null, "kernel_constraint": null, "bias_constraint": null}, "name": "conv2d_736", "inbound_nodes": [[["block35_6_ac", 0, 0, {}]]]}, {"class_name": "Conv2D", "config": {"name": "conv2d_738", "trainable": true, "dtype": "float32", "filters": 32, "kernel_size": [3, 3], "strides": [1, 1], "padding": "same", "data_format": "channels_last", "dilation_rate": [1, 1], "activation": "linear", "use_bias": false, "kernel_initializer": {"class_name": "GlorotUniform", "config": {"seed": null}}, "bias_initializer": {"class_name": "Zeros", "config": {}}, "kernel_regularizer": null, "bias_regularizer": null, "activity_regularizer": null, "kernel_constraint": null, "bias_constraint": null}, "name": "conv2d_738", "inbound_nodes": [[["activation_737", 0, 0, {}]]]}, {"class_name": "Conv2D", "config": {"name": "conv2d_741", "trainable": true, "dtype": "float32", "filters": 64, "kernel_size": [3, 3], "strides": [1, 1], "padding": "same", "data_format": "channels_last", "dilation_rate": [1, 1], "activation": "linear", "use_bias": false, "kernel_initializer": {"class_name": "GlorotUniform", "config": {"seed": null}}, "bias_initializer": {"class_name": "Zeros", "config": {}}, "kernel_regularizer": null, "bias_regularizer": null, "activity_regularizer": null, "kernel_constraint": null, "bias_constraint": null}, "name": "conv2d_741", "inbound_nodes": [[["activation_740", 0, 0, {}]]]}, {"class_name": "BatchNormalization", "config": {"name": "batch_normalization_752", "trainable": true, "dtype": "float32", "axis": [3], "momentum": 0.99, "epsilon": 0.001, "center": true, "scale": false, "beta_initializer": {"class_name": "Zeros", "config": {}}, "gamma_initializer": {"class_name": "Ones", "config": {}}, "moving_mean_initializer": {"class_name": "Zeros", "config": {}}, "moving_variance_initializer": {"class_name": "Ones", "config": {}}, "beta_regularizer": null, "gamma_regularizer": null, "beta_constraint": null, "gamma_constraint": null}, "name": "batch_normalization_752", "inbound_nodes": [[["conv2d_736", 0, 0, {}]]]}, {"class_name": "BatchNormalization", "config": {"name": "batch_normalization_754", "trainable": true, "dtype": "float32", "axis": [3], "momentum": 0.99, "epsilon": 0.001, "center": true, "scale": false, "beta_initializer": {"class_name": "Zeros", "config": {}}, "gamma_initializer": {"class_name": "Ones", "config": {}}, "moving_mean_initializer": {"class_name": "Zeros", "config": {}}, "moving_variance_initializer": {"class_name": "Ones", "config": {}}, "beta_regularizer": null, "gamma_regularizer": null, "beta_constraint": null, "gamma_constraint": null}, "name": "batch_normalization_754", "inbound_nodes": [[["conv2d_738", 0, 0, {}]]]}, {"class_name": "BatchNormalization", "config": {"name": "batch_normalization_757", "trainable": true, "dtype": "float32", "axis": [3], "momentum": 0.99, "epsilon": 0.001, "center": true, "scale": false, "beta_initializer": {"class_name": "Zeros", "config": {}}, "gamma_initializer": {"class_name": "Ones", "config": {}}, "moving_mean_initializer": {"class_name": "Zeros", "config": {}}, "moving_variance_initializer": {"class_name": "Ones", "config": {}}, "beta_regularizer": null, "gamma_regularizer": null, "beta_constraint": null, "gamma_constraint": null}, "name": "batch_normalization_757", "inbound_nodes": [[["conv2d_741", 0, 0, {}]]]}, {"class_name": "Activation", "config": {"name": "activation_736", "trainable": true, "dtype": "float32", "activation": "relu"}, "name": "activation_736", "inbound_nodes": [[["batch_normalization_752", 0, 0, {}]]]}, {"class_name": "Activation", "config": {"name": "activation_738", "trainable": true, "dtype": "float32", "activation": "relu"}, "name": "activation_738", "inbound_nodes": [[["batch_normalization_754", 0, 0, {}]]]}, {"class_name": "Activation", "config": {"name": "activation_741", "trainable": true, "dtype": "float32", "activation": "relu"}, "name": "activation_741", "inbound_nodes": [[["batch_normalization_757", 0, 0, {}]]]}, {"class_name": "Concatenate", "config": {"name": "block35_7_mixed", "trainable": true, "dtype": "float32", "axis": 3}, "name": "block35_7_mixed", "inbound_nodes": [[["activation_736", 0, 0, {}], ["activation_738", 0, 0, {}], ["activation_741", 0, 0, {}]]]}, {"class_name": "Conv2D", "config": {"name": "block35_7_conv", "trainable": true, "dtype": "float32", "filters": 320, "kernel_size": [1, 1], "strides": [1, 1], "padding": "same", "data_format": "channels_last", "dilation_rate": [1, 1], "activation": "linear", "use_bias": true, "kernel_initializer": {"class_name": "GlorotUniform", "config": {"seed": null}}, "bias_initializer": {"class_name": "Zeros", "config": {}}, "kernel_regularizer": null, "bias_regularizer": null, "activity_regularizer": null, "kernel_constraint": null, "bias_constraint": null}, "name": "block35_7_conv", "inbound_nodes": [[["block35_7_mixed", 0, 0, {}]]]}, {"class_name": "Lambda", "config": {"name": "block35_7", "trainable": true, "dtype": "float32", "function": ["4wIAAAAAAAAAAgAAAAMAAABTAAAAcxQAAAB8AGQBGQB8AGQCGQB8ARQAFwBTACkDTukAAAAA6QEA\nAACpACkC2gZpbnB1dHPaBXNjYWxlcgMAAAByAwAAAPpkL2hvbWUvZmlsZnkvYW5hY29uZGEzL2Vu\ndnMvb3dnL2xpYi9weXRob24zLjcvc2l0ZS1wYWNrYWdlcy9rZXJhc19hcHBsaWNhdGlvbnMvaW5j\nZXB0aW9uX3Jlc25ldF92Mi5wedoIPGxhbWJkYT6oAAAA8wAAAAA=\n", null, null], "function_type": "lambda", "module": "keras_applications.inception_resnet_v2", "output_shape": [13, 13, 320], "output_shape_type": "raw", "output_shape_module": null, "arguments": {"scale": 0.17}}, "name": "block35_7", "inbound_nodes": [[["block35_6_ac", 0, 0, {}], ["block35_7_conv", 0, 0, {}]]]}, {"class_name": "Activation", "config": {"name": "block35_7_ac", "trainable": true, "dtype": "float32", "activation": "relu"}, "name": "block35_7_ac", "inbound_nodes": [[["block35_7", 0, 0, {}]]]}, {"class_name": "Conv2D", "config": {"name": "conv2d_745", "trainable": true, "dtype": "float32", "filters": 32, "kernel_size": [1, 1], "strides": [1, 1], "padding": "same", "data_format": "channels_last", "dilation_rate": [1, 1], "activation": "linear", "use_bias": false, "kernel_initializer": {"class_name": "GlorotUniform", "config": {"seed": null}}, "bias_initializer": {"class_name": "Zeros", "config": {}}, "kernel_regularizer": null, "bias_regularizer": null, "activity_regularizer": null, "kernel_constraint": null, "bias_constraint": null}, "name": "conv2d_745", "inbound_nodes": [[["block35_7_ac", 0, 0, {}]]]}, {"class_name": "BatchNormalization", "config": {"name": "batch_normalization_761", "trainable": true, "dtype": "float32", "axis": [3], "momentum": 0.99, "epsilon": 0.001, "center": true, "scale": false, "beta_initializer": {"class_name": "Zeros", "config": {}}, "gamma_initializer": {"class_name": "Ones", "config": {}}, "moving_mean_initializer": {"class_name": "Zeros", "config": {}}, "moving_variance_initializer": {"class_name": "Ones", "config": {}}, "beta_regularizer": null, "gamma_regularizer": null, "beta_constraint": null, "gamma_constraint": null}, "name": "batch_normalization_761", "inbound_nodes": [[["conv2d_745", 0, 0, {}]]]}, {"class_name": "Activation", "config": {"name": "activation_745", "trainable": true, "dtype": "float32", "activation": "relu"}, "name": "activation_745", "inbound_nodes": [[["batch_normalization_761", 0, 0, {}]]]}, {"class_name": "Conv2D", "config": {"name": "conv2d_743", "trainable": true, "dtype": "float32", "filters": 32, "kernel_size": [1, 1], "strides": [1, 1], "padding": "same", "data_format": "channels_last", "dilation_rate": [1, 1], "activation": "linear", "use_bias": false, "kernel_initializer": {"class_name": "GlorotUniform", "config": {"seed": null}}, "bias_initializer": {"class_name": "Zeros", "config": {}}, "kernel_regularizer": null, "bias_regularizer": null, "activity_regularizer": null, "kernel_constraint": null, "bias_constraint": null}, "name": "conv2d_743", "inbound_nodes": [[["block35_7_ac", 0, 0, {}]]]}, {"class_name": "Conv2D", "config": {"name": "conv2d_746", "trainable": true, "dtype": "float32", "filters": 48, "kernel_size": [3, 3], "strides": [1, 1], "padding": "same", "data_format": "channels_last", "dilation_rate": [1, 1], "activation": "linear", "use_bias": false, "kernel_initializer": {"class_name": "GlorotUniform", "config": {"seed": null}}, "bias_initializer": {"class_name": "Zeros", "config": {}}, "kernel_regularizer": null, "bias_regularizer": null, "activity_regularizer": null, "kernel_constraint": null, "bias_constraint": null}, "name": "conv2d_746", "inbound_nodes": [[["activation_745", 0, 0, {}]]]}, {"class_name": "BatchNormalization", "config": {"name": "batch_normalization_759", "trainable": true, "dtype": "float32", "axis": [3], "momentum": 0.99, "epsilon": 0.001, "center": true, "scale": false, "beta_initializer": {"class_name": "Zeros", "config": {}}, "gamma_initializer": {"class_name": "Ones", "config": {}}, "moving_mean_initializer": {"class_name": "Zeros", "config": {}}, "moving_variance_initializer": {"class_name": "Ones", "config": {}}, "beta_regularizer": null, "gamma_regularizer": null, "beta_constraint": null, "gamma_constraint": null}, "name": "batch_normalization_759", "inbound_nodes": [[["conv2d_743", 0, 0, {}]]]}, {"class_name": "BatchNormalization", "config": {"name": "batch_normalization_762", "trainable": true, "dtype": "float32", "axis": [3], "momentum": 0.99, "epsilon": 0.001, "center": true, "scale": false, "beta_initializer": {"class_name": "Zeros", "config": {}}, "gamma_initializer": {"class_name": "Ones", "config": {}}, "moving_mean_initializer": {"class_name": "Zeros", "config": {}}, "moving_variance_initializer": {"class_name": "Ones", "config": {}}, "beta_regularizer": null, "gamma_regularizer": null, "beta_constraint": null, "gamma_constraint": null}, "name": "batch_normalization_762", "inbound_nodes": [[["conv2d_746", 0, 0, {}]]]}, {"class_name": "Activation", "config": {"name": "activation_743", "trainable": true, "dtype": "float32", "activation": "relu"}, "name": "activation_743", "inbound_nodes": [[["batch_normalization_759", 0, 0, {}]]]}, {"class_name": "Activation", "config": {"name": "activation_746", "trainable": true, "dtype": "float32", "activation": "relu"}, "name": "activation_746", "inbound_nodes": [[["batch_normalization_762", 0, 0, {}]]]}, {"class_name": "Conv2D", "config": {"name": "conv2d_742", "trainable": true, "dtype": "float32", "filters": 32, "kernel_size": [1, 1], "strides": [1, 1], "padding": "same", "data_format": "channels_last", "dilation_rate": [1, 1], "activation": "linear", "use_bias": false, "kernel_initializer": {"class_name": "GlorotUniform", "config": {"seed": null}}, "bias_initializer": {"class_name": "Zeros", "config": {}}, "kernel_regularizer": null, "bias_regularizer": null, "activity_regularizer": null, "kernel_constraint": null, "bias_constraint": null}, "name": "conv2d_742", "inbound_nodes": [[["block35_7_ac", 0, 0, {}]]]}, {"class_name": "Conv2D", "config": {"name": "conv2d_744", "trainable": true, "dtype": "float32", "filters": 32, "kernel_size": [3, 3], "strides": [1, 1], "padding": "same", "data_format": "channels_last", "dilation_rate": [1, 1], "activation": "linear", "use_bias": false, "kernel_initializer": {"class_name": "GlorotUniform", "config": {"seed": null}}, "bias_initializer": {"class_name": "Zeros", "config": {}}, "kernel_regularizer": null, "bias_regularizer": null, "activity_regularizer": null, "kernel_constraint": null, "bias_constraint": null}, "name": "conv2d_744", "inbound_nodes": [[["activation_743", 0, 0, {}]]]}, {"class_name": "Conv2D", "config": {"name": "conv2d_747", "trainable": true, "dtype": "float32", "filters": 64, "kernel_size": [3, 3], "strides": [1, 1], "padding": "same", "data_format": "channels_last", "dilation_rate": [1, 1], "activation": "linear", "use_bias": false, "kernel_initializer": {"class_name": "GlorotUniform", "config": {"seed": null}}, "bias_initializer": {"class_name": "Zeros", "config": {}}, "kernel_regularizer": null, "bias_regularizer": null, "activity_regularizer": null, "kernel_constraint": null, "bias_constraint": null}, "name": "conv2d_747", "inbound_nodes": [[["activation_746", 0, 0, {}]]]}, {"class_name": "BatchNormalization", "config": {"name": "batch_normalization_758", "trainable": true, "dtype": "float32", "axis": [3], "momentum": 0.99, "epsilon": 0.001, "center": true, "scale": false, "beta_initializer": {"class_name": "Zeros", "config": {}}, "gamma_initializer": {"class_name": "Ones", "config": {}}, "moving_mean_initializer": {"class_name": "Zeros", "config": {}}, "moving_variance_initializer": {"class_name": "Ones", "config": {}}, "beta_regularizer": null, "gamma_regularizer": null, "beta_constraint": null, "gamma_constraint": null}, "name": "batch_normalization_758", "inbound_nodes": [[["conv2d_742", 0, 0, {}]]]}, {"class_name": "BatchNormalization", "config": {"name": "batch_normalization_760", "trainable": true, "dtype": "float32", "axis": [3], "momentum": 0.99, "epsilon": 0.001, "center": true, "scale": false, "beta_initializer": {"class_name": "Zeros", "config": {}}, "gamma_initializer": {"class_name": "Ones", "config": {}}, "moving_mean_initializer": {"class_name": "Zeros", "config": {}}, "moving_variance_initializer": {"class_name": "Ones", "config": {}}, "beta_regularizer": null, "gamma_regularizer": null, "beta_constraint": null, "gamma_constraint": null}, "name": "batch_normalization_760", "inbound_nodes": [[["conv2d_744", 0, 0, {}]]]}, {"class_name": "BatchNormalization", "config": {"name": "batch_normalization_763", "trainable": true, "dtype": "float32", "axis": [3], "momentum": 0.99, "epsilon": 0.001, "center": true, "scale": false, "beta_initializer": {"class_name": "Zeros", "config": {}}, "gamma_initializer": {"class_name": "Ones", "config": {}}, "moving_mean_initializer": {"class_name": "Zeros", "config": {}}, "moving_variance_initializer": {"class_name": "Ones", "config": {}}, "beta_regularizer": null, "gamma_regularizer": null, "beta_constraint": null, "gamma_constraint": null}, "name": "batch_normalization_763", "inbound_nodes": [[["conv2d_747", 0, 0, {}]]]}, {"class_name": "Activation", "config": {"name": "activation_742", "trainable": true, "dtype": "float32", "activation": "relu"}, "name": "activation_742", "inbound_nodes": [[["batch_normalization_758", 0, 0, {}]]]}, {"class_name": "Activation", "config": {"name": "activation_744", "trainable": true, "dtype": "float32", "activation": "relu"}, "name": "activation_744", "inbound_nodes": [[["batch_normalization_760", 0, 0, {}]]]}, {"class_name": "Activation", "config": {"name": "activation_747", "trainable": true, "dtype": "float32", "activation": "relu"}, "name": "activation_747", "inbound_nodes": [[["batch_normalization_763", 0, 0, {}]]]}, {"class_name": "Concatenate", "config": {"name": "block35_8_mixed", "trainable": true, "dtype": "float32", "axis": 3}, "name": "block35_8_mixed", "inbound_nodes": [[["activation_742", 0, 0, {}], ["activation_744", 0, 0, {}], ["activation_747", 0, 0, {}]]]}, {"class_name": "Conv2D", "config": {"name": "block35_8_conv", "trainable": true, "dtype": "float32", "filters": 320, "kernel_size": [1, 1], "strides": [1, 1], "padding": "same", "data_format": "channels_last", "dilation_rate": [1, 1], "activation": "linear", "use_bias": true, "kernel_initializer": {"class_name": "GlorotUniform", "config": {"seed": null}}, "bias_initializer": {"class_name": "Zeros", "config": {}}, "kernel_regularizer": null, "bias_regularizer": null, "activity_regularizer": null, "kernel_constraint": null, "bias_constraint": null}, "name": "block35_8_conv", "inbound_nodes": [[["block35_8_mixed", 0, 0, {}]]]}, {"class_name": "Lambda", "config": {"name": "block35_8", "trainable": true, "dtype": "float32", "function": ["4wIAAAAAAAAAAgAAAAMAAABTAAAAcxQAAAB8AGQBGQB8AGQCGQB8ARQAFwBTACkDTukAAAAA6QEA\nAACpACkC2gZpbnB1dHPaBXNjYWxlcgMAAAByAwAAAPpkL2hvbWUvZmlsZnkvYW5hY29uZGEzL2Vu\ndnMvb3dnL2xpYi9weXRob24zLjcvc2l0ZS1wYWNrYWdlcy9rZXJhc19hcHBsaWNhdGlvbnMvaW5j\nZXB0aW9uX3Jlc25ldF92Mi5wedoIPGxhbWJkYT6oAAAA8wAAAAA=\n", null, null], "function_type": "lambda", "module": "keras_applications.inception_resnet_v2", "output_shape": [13, 13, 320], "output_shape_type": "raw", "output_shape_module": null, "arguments": {"scale": 0.17}}, "name": "block35_8", "inbound_nodes": [[["block35_7_ac", 0, 0, {}], ["block35_8_conv", 0, 0, {}]]]}, {"class_name": "Activation", "config": {"name": "block35_8_ac", "trainable": true, "dtype": "float32", "activation": "relu"}, "name": "block35_8_ac", "inbound_nodes": [[["block35_8", 0, 0, {}]]]}, {"class_name": "Conv2D", "config": {"name": "conv2d_751", "trainable": true, "dtype": "float32", "filters": 32, "kernel_size": [1, 1], "strides": [1, 1], "padding": "same", "data_format": "channels_last", "dilation_rate": [1, 1], "activation": "linear", "use_bias": false, "kernel_initializer": {"class_name": "GlorotUniform", "config": {"seed": null}}, "bias_initializer": {"class_name": "Zeros", "config": {}}, "kernel_regularizer": null, "bias_regularizer": null, "activity_regularizer": null, "kernel_constraint": null, "bias_constraint": null}, "name": "conv2d_751", "inbound_nodes": [[["block35_8_ac", 0, 0, {}]]]}, {"class_name": "BatchNormalization", "config": {"name": "batch_normalization_767", "trainable": true, "dtype": "float32", "axis": [3], "momentum": 0.99, "epsilon": 0.001, "center": true, "scale": false, "beta_initializer": {"class_name": "Zeros", "config": {}}, "gamma_initializer": {"class_name": "Ones", "config": {}}, "moving_mean_initializer": {"class_name": "Zeros", "config": {}}, "moving_variance_initializer": {"class_name": "Ones", "config": {}}, "beta_regularizer": null, "gamma_regularizer": null, "beta_constraint": null, "gamma_constraint": null}, "name": "batch_normalization_767", "inbound_nodes": [[["conv2d_751", 0, 0, {}]]]}, {"class_name": "Activation", "config": {"name": "activation_751", "trainable": true, "dtype": "float32", "activation": "relu"}, "name": "activation_751", "inbound_nodes": [[["batch_normalization_767", 0, 0, {}]]]}, {"class_name": "Conv2D", "config": {"name": "conv2d_749", "trainable": true, "dtype": "float32", "filters": 32, "kernel_size": [1, 1], "strides": [1, 1], "padding": "same", "data_format": "channels_last", "dilation_rate": [1, 1], "activation": "linear", "use_bias": false, "kernel_initializer": {"class_name": "GlorotUniform", "config": {"seed": null}}, "bias_initializer": {"class_name": "Zeros", "config": {}}, "kernel_regularizer": null, "bias_regularizer": null, "activity_regularizer": null, "kernel_constraint": null, "bias_constraint": null}, "name": "conv2d_749", "inbound_nodes": [[["block35_8_ac", 0, 0, {}]]]}, {"class_name": "Conv2D", "config": {"name": "conv2d_752", "trainable": true, "dtype": "float32", "filters": 48, "kernel_size": [3, 3], "strides": [1, 1], "padding": "same", "data_format": "channels_last", "dilation_rate": [1, 1], "activation": "linear", "use_bias": false, "kernel_initializer": {"class_name": "GlorotUniform", "config": {"seed": null}}, "bias_initializer": {"class_name": "Zeros", "config": {}}, "kernel_regularizer": null, "bias_regularizer": null, "activity_regularizer": null, "kernel_constraint": null, "bias_constraint": null}, "name": "conv2d_752", "inbound_nodes": [[["activation_751", 0, 0, {}]]]}, {"class_name": "BatchNormalization", "config": {"name": "batch_normalization_765", "trainable": true, "dtype": "float32", "axis": [3], "momentum": 0.99, "epsilon": 0.001, "center": true, "scale": false, "beta_initializer": {"class_name": "Zeros", "config": {}}, "gamma_initializer": {"class_name": "Ones", "config": {}}, "moving_mean_initializer": {"class_name": "Zeros", "config": {}}, "moving_variance_initializer": {"class_name": "Ones", "config": {}}, "beta_regularizer": null, "gamma_regularizer": null, "beta_constraint": null, "gamma_constraint": null}, "name": "batch_normalization_765", "inbound_nodes": [[["conv2d_749", 0, 0, {}]]]}, {"class_name": "BatchNormalization", "config": {"name": "batch_normalization_768", "trainable": true, "dtype": "float32", "axis": [3], "momentum": 0.99, "epsilon": 0.001, "center": true, "scale": false, "beta_initializer": {"class_name": "Zeros", "config": {}}, "gamma_initializer": {"class_name": "Ones", "config": {}}, "moving_mean_initializer": {"class_name": "Zeros", "config": {}}, "moving_variance_initializer": {"class_name": "Ones", "config": {}}, "beta_regularizer": null, "gamma_regularizer": null, "beta_constraint": null, "gamma_constraint": null}, "name": "batch_normalization_768", "inbound_nodes": [[["conv2d_752", 0, 0, {}]]]}, {"class_name": "Activation", "config": {"name": "activation_749", "trainable": true, "dtype": "float32", "activation": "relu"}, "name": "activation_749", "inbound_nodes": [[["batch_normalization_765", 0, 0, {}]]]}, {"class_name": "Activation", "config": {"name": "activation_752", "trainable": true, "dtype": "float32", "activation": "relu"}, "name": "activation_752", "inbound_nodes": [[["batch_normalization_768", 0, 0, {}]]]}, {"class_name": "Conv2D", "config": {"name": "conv2d_748", "trainable": true, "dtype": "float32", "filters": 32, "kernel_size": [1, 1], "strides": [1, 1], "padding": "same", "data_format": "channels_last", "dilation_rate": [1, 1], "activation": "linear", "use_bias": false, "kernel_initializer": {"class_name": "GlorotUniform", "config": {"seed": null}}, "bias_initializer": {"class_name": "Zeros", "config": {}}, "kernel_regularizer": null, "bias_regularizer": null, "activity_regularizer": null, "kernel_constraint": null, "bias_constraint": null}, "name": "conv2d_748", "inbound_nodes": [[["block35_8_ac", 0, 0, {}]]]}, {"class_name": "Conv2D", "config": {"name": "conv2d_750", "trainable": true, "dtype": "float32", "filters": 32, "kernel_size": [3, 3], "strides": [1, 1], "padding": "same", "data_format": "channels_last", "dilation_rate": [1, 1], "activation": "linear", "use_bias": false, "kernel_initializer": {"class_name": "GlorotUniform", "config": {"seed": null}}, "bias_initializer": {"class_name": "Zeros", "config": {}}, "kernel_regularizer": null, "bias_regularizer": null, "activity_regularizer": null, "kernel_constraint": null, "bias_constraint": null}, "name": "conv2d_750", "inbound_nodes": [[["activation_749", 0, 0, {}]]]}, {"class_name": "Conv2D", "config": {"name": "conv2d_753", "trainable": true, "dtype": "float32", "filters": 64, "kernel_size": [3, 3], "strides": [1, 1], "padding": "same", "data_format": "channels_last", "dilation_rate": [1, 1], "activation": "linear", "use_bias": false, "kernel_initializer": {"class_name": "GlorotUniform", "config": {"seed": null}}, "bias_initializer": {"class_name": "Zeros", "config": {}}, "kernel_regularizer": null, "bias_regularizer": null, "activity_regularizer": null, "kernel_constraint": null, "bias_constraint": null}, "name": "conv2d_753", "inbound_nodes": [[["activation_752", 0, 0, {}]]]}, {"class_name": "BatchNormalization", "config": {"name": "batch_normalization_764", "trainable": true, "dtype": "float32", "axis": [3], "momentum": 0.99, "epsilon": 0.001, "center": true, "scale": false, "beta_initializer": {"class_name": "Zeros", "config": {}}, "gamma_initializer": {"class_name": "Ones", "config": {}}, "moving_mean_initializer": {"class_name": "Zeros", "config": {}}, "moving_variance_initializer": {"class_name": "Ones", "config": {}}, "beta_regularizer": null, "gamma_regularizer": null, "beta_constraint": null, "gamma_constraint": null}, "name": "batch_normalization_764", "inbound_nodes": [[["conv2d_748", 0, 0, {}]]]}, {"class_name": "BatchNormalization", "config": {"name": "batch_normalization_766", "trainable": true, "dtype": "float32", "axis": [3], "momentum": 0.99, "epsilon": 0.001, "center": true, "scale": false, "beta_initializer": {"class_name": "Zeros", "config": {}}, "gamma_initializer": {"class_name": "Ones", "config": {}}, "moving_mean_initializer": {"class_name": "Zeros", "config": {}}, "moving_variance_initializer": {"class_name": "Ones", "config": {}}, "beta_regularizer": null, "gamma_regularizer": null, "beta_constraint": null, "gamma_constraint": null}, "name": "batch_normalization_766", "inbound_nodes": [[["conv2d_750", 0, 0, {}]]]}, {"class_name": "BatchNormalization", "config": {"name": "batch_normalization_769", "trainable": true, "dtype": "float32", "axis": [3], "momentum": 0.99, "epsilon": 0.001, "center": true, "scale": false, "beta_initializer": {"class_name": "Zeros", "config": {}}, "gamma_initializer": {"class_name": "Ones", "config": {}}, "moving_mean_initializer": {"class_name": "Zeros", "config": {}}, "moving_variance_initializer": {"class_name": "Ones", "config": {}}, "beta_regularizer": null, "gamma_regularizer": null, "beta_constraint": null, "gamma_constraint": null}, "name": "batch_normalization_769", "inbound_nodes": [[["conv2d_753", 0, 0, {}]]]}, {"class_name": "Activation", "config": {"name": "activation_748", "trainable": true, "dtype": "float32", "activation": "relu"}, "name": "activation_748", "inbound_nodes": [[["batch_normalization_764", 0, 0, {}]]]}, {"class_name": "Activation", "config": {"name": "activation_750", "trainable": true, "dtype": "float32", "activation": "relu"}, "name": "activation_750", "inbound_nodes": [[["batch_normalization_766", 0, 0, {}]]]}, {"class_name": "Activation", "config": {"name": "activation_753", "trainable": true, "dtype": "float32", "activation": "relu"}, "name": "activation_753", "inbound_nodes": [[["batch_normalization_769", 0, 0, {}]]]}, {"class_name": "Concatenate", "config": {"name": "block35_9_mixed", "trainable": true, "dtype": "float32", "axis": 3}, "name": "block35_9_mixed", "inbound_nodes": [[["activation_748", 0, 0, {}], ["activation_750", 0, 0, {}], ["activation_753", 0, 0, {}]]]}, {"class_name": "Conv2D", "config": {"name": "block35_9_conv", "trainable": true, "dtype": "float32", "filters": 320, "kernel_size": [1, 1], "strides": [1, 1], "padding": "same", "data_format": "channels_last", "dilation_rate": [1, 1], "activation": "linear", "use_bias": true, "kernel_initializer": {"class_name": "GlorotUniform", "config": {"seed": null}}, "bias_initializer": {"class_name": "Zeros", "config": {}}, "kernel_regularizer": null, "bias_regularizer": null, "activity_regularizer": null, "kernel_constraint": null, "bias_constraint": null}, "name": "block35_9_conv", "inbound_nodes": [[["block35_9_mixed", 0, 0, {}]]]}, {"class_name": "Lambda", "config": {"name": "block35_9", "trainable": true, "dtype": "float32", "function": ["4wIAAAAAAAAAAgAAAAMAAABTAAAAcxQAAAB8AGQBGQB8AGQCGQB8ARQAFwBTACkDTukAAAAA6QEA\nAACpACkC2gZpbnB1dHPaBXNjYWxlcgMAAAByAwAAAPpkL2hvbWUvZmlsZnkvYW5hY29uZGEzL2Vu\ndnMvb3dnL2xpYi9weXRob24zLjcvc2l0ZS1wYWNrYWdlcy9rZXJhc19hcHBsaWNhdGlvbnMvaW5j\nZXB0aW9uX3Jlc25ldF92Mi5wedoIPGxhbWJkYT6oAAAA8wAAAAA=\n", null, null], "function_type": "lambda", "module": "keras_applications.inception_resnet_v2", "output_shape": [13, 13, 320], "output_shape_type": "raw", "output_shape_module": null, "arguments": {"scale": 0.17}}, "name": "block35_9", "inbound_nodes": [[["block35_8_ac", 0, 0, {}], ["block35_9_conv", 0, 0, {}]]]}, {"class_name": "Activation", "config": {"name": "block35_9_ac", "trainable": true, "dtype": "float32", "activation": "relu"}, "name": "block35_9_ac", "inbound_nodes": [[["block35_9", 0, 0, {}]]]}, {"class_name": "Conv2D", "config": {"name": "conv2d_757", "trainable": true, "dtype": "float32", "filters": 32, "kernel_size": [1, 1], "strides": [1, 1], "padding": "same", "data_format": "channels_last", "dilation_rate": [1, 1], "activation": "linear", "use_bias": false, "kernel_initializer": {"class_name": "GlorotUniform", "config": {"seed": null}}, "bias_initializer": {"class_name": "Zeros", "config": {}}, "kernel_regularizer": null, "bias_regularizer": null, "activity_regularizer": null, "kernel_constraint": null, "bias_constraint": null}, "name": "conv2d_757", "inbound_nodes": [[["block35_9_ac", 0, 0, {}]]]}, {"class_name": "BatchNormalization", "config": {"name": "batch_normalization_773", "trainable": true, "dtype": "float32", "axis": [3], "momentum": 0.99, "epsilon": 0.001, "center": true, "scale": false, "beta_initializer": {"class_name": "Zeros", "config": {}}, "gamma_initializer": {"class_name": "Ones", "config": {}}, "moving_mean_initializer": {"class_name": "Zeros", "config": {}}, "moving_variance_initializer": {"class_name": "Ones", "config": {}}, "beta_regularizer": null, "gamma_regularizer": null, "beta_constraint": null, "gamma_constraint": null}, "name": "batch_normalization_773", "inbound_nodes": [[["conv2d_757", 0, 0, {}]]]}, {"class_name": "Activation", "config": {"name": "activation_757", "trainable": true, "dtype": "float32", "activation": "relu"}, "name": "activation_757", "inbound_nodes": [[["batch_normalization_773", 0, 0, {}]]]}, {"class_name": "Conv2D", "config": {"name": "conv2d_755", "trainable": true, "dtype": "float32", "filters": 32, "kernel_size": [1, 1], "strides": [1, 1], "padding": "same", "data_format": "channels_last", "dilation_rate": [1, 1], "activation": "linear", "use_bias": false, "kernel_initializer": {"class_name": "GlorotUniform", "config": {"seed": null}}, "bias_initializer": {"class_name": "Zeros", "config": {}}, "kernel_regularizer": null, "bias_regularizer": null, "activity_regularizer": null, "kernel_constraint": null, "bias_constraint": null}, "name": "conv2d_755", "inbound_nodes": [[["block35_9_ac", 0, 0, {}]]]}, {"class_name": "Conv2D", "config": {"name": "conv2d_758", "trainable": true, "dtype": "float32", "filters": 48, "kernel_size": [3, 3], "strides": [1, 1], "padding": "same", "data_format": "channels_last", "dilation_rate": [1, 1], "activation": "linear", "use_bias": false, "kernel_initializer": {"class_name": "GlorotUniform", "config": {"seed": null}}, "bias_initializer": {"class_name": "Zeros", "config": {}}, "kernel_regularizer": null, "bias_regularizer": null, "activity_regularizer": null, "kernel_constraint": null, "bias_constraint": null}, "name": "conv2d_758", "inbound_nodes": [[["activation_757", 0, 0, {}]]]}, {"class_name": "BatchNormalization", "config": {"name": "batch_normalization_771", "trainable": true, "dtype": "float32", "axis": [3], "momentum": 0.99, "epsilon": 0.001, "center": true, "scale": false, "beta_initializer": {"class_name": "Zeros", "config": {}}, "gamma_initializer": {"class_name": "Ones", "config": {}}, "moving_mean_initializer": {"class_name": "Zeros", "config": {}}, "moving_variance_initializer": {"class_name": "Ones", "config": {}}, "beta_regularizer": null, "gamma_regularizer": null, "beta_constraint": null, "gamma_constraint": null}, "name": "batch_normalization_771", "inbound_nodes": [[["conv2d_755", 0, 0, {}]]]}, {"class_name": "BatchNormalization", "config": {"name": "batch_normalization_774", "trainable": true, "dtype": "float32", "axis": [3], "momentum": 0.99, "epsilon": 0.001, "center": true, "scale": false, "beta_initializer": {"class_name": "Zeros", "config": {}}, "gamma_initializer": {"class_name": "Ones", "config": {}}, "moving_mean_initializer": {"class_name": "Zeros", "config": {}}, "moving_variance_initializer": {"class_name": "Ones", "config": {}}, "beta_regularizer": null, "gamma_regularizer": null, "beta_constraint": null, "gamma_constraint": null}, "name": "batch_normalization_774", "inbound_nodes": [[["conv2d_758", 0, 0, {}]]]}, {"class_name": "Activation", "config": {"name": "activation_755", "trainable": true, "dtype": "float32", "activation": "relu"}, "name": "activation_755", "inbound_nodes": [[["batch_normalization_771", 0, 0, {}]]]}, {"class_name": "Activation", "config": {"name": "activation_758", "trainable": true, "dtype": "float32", "activation": "relu"}, "name": "activation_758", "inbound_nodes": [[["batch_normalization_774", 0, 0, {}]]]}, {"class_name": "Conv2D", "config": {"name": "conv2d_754", "trainable": true, "dtype": "float32", "filters": 32, "kernel_size": [1, 1], "strides": [1, 1], "padding": "same", "data_format": "channels_last", "dilation_rate": [1, 1], "activation": "linear", "use_bias": false, "kernel_initializer": {"class_name": "GlorotUniform", "config": {"seed": null}}, "bias_initializer": {"class_name": "Zeros", "config": {}}, "kernel_regularizer": null, "bias_regularizer": null, "activity_regularizer": null, "kernel_constraint": null, "bias_constraint": null}, "name": "conv2d_754", "inbound_nodes": [[["block35_9_ac", 0, 0, {}]]]}, {"class_name": "Conv2D", "config": {"name": "conv2d_756", "trainable": true, "dtype": "float32", "filters": 32, "kernel_size": [3, 3], "strides": [1, 1], "padding": "same", "data_format": "channels_last", "dilation_rate": [1, 1], "activation": "linear", "use_bias": false, "kernel_initializer": {"class_name": "GlorotUniform", "config": {"seed": null}}, "bias_initializer": {"class_name": "Zeros", "config": {}}, "kernel_regularizer": null, "bias_regularizer": null, "activity_regularizer": null, "kernel_constraint": null, "bias_constraint": null}, "name": "conv2d_756", "inbound_nodes": [[["activation_755", 0, 0, {}]]]}, {"class_name": "Conv2D", "config": {"name": "conv2d_759", "trainable": true, "dtype": "float32", "filters": 64, "kernel_size": [3, 3], "strides": [1, 1], "padding": "same", "data_format": "channels_last", "dilation_rate": [1, 1], "activation": "linear", "use_bias": false, "kernel_initializer": {"class_name": "GlorotUniform", "config": {"seed": null}}, "bias_initializer": {"class_name": "Zeros", "config": {}}, "kernel_regularizer": null, "bias_regularizer": null, "activity_regularizer": null, "kernel_constraint": null, "bias_constraint": null}, "name": "conv2d_759", "inbound_nodes": [[["activation_758", 0, 0, {}]]]}, {"class_name": "BatchNormalization", "config": {"name": "batch_normalization_770", "trainable": true, "dtype": "float32", "axis": [3], "momentum": 0.99, "epsilon": 0.001, "center": true, "scale": false, "beta_initializer": {"class_name": "Zeros", "config": {}}, "gamma_initializer": {"class_name": "Ones", "config": {}}, "moving_mean_initializer": {"class_name": "Zeros", "config": {}}, "moving_variance_initializer": {"class_name": "Ones", "config": {}}, "beta_regularizer": null, "gamma_regularizer": null, "beta_constraint": null, "gamma_constraint": null}, "name": "batch_normalization_770", "inbound_nodes": [[["conv2d_754", 0, 0, {}]]]}, {"class_name": "BatchNormalization", "config": {"name": "batch_normalization_772", "trainable": true, "dtype": "float32", "axis": [3], "momentum": 0.99, "epsilon": 0.001, "center": true, "scale": false, "beta_initializer": {"class_name": "Zeros", "config": {}}, "gamma_initializer": {"class_name": "Ones", "config": {}}, "moving_mean_initializer": {"class_name": "Zeros", "config": {}}, "moving_variance_initializer": {"class_name": "Ones", "config": {}}, "beta_regularizer": null, "gamma_regularizer": null, "beta_constraint": null, "gamma_constraint": null}, "name": "batch_normalization_772", "inbound_nodes": [[["conv2d_756", 0, 0, {}]]]}, {"class_name": "BatchNormalization", "config": {"name": "batch_normalization_775", "trainable": true, "dtype": "float32", "axis": [3], "momentum": 0.99, "epsilon": 0.001, "center": true, "scale": false, "beta_initializer": {"class_name": "Zeros", "config": {}}, "gamma_initializer": {"class_name": "Ones", "config": {}}, "moving_mean_initializer": {"class_name": "Zeros", "config": {}}, "moving_variance_initializer": {"class_name": "Ones", "config": {}}, "beta_regularizer": null, "gamma_regularizer": null, "beta_constraint": null, "gamma_constraint": null}, "name": "batch_normalization_775", "inbound_nodes": [[["conv2d_759", 0, 0, {}]]]}, {"class_name": "Activation", "config": {"name": "activation_754", "trainable": true, "dtype": "float32", "activation": "relu"}, "name": "activation_754", "inbound_nodes": [[["batch_normalization_770", 0, 0, {}]]]}, {"class_name": "Activation", "config": {"name": "activation_756", "trainable": true, "dtype": "float32", "activation": "relu"}, "name": "activation_756", "inbound_nodes": [[["batch_normalization_772", 0, 0, {}]]]}, {"class_name": "Activation", "config": {"name": "activation_759", "trainable": true, "dtype": "float32", "activation": "relu"}, "name": "activation_759", "inbound_nodes": [[["batch_normalization_775", 0, 0, {}]]]}, {"class_name": "Concatenate", "config": {"name": "block35_10_mixed", "trainable": true, "dtype": "float32", "axis": 3}, "name": "block35_10_mixed", "inbound_nodes": [[["activation_754", 0, 0, {}], ["activation_756", 0, 0, {}], ["activation_759", 0, 0, {}]]]}, {"class_name": "Conv2D", "config": {"name": "block35_10_conv", "trainable": true, "dtype": "float32", "filters": 320, "kernel_size": [1, 1], "strides": [1, 1], "padding": "same", "data_format": "channels_last", "dilation_rate": [1, 1], "activation": "linear", "use_bias": true, "kernel_initializer": {"class_name": "GlorotUniform", "config": {"seed": null}}, "bias_initializer": {"class_name": "Zeros", "config": {}}, "kernel_regularizer": null, "bias_regularizer": null, "activity_regularizer": null, "kernel_constraint": null, "bias_constraint": null}, "name": "block35_10_conv", "inbound_nodes": [[["block35_10_mixed", 0, 0, {}]]]}, {"class_name": "Lambda", "config": {"name": "block35_10", "trainable": true, "dtype": "float32", "function": ["4wIAAAAAAAAAAgAAAAMAAABTAAAAcxQAAAB8AGQBGQB8AGQCGQB8ARQAFwBTACkDTukAAAAA6QEA\nAACpACkC2gZpbnB1dHPaBXNjYWxlcgMAAAByAwAAAPpkL2hvbWUvZmlsZnkvYW5hY29uZGEzL2Vu\ndnMvb3dnL2xpYi9weXRob24zLjcvc2l0ZS1wYWNrYWdlcy9rZXJhc19hcHBsaWNhdGlvbnMvaW5j\nZXB0aW9uX3Jlc25ldF92Mi5wedoIPGxhbWJkYT6oAAAA8wAAAAA=\n", null, null], "function_type": "lambda", "module": "keras_applications.inception_resnet_v2", "output_shape": [13, 13, 320], "output_shape_type": "raw", "output_shape_module": null, "arguments": {"scale": 0.17}}, "name": "block35_10", "inbound_nodes": [[["block35_9_ac", 0, 0, {}], ["block35_10_conv", 0, 0, {}]]]}, {"class_name": "Activation", "config": {"name": "block35_10_ac", "trainable": true, "dtype": "float32", "activation": "relu"}, "name": "block35_10_ac", "inbound_nodes": [[["block35_10", 0, 0, {}]]]}, {"class_name": "Conv2D", "config": {"name": "conv2d_761", "trainable": true, "dtype": "float32", "filters": 256, "kernel_size": [1, 1], "strides": [1, 1], "padding": "same", "data_format": "channels_last", "dilation_rate": [1, 1], "activation": "linear", "use_bias": false, "kernel_initializer": {"class_name": "GlorotUniform", "config": {"seed": null}}, "bias_initializer": {"class_name": "Zeros", "config": {}}, "kernel_regularizer": null, "bias_regularizer": null, "activity_regularizer": null, "kernel_constraint": null, "bias_constraint": null}, "name": "conv2d_761", "inbound_nodes": [[["block35_10_ac", 0, 0, {}]]]}, {"class_name": "BatchNormalization", "config": {"name": "batch_normalization_777", "trainable": true, "dtype": "float32", "axis": [3], "momentum": 0.99, "epsilon": 0.001, "center": true, "scale": false, "beta_initializer": {"class_name": "Zeros", "config": {}}, "gamma_initializer": {"class_name": "Ones", "config": {}}, "moving_mean_initializer": {"class_name": "Zeros", "config": {}}, "moving_variance_initializer": {"class_name": "Ones", "config": {}}, "beta_regularizer": null, "gamma_regularizer": null, "beta_constraint": null, "gamma_constraint": null}, "name": "batch_normalization_777", "inbound_nodes": [[["conv2d_761", 0, 0, {}]]]}, {"class_name": "Activation", "config": {"name": "activation_761", "trainable": true, "dtype": "float32", "activation": "relu"}, "name": "activation_761", "inbound_nodes": [[["batch_normalization_777", 0, 0, {}]]]}, {"class_name": "Conv2D", "config": {"name": "conv2d_762", "trainable": true, "dtype": "float32", "filters": 256, "kernel_size": [3, 3], "strides": [1, 1], "padding": "same", "data_format": "channels_last", "dilation_rate": [1, 1], "activation": "linear", "use_bias": false, "kernel_initializer": {"class_name": "GlorotUniform", "config": {"seed": null}}, "bias_initializer": {"class_name": "Zeros", "config": {}}, "kernel_regularizer": null, "bias_regularizer": null, "activity_regularizer": null, "kernel_constraint": null, "bias_constraint": null}, "name": "conv2d_762", "inbound_nodes": [[["activation_761", 0, 0, {}]]]}, {"class_name": "BatchNormalization", "config": {"name": "batch_normalization_778", "trainable": true, "dtype": "float32", "axis": [3], "momentum": 0.99, "epsilon": 0.001, "center": true, "scale": false, "beta_initializer": {"class_name": "Zeros", "config": {}}, "gamma_initializer": {"class_name": "Ones", "config": {}}, "moving_mean_initializer": {"class_name": "Zeros", "config": {}}, "moving_variance_initializer": {"class_name": "Ones", "config": {}}, "beta_regularizer": null, "gamma_regularizer": null, "beta_constraint": null, "gamma_constraint": null}, "name": "batch_normalization_778", "inbound_nodes": [[["conv2d_762", 0, 0, {}]]]}, {"class_name": "Activation", "config": {"name": "activation_762", "trainable": true, "dtype": "float32", "activation": "relu"}, "name": "activation_762", "inbound_nodes": [[["batch_normalization_778", 0, 0, {}]]]}, {"class_name": "Conv2D", "config": {"name": "conv2d_760", "trainable": true, "dtype": "float32", "filters": 384, "kernel_size": [3, 3], "strides": [2, 2], "padding": "valid", "data_format": "channels_last", "dilation_rate": [1, 1], "activation": "linear", "use_bias": false, "kernel_initializer": {"class_name": "GlorotUniform", "config": {"seed": null}}, "bias_initializer": {"class_name": "Zeros", "config": {}}, "kernel_regularizer": null, "bias_regularizer": null, "activity_regularizer": null, "kernel_constraint": null, "bias_constraint": null}, "name": "conv2d_760", "inbound_nodes": [[["block35_10_ac", 0, 0, {}]]]}, {"class_name": "Conv2D", "config": {"name": "conv2d_763", "trainable": true, "dtype": "float32", "filters": 384, "kernel_size": [3, 3], "strides": [2, 2], "padding": "valid", "data_format": "channels_last", "dilation_rate": [1, 1], "activation": "linear", "use_bias": false, "kernel_initializer": {"class_name": "GlorotUniform", "config": {"seed": null}}, "bias_initializer": {"class_name": "Zeros", "config": {}}, "kernel_regularizer": null, "bias_regularizer": null, "activity_regularizer": null, "kernel_constraint": null, "bias_constraint": null}, "name": "conv2d_763", "inbound_nodes": [[["activation_762", 0, 0, {}]]]}, {"class_name": "BatchNormalization", "config": {"name": "batch_normalization_776", "trainable": true, "dtype": "float32", "axis": [3], "momentum": 0.99, "epsilon": 0.001, "center": true, "scale": false, "beta_initializer": {"class_name": "Zeros", "config": {}}, "gamma_initializer": {"class_name": "Ones", "config": {}}, "moving_mean_initializer": {"class_name": "Zeros", "config": {}}, "moving_variance_initializer": {"class_name": "Ones", "config": {}}, "beta_regularizer": null, "gamma_regularizer": null, "beta_constraint": null, "gamma_constraint": null}, "name": "batch_normalization_776", "inbound_nodes": [[["conv2d_760", 0, 0, {}]]]}, {"class_name": "BatchNormalization", "config": {"name": "batch_normalization_779", "trainable": true, "dtype": "float32", "axis": [3], "momentum": 0.99, "epsilon": 0.001, "center": true, "scale": false, "beta_initializer": {"class_name": "Zeros", "config": {}}, "gamma_initializer": {"class_name": "Ones", "config": {}}, "moving_mean_initializer": {"class_name": "Zeros", "config": {}}, "moving_variance_initializer": {"class_name": "Ones", "config": {}}, "beta_regularizer": null, "gamma_regularizer": null, "beta_constraint": null, "gamma_constraint": null}, "name": "batch_normalization_779", "inbound_nodes": [[["conv2d_763", 0, 0, {}]]]}, {"class_name": "Activation", "config": {"name": "activation_760", "trainable": true, "dtype": "float32", "activation": "relu"}, "name": "activation_760", "inbound_nodes": [[["batch_normalization_776", 0, 0, {}]]]}, {"class_name": "Activation", "config": {"name": "activation_763", "trainable": true, "dtype": "float32", "activation": "relu"}, "name": "activation_763", "inbound_nodes": [[["batch_normalization_779", 0, 0, {}]]]}, {"class_name": "MaxPooling2D", "config": {"name": "max_pooling2d_22", "trainable": true, "dtype": "float32", "pool_size": [3, 3], "padding": "valid", "strides": [2, 2], "data_format": "channels_last"}, "name": "max_pooling2d_22", "inbound_nodes": [[["block35_10_ac", 0, 0, {}]]]}, {"class_name": "Concatenate", "config": {"name": "mixed_6a", "trainable": true, "dtype": "float32", "axis": 3}, "name": "mixed_6a", "inbound_nodes": [[["activation_760", 0, 0, {}], ["activation_763", 0, 0, {}], ["max_pooling2d_22", 0, 0, {}]]]}, {"class_name": "Conv2D", "config": {"name": "conv2d_765", "trainable": true, "dtype": "float32", "filters": 128, "kernel_size": [1, 1], "strides": [1, 1], "padding": "same", "data_format": "channels_last", "dilation_rate": [1, 1], "activation": "linear", "use_bias": false, "kernel_initializer": {"class_name": "GlorotUniform", "config": {"seed": null}}, "bias_initializer": {"class_name": "Zeros", "config": {}}, "kernel_regularizer": null, "bias_regularizer": null, "activity_regularizer": null, "kernel_constraint": null, "bias_constraint": null}, "name": "conv2d_765", "inbound_nodes": [[["mixed_6a", 0, 0, {}]]]}, {"class_name": "BatchNormalization", "config": {"name": "batch_normalization_781", "trainable": true, "dtype": "float32", "axis": [3], "momentum": 0.99, "epsilon": 0.001, "center": true, "scale": false, "beta_initializer": {"class_name": "Zeros", "config": {}}, "gamma_initializer": {"class_name": "Ones", "config": {}}, "moving_mean_initializer": {"class_name": "Zeros", "config": {}}, "moving_variance_initializer": {"class_name": "Ones", "config": {}}, "beta_regularizer": null, "gamma_regularizer": null, "beta_constraint": null, "gamma_constraint": null}, "name": "batch_normalization_781", "inbound_nodes": [[["conv2d_765", 0, 0, {}]]]}, {"class_name": "Activation", "config": {"name": "activation_765", "trainable": true, "dtype": "float32", "activation": "relu"}, "name": "activation_765", "inbound_nodes": [[["batch_normalization_781", 0, 0, {}]]]}, {"class_name": "Conv2D", "config": {"name": "conv2d_766", "trainable": true, "dtype": "float32", "filters": 160, "kernel_size": [1, 7], "strides": [1, 1], "padding": "same", "data_format": "channels_last", "dilation_rate": [1, 1], "activation": "linear", "use_bias": false, "kernel_initializer": {"class_name": "GlorotUniform", "config": {"seed": null}}, "bias_initializer": {"class_name": "Zeros", "config": {}}, "kernel_regularizer": null, "bias_regularizer": null, "activity_regularizer": null, "kernel_constraint": null, "bias_constraint": null}, "name": "conv2d_766", "inbound_nodes": [[["activation_765", 0, 0, {}]]]}, {"class_name": "BatchNormalization", "config": {"name": "batch_normalization_782", "trainable": true, "dtype": "float32", "axis": [3], "momentum": 0.99, "epsilon": 0.001, "center": true, "scale": false, "beta_initializer": {"class_name": "Zeros", "config": {}}, "gamma_initializer": {"class_name": "Ones", "config": {}}, "moving_mean_initializer": {"class_name": "Zeros", "config": {}}, "moving_variance_initializer": {"class_name": "Ones", "config": {}}, "beta_regularizer": null, "gamma_regularizer": null, "beta_constraint": null, "gamma_constraint": null}, "name": "batch_normalization_782", "inbound_nodes": [[["conv2d_766", 0, 0, {}]]]}, {"class_name": "Activation", "config": {"name": "activation_766", "trainable": true, "dtype": "float32", "activation": "relu"}, "name": "activation_766", "inbound_nodes": [[["batch_normalization_782", 0, 0, {}]]]}, {"class_name": "Conv2D", "config": {"name": "conv2d_764", "trainable": true, "dtype": "float32", "filters": 192, "kernel_size": [1, 1], "strides": [1, 1], "padding": "same", "data_format": "channels_last", "dilation_rate": [1, 1], "activation": "linear", "use_bias": false, "kernel_initializer": {"class_name": "GlorotUniform", "config": {"seed": null}}, "bias_initializer": {"class_name": "Zeros", "config": {}}, "kernel_regularizer": null, "bias_regularizer": null, "activity_regularizer": null, "kernel_constraint": null, "bias_constraint": null}, "name": "conv2d_764", "inbound_nodes": [[["mixed_6a", 0, 0, {}]]]}, {"class_name": "Conv2D", "config": {"name": "conv2d_767", "trainable": true, "dtype": "float32", "filters": 192, "kernel_size": [7, 1], "strides": [1, 1], "padding": "same", "data_format": "channels_last", "dilation_rate": [1, 1], "activation": "linear", "use_bias": false, "kernel_initializer": {"class_name": "GlorotUniform", "config": {"seed": null}}, "bias_initializer": {"class_name": "Zeros", "config": {}}, "kernel_regularizer": null, "bias_regularizer": null, "activity_regularizer": null, "kernel_constraint": null, "bias_constraint": null}, "name": "conv2d_767", "inbound_nodes": [[["activation_766", 0, 0, {}]]]}, {"class_name": "BatchNormalization", "config": {"name": "batch_normalization_780", "trainable": true, "dtype": "float32", "axis": [3], "momentum": 0.99, "epsilon": 0.001, "center": true, "scale": false, "beta_initializer": {"class_name": "Zeros", "config": {}}, "gamma_initializer": {"class_name": "Ones", "config": {}}, "moving_mean_initializer": {"class_name": "Zeros", "config": {}}, "moving_variance_initializer": {"class_name": "Ones", "config": {}}, "beta_regularizer": null, "gamma_regularizer": null, "beta_constraint": null, "gamma_constraint": null}, "name": "batch_normalization_780", "inbound_nodes": [[["conv2d_764", 0, 0, {}]]]}, {"class_name": "BatchNormalization", "config": {"name": "batch_normalization_783", "trainable": true, "dtype": "float32", "axis": [3], "momentum": 0.99, "epsilon": 0.001, "center": true, "scale": false, "beta_initializer": {"class_name": "Zeros", "config": {}}, "gamma_initializer": {"class_name": "Ones", "config": {}}, "moving_mean_initializer": {"class_name": "Zeros", "config": {}}, "moving_variance_initializer": {"class_name": "Ones", "config": {}}, "beta_regularizer": null, "gamma_regularizer": null, "beta_constraint": null, "gamma_constraint": null}, "name": "batch_normalization_783", "inbound_nodes": [[["conv2d_767", 0, 0, {}]]]}, {"class_name": "Activation", "config": {"name": "activation_764", "trainable": true, "dtype": "float32", "activation": "relu"}, "name": "activation_764", "inbound_nodes": [[["batch_normalization_780", 0, 0, {}]]]}, {"class_name": "Activation", "config": {"name": "activation_767", "trainable": true, "dtype": "float32", "activation": "relu"}, "name": "activation_767", "inbound_nodes": [[["batch_normalization_783", 0, 0, {}]]]}, {"class_name": "Concatenate", "config": {"name": "block17_1_mixed", "trainable": true, "dtype": "float32", "axis": 3}, "name": "block17_1_mixed", "inbound_nodes": [[["activation_764", 0, 0, {}], ["activation_767", 0, 0, {}]]]}, {"class_name": "Conv2D", "config": {"name": "block17_1_conv", "trainable": true, "dtype": "float32", "filters": 1088, "kernel_size": [1, 1], "strides": [1, 1], "padding": "same", "data_format": "channels_last", "dilation_rate": [1, 1], "activation": "linear", "use_bias": true, "kernel_initializer": {"class_name": "GlorotUniform", "config": {"seed": null}}, "bias_initializer": {"class_name": "Zeros", "config": {}}, "kernel_regularizer": null, "bias_regularizer": null, "activity_regularizer": null, "kernel_constraint": null, "bias_constraint": null}, "name": "block17_1_conv", "inbound_nodes": [[["block17_1_mixed", 0, 0, {}]]]}, {"class_name": "Lambda", "config": {"name": "block17_1", "trainable": true, "dtype": "float32", "function": ["4wIAAAAAAAAAAgAAAAMAAABTAAAAcxQAAAB8AGQBGQB8AGQCGQB8ARQAFwBTACkDTukAAAAA6QEA\nAACpACkC2gZpbnB1dHPaBXNjYWxlcgMAAAByAwAAAPpkL2hvbWUvZmlsZnkvYW5hY29uZGEzL2Vu\ndnMvb3dnL2xpYi9weXRob24zLjcvc2l0ZS1wYWNrYWdlcy9rZXJhc19hcHBsaWNhdGlvbnMvaW5j\nZXB0aW9uX3Jlc25ldF92Mi5wedoIPGxhbWJkYT6oAAAA8wAAAAA=\n", null, null], "function_type": "lambda", "module": "keras_applications.inception_resnet_v2", "output_shape": [6, 6, 1088], "output_shape_type": "raw", "output_shape_module": null, "arguments": {"scale": 0.1}}, "name": "block17_1", "inbound_nodes": [[["mixed_6a", 0, 0, {}], ["block17_1_conv", 0, 0, {}]]]}, {"class_name": "Activation", "config": {"name": "block17_1_ac", "trainable": true, "dtype": "float32", "activation": "relu"}, "name": "block17_1_ac", "inbound_nodes": [[["block17_1", 0, 0, {}]]]}, {"class_name": "Conv2D", "config": {"name": "conv2d_769", "trainable": true, "dtype": "float32", "filters": 128, "kernel_size": [1, 1], "strides": [1, 1], "padding": "same", "data_format": "channels_last", "dilation_rate": [1, 1], "activation": "linear", "use_bias": false, "kernel_initializer": {"class_name": "GlorotUniform", "config": {"seed": null}}, "bias_initializer": {"class_name": "Zeros", "config": {}}, "kernel_regularizer": null, "bias_regularizer": null, "activity_regularizer": null, "kernel_constraint": null, "bias_constraint": null}, "name": "conv2d_769", "inbound_nodes": [[["block17_1_ac", 0, 0, {}]]]}, {"class_name": "BatchNormalization", "config": {"name": "batch_normalization_785", "trainable": true, "dtype": "float32", "axis": [3], "momentum": 0.99, "epsilon": 0.001, "center": true, "scale": false, "beta_initializer": {"class_name": "Zeros", "config": {}}, "gamma_initializer": {"class_name": "Ones", "config": {}}, "moving_mean_initializer": {"class_name": "Zeros", "config": {}}, "moving_variance_initializer": {"class_name": "Ones", "config": {}}, "beta_regularizer": null, "gamma_regularizer": null, "beta_constraint": null, "gamma_constraint": null}, "name": "batch_normalization_785", "inbound_nodes": [[["conv2d_769", 0, 0, {}]]]}, {"class_name": "Activation", "config": {"name": "activation_769", "trainable": true, "dtype": "float32", "activation": "relu"}, "name": "activation_769", "inbound_nodes": [[["batch_normalization_785", 0, 0, {}]]]}, {"class_name": "Conv2D", "config": {"name": "conv2d_770", "trainable": true, "dtype": "float32", "filters": 160, "kernel_size": [1, 7], "strides": [1, 1], "padding": "same", "data_format": "channels_last", "dilation_rate": [1, 1], "activation": "linear", "use_bias": false, "kernel_initializer": {"class_name": "GlorotUniform", "config": {"seed": null}}, "bias_initializer": {"class_name": "Zeros", "config": {}}, "kernel_regularizer": null, "bias_regularizer": null, "activity_regularizer": null, "kernel_constraint": null, "bias_constraint": null}, "name": "conv2d_770", "inbound_nodes": [[["activation_769", 0, 0, {}]]]}, {"class_name": "BatchNormalization", "config": {"name": "batch_normalization_786", "trainable": true, "dtype": "float32", "axis": [3], "momentum": 0.99, "epsilon": 0.001, "center": true, "scale": false, "beta_initializer": {"class_name": "Zeros", "config": {}}, "gamma_initializer": {"class_name": "Ones", "config": {}}, "moving_mean_initializer": {"class_name": "Zeros", "config": {}}, "moving_variance_initializer": {"class_name": "Ones", "config": {}}, "beta_regularizer": null, "gamma_regularizer": null, "beta_constraint": null, "gamma_constraint": null}, "name": "batch_normalization_786", "inbound_nodes": [[["conv2d_770", 0, 0, {}]]]}, {"class_name": "Activation", "config": {"name": "activation_770", "trainable": true, "dtype": "float32", "activation": "relu"}, "name": "activation_770", "inbound_nodes": [[["batch_normalization_786", 0, 0, {}]]]}, {"class_name": "Conv2D", "config": {"name": "conv2d_768", "trainable": true, "dtype": "float32", "filters": 192, "kernel_size": [1, 1], "strides": [1, 1], "padding": "same", "data_format": "channels_last", "dilation_rate": [1, 1], "activation": "linear", "use_bias": false, "kernel_initializer": {"class_name": "GlorotUniform", "config": {"seed": null}}, "bias_initializer": {"class_name": "Zeros", "config": {}}, "kernel_regularizer": null, "bias_regularizer": null, "activity_regularizer": null, "kernel_constraint": null, "bias_constraint": null}, "name": "conv2d_768", "inbound_nodes": [[["block17_1_ac", 0, 0, {}]]]}, {"class_name": "Conv2D", "config": {"name": "conv2d_771", "trainable": true, "dtype": "float32", "filters": 192, "kernel_size": [7, 1], "strides": [1, 1], "padding": "same", "data_format": "channels_last", "dilation_rate": [1, 1], "activation": "linear", "use_bias": false, "kernel_initializer": {"class_name": "GlorotUniform", "config": {"seed": null}}, "bias_initializer": {"class_name": "Zeros", "config": {}}, "kernel_regularizer": null, "bias_regularizer": null, "activity_regularizer": null, "kernel_constraint": null, "bias_constraint": null}, "name": "conv2d_771", "inbound_nodes": [[["activation_770", 0, 0, {}]]]}, {"class_name": "BatchNormalization", "config": {"name": "batch_normalization_784", "trainable": true, "dtype": "float32", "axis": [3], "momentum": 0.99, "epsilon": 0.001, "center": true, "scale": false, "beta_initializer": {"class_name": "Zeros", "config": {}}, "gamma_initializer": {"class_name": "Ones", "config": {}}, "moving_mean_initializer": {"class_name": "Zeros", "config": {}}, "moving_variance_initializer": {"class_name": "Ones", "config": {}}, "beta_regularizer": null, "gamma_regularizer": null, "beta_constraint": null, "gamma_constraint": null}, "name": "batch_normalization_784", "inbound_nodes": [[["conv2d_768", 0, 0, {}]]]}, {"class_name": "BatchNormalization", "config": {"name": "batch_normalization_787", "trainable": true, "dtype": "float32", "axis": [3], "momentum": 0.99, "epsilon": 0.001, "center": true, "scale": false, "beta_initializer": {"class_name": "Zeros", "config": {}}, "gamma_initializer": {"class_name": "Ones", "config": {}}, "moving_mean_initializer": {"class_name": "Zeros", "config": {}}, "moving_variance_initializer": {"class_name": "Ones", "config": {}}, "beta_regularizer": null, "gamma_regularizer": null, "beta_constraint": null, "gamma_constraint": null}, "name": "batch_normalization_787", "inbound_nodes": [[["conv2d_771", 0, 0, {}]]]}, {"class_name": "Activation", "config": {"name": "activation_768", "trainable": true, "dtype": "float32", "activation": "relu"}, "name": "activation_768", "inbound_nodes": [[["batch_normalization_784", 0, 0, {}]]]}, {"class_name": "Activation", "config": {"name": "activation_771", "trainable": true, "dtype": "float32", "activation": "relu"}, "name": "activation_771", "inbound_nodes": [[["batch_normalization_787", 0, 0, {}]]]}, {"class_name": "Concatenate", "config": {"name": "block17_2_mixed", "trainable": true, "dtype": "float32", "axis": 3}, "name": "block17_2_mixed", "inbound_nodes": [[["activation_768", 0, 0, {}], ["activation_771", 0, 0, {}]]]}, {"class_name": "Conv2D", "config": {"name": "block17_2_conv", "trainable": true, "dtype": "float32", "filters": 1088, "kernel_size": [1, 1], "strides": [1, 1], "padding": "same", "data_format": "channels_last", "dilation_rate": [1, 1], "activation": "linear", "use_bias": true, "kernel_initializer": {"class_name": "GlorotUniform", "config": {"seed": null}}, "bias_initializer": {"class_name": "Zeros", "config": {}}, "kernel_regularizer": null, "bias_regularizer": null, "activity_regularizer": null, "kernel_constraint": null, "bias_constraint": null}, "name": "block17_2_conv", "inbound_nodes": [[["block17_2_mixed", 0, 0, {}]]]}, {"class_name": "Lambda", "config": {"name": "block17_2", "trainable": true, "dtype": "float32", "function": ["4wIAAAAAAAAAAgAAAAMAAABTAAAAcxQAAAB8AGQBGQB8AGQCGQB8ARQAFwBTACkDTukAAAAA6QEA\nAACpACkC2gZpbnB1dHPaBXNjYWxlcgMAAAByAwAAAPpkL2hvbWUvZmlsZnkvYW5hY29uZGEzL2Vu\ndnMvb3dnL2xpYi9weXRob24zLjcvc2l0ZS1wYWNrYWdlcy9rZXJhc19hcHBsaWNhdGlvbnMvaW5j\nZXB0aW9uX3Jlc25ldF92Mi5wedoIPGxhbWJkYT6oAAAA8wAAAAA=\n", null, null], "function_type": "lambda", "module": "keras_applications.inception_resnet_v2", "output_shape": [6, 6, 1088], "output_shape_type": "raw", "output_shape_module": null, "arguments": {"scale": 0.1}}, "name": "block17_2", "inbound_nodes": [[["block17_1_ac", 0, 0, {}], ["block17_2_conv", 0, 0, {}]]]}, {"class_name": "Activation", "config": {"name": "block17_2_ac", "trainable": true, "dtype": "float32", "activation": "relu"}, "name": "block17_2_ac", "inbound_nodes": [[["block17_2", 0, 0, {}]]]}, {"class_name": "Conv2D", "config": {"name": "conv2d_773", "trainable": true, "dtype": "float32", "filters": 128, "kernel_size": [1, 1], "strides": [1, 1], "padding": "same", "data_format": "channels_last", "dilation_rate": [1, 1], "activation": "linear", "use_bias": false, "kernel_initializer": {"class_name": "GlorotUniform", "config": {"seed": null}}, "bias_initializer": {"class_name": "Zeros", "config": {}}, "kernel_regularizer": null, "bias_regularizer": null, "activity_regularizer": null, "kernel_constraint": null, "bias_constraint": null}, "name": "conv2d_773", "inbound_nodes": [[["block17_2_ac", 0, 0, {}]]]}, {"class_name": "BatchNormalization", "config": {"name": "batch_normalization_789", "trainable": true, "dtype": "float32", "axis": [3], "momentum": 0.99, "epsilon": 0.001, "center": true, "scale": false, "beta_initializer": {"class_name": "Zeros", "config": {}}, "gamma_initializer": {"class_name": "Ones", "config": {}}, "moving_mean_initializer": {"class_name": "Zeros", "config": {}}, "moving_variance_initializer": {"class_name": "Ones", "config": {}}, "beta_regularizer": null, "gamma_regularizer": null, "beta_constraint": null, "gamma_constraint": null}, "name": "batch_normalization_789", "inbound_nodes": [[["conv2d_773", 0, 0, {}]]]}, {"class_name": "Activation", "config": {"name": "activation_773", "trainable"…
 "config": {"seed": null}}, "bias_initializer": {"class_name": "Zeros", "config": {}}, "kernel_regularizer": null, "bias_regularizer": null, "activity_regularizer": null, "kernel_constraint": null, "bias_constraint": null}, "name": "block8_4_conv", "inbound_nodes": [[["block8_4_mixed", 0, 0, {}]]]}, {"class_name": "Lambda", "config": {"name": "block8_4", "trainable": true, "dtype": "float32", "function": ["4wIAAAAAAAAAAgAAAAMAAABTAAAAcxQAAAB8AGQBGQB8AGQCGQB8ARQAFwBTACkDTukAAAAA6QEA\nAACpACkC2gZpbnB1dHPaBXNjYWxlcgMAAAByAwAAAPpkL2hvbWUvZmlsZnkvYW5hY29uZGEzL2Vu\ndnMvb3dnL2xpYi9weXRob24zLjcvc2l0ZS1wYWNrYWdlcy9rZXJhc19hcHBsaWNhdGlvbnMvaW5j\nZXB0aW9uX3Jlc25ldF92Mi5wedoIPGxhbWJkYT6oAAAA8wAAAAA=\n", null, null], "function_type": "lambda", "module": "keras_applications.inception_resnet_v2", "output_shape": [2, 2, 2080], "output_shape_type": "raw", "output_shape_module": null, "arguments": {"scale": 0.2}}, "name": "block8_4", "inbound_nodes": [[["block8_3_ac", 0, 0, {}], ["block8_4_conv", 0, 0, {}]]]}, {"class_name": "Activation", "config": {"name": "block8_4_ac", "trainable": true, "dtype": "float32", "activation": "relu"}, "name": "block8_4_ac", "inbound_nodes": [[["block8_4", 0, 0, {}]]]}, {"class_name": "Conv2D", "config": {"name": "conv2d_868", "trainable": true, "dtype": "float32", "filters": 192, "kernel_size": [1, 1], "strides": [1, 1], "padding": "same", "data_format": "channels_last", "dilation_rate": [1, 1], "activation": "linear", "use_bias": false, "kernel_initializer": {"class_name": "GlorotUniform", "config": {"seed": null}}, "bias_initializer": {"class_name": "Zeros", "config": {}}, "kernel_regularizer": null, "bias_regularizer": null, "activity_regularizer": null, "kernel_constraint": null, "bias_constraint": null}, "name": "conv2d_868", "inbound_nodes": [[["block8_4_ac", 0, 0, {}]]]}, {"class_name": "BatchNormalization", "config": {"name": "batch_normalization_884", "trainable": true, "dtype": "float32", "axis": [3], "momentum": 0.99, "epsilon": 0.001, "center": true, "scale": false, "beta_initializer": {"class_name": "Zeros", "config": {}}, "gamma_initializer": {"class_name": "Ones", "config": {}}, "moving_mean_initializer": {"class_name": "Zeros", "config": {}}, "moving_variance_initializer": {"class_name": "Ones", "config": {}}, "beta_regularizer": null, "gamma_regularizer": null, "beta_constraint": null, "gamma_constraint": null}, "name": "batch_normalization_884", "inbound_nodes": [[["conv2d_868", 0, 0, {}]]]}, {"class_name": "Activation", "config": {"name": "activation_868", "trainable": true, "dtype": "float32", "activation": "relu"}, "name": "activation_868", "inbound_nodes": [[["batch_normalization_884", 0, 0, {}]]]}, {"class_name": "Conv2D", "config": {"name": "conv2d_869", "trainable": true, "dtype": "float32", "filters": 224, "kernel_size": [1, 3], "strides": [1, 1], "padding": "same", "data_format": "channels_last", "dilation_rate": [1, 1], "activation": "linear", "use_bias": false, "kernel_initializer": {"class_name": "GlorotUniform", "config": {"seed": null}}, "bias_initializer": {"class_name": "Zeros", "config": {}}, "kernel_regularizer": null, "bias_regularizer": null, "activity_regularizer": null, "kernel_constraint": null, "bias_constraint": null}, "name": "conv2d_869", "inbound_nodes": [[["activation_868", 0, 0, {}]]]}, {"class_name": "BatchNormalization", "config": {"name": "batch_normalization_885", "trainable": true, "dtype": "float32", "axis": [3], "momentum": 0.99, "epsilon": 0.001, "center": true, "scale": false, "beta_initializer": {"class_name": "Zeros", "config": {}}, "gamma_initializer": {"class_name": "Ones", "config": {}}, "moving_mean_initializer": {"class_name": "Zeros", "config": {}}, "moving_variance_initializer": {"class_name": "Ones", "config": {}}, "beta_regularizer": null, "gamma_regularizer": null, "beta_constraint": null, "gamma_constraint": null}, "name": "batch_normalization_885", "inbound_nodes": [[["conv2d_869", 0, 0, {}]]]}, {"class_name": "Activation", "config": {"name": "activation_869", "trainable": true, "dtype": "float32", "activation": "relu"}, "name": "activation_869", "inbound_nodes": [[["batch_normalization_885", 0, 0, {}]]]}, {"class_name": "Conv2D", "config": {"name": "conv2d_867", "trainable": true, "dtype": "float32", "filters": 192, "kernel_size": [1, 1], "strides": [1, 1], "padding": "same", "data_format": "channels_last", "dilation_rate": [1, 1], "activation": "linear", "use_bias": false, "kernel_initializer": {"class_name": "GlorotUniform", "config": {"seed": null}}, "bias_initializer": {"class_name": "Zeros", "config": {}}, "kernel_regularizer": null, "bias_regularizer": null, "activity_regularizer": null, "kernel_constraint": null, "bias_constraint": null}, "name": "conv2d_867", "inbound_nodes": [[["block8_4_ac", 0, 0, {}]]]}, {"class_name": "Conv2D", "config": {"name": "conv2d_870", "trainable": true, "dtype": "float32", "filters": 256, "kernel_size": [3, 1], "strides": [1, 1], "padding": "same", "data_format": "channels_last", "dilation_rate": [1, 1], "activation": "linear", "use_bias": false, "kernel_initializer": {"class_name": "GlorotUniform", "config": {"seed": null}}, "bias_initializer": {"class_name": "Zeros", "config": {}}, "kernel_regularizer": null, "bias_regularizer": null, "activity_regularizer": null, "kernel_constraint": null, "bias_constraint": null}, "name": "conv2d_870", "inbound_nodes": [[["activation_869", 0, 0, {}]]]}, {"class_name": "BatchNormalization", "config": {"name": "batch_normalization_883", "trainable": true, "dtype": "float32", "axis": [3], "momentum": 0.99, "epsilon": 0.001, "center": true, "scale": false, "beta_initializer": {"class_name": "Zeros", "config": {}}, "gamma_initializer": {"class_name": "Ones", "config": {}}, "moving_mean_initializer": {"class_name": "Zeros", "config": {}}, "moving_variance_initializer": {"class_name": "Ones", "config": {}}, "beta_regularizer": null, "gamma_regularizer": null, "beta_constraint": null, "gamma_constraint": null}, "name": "batch_normalization_883", "inbound_nodes": [[["conv2d_867", 0, 0, {}]]]}, {"class_name": "BatchNormalization", "config": {"name": "batch_normalization_886", "trainable": true, "dtype": "float32", "axis": [3], "momentum": 0.99, "epsilon": 0.001, "center": true, "scale": false, "beta_initializer": {"class_name": "Zeros", "config": {}}, "gamma_initializer": {"class_name": "Ones", "config": {}}, "moving_mean_initializer": {"class_name": "Zeros", "config": {}}, "moving_variance_initializer": {"class_name": "Ones", "config": {}}, "beta_regularizer": null, "gamma_regularizer": null, "beta_constraint": null, "gamma_constraint": null}, "name": "batch_normalization_886", "inbound_nodes": [[["conv2d_870", 0, 0, {}]]]}, {"class_name": "Activation", "config": {"name": "activation_867", "trainable": true, "dtype": "float32", "activation": "relu"}, "name": "activation_867", "inbound_nodes": [[["batch_normalization_883", 0, 0, {}]]]}, {"class_name": "Activation", "config": {"name": "activation_870", "trainable": true, "dtype": "float32", "activation": "relu"}, "name": "activation_870", "inbound_nodes": [[["batch_normalization_886", 0, 0, {}]]]}, {"class_name": "Concatenate", "config": {"name": "block8_5_mixed", "trainable": true, "dtype": "float32", "axis": 3}, "name": "block8_5_mixed", "inbound_nodes": [[["activation_867", 0, 0, {}], ["activation_870", 0, 0, {}]]]}, {"class_name": "Conv2D", "config": {"name": "block8_5_conv", "trainable": true, "dtype": "float32", "filters": 2080, "kernel_size": [1, 1], "strides": [1, 1], "padding": "same", "data_format": "channels_last", "dilation_rate": [1, 1], "activation": "linear", "use_bias": true, "kernel_initializer": {"class_name": "GlorotUniform", "config": {"seed": null}}, "bias_initializer": {"class_name": "Zeros", "config": {}}, "kernel_regularizer": null, "bias_regularizer": null, "activity_regularizer": null, "kernel_constraint": null, "bias_constraint": null}, "name": "block8_5_conv", "inbound_nodes": [[["block8_5_mixed", 0, 0, {}]]]}, {"class_name": "Lambda", "config": {"name": "block8_5", "trainable": true, "dtype": "float32", "function": ["4wIAAAAAAAAAAgAAAAMAAABTAAAAcxQAAAB8AGQBGQB8AGQCGQB8ARQAFwBTACkDTukAAAAA6QEA\nAACpACkC2gZpbnB1dHPaBXNjYWxlcgMAAAByAwAAAPpkL2hvbWUvZmlsZnkvYW5hY29uZGEzL2Vu\ndnMvb3dnL2xpYi9weXRob24zLjcvc2l0ZS1wYWNrYWdlcy9rZXJhc19hcHBsaWNhdGlvbnMvaW5j\nZXB0aW9uX3Jlc25ldF92Mi5wedoIPGxhbWJkYT6oAAAA8wAAAAA=\n", null, null], "function_type": "lambda", "module": "keras_applications.inception_resnet_v2", "output_shape": [2, 2, 2080], "output_shape_type": "raw", "output_shape_module": null, "arguments": {"scale": 0.2}}, "name": "block8_5", "inbound_nodes": [[["block8_4_ac", 0, 0, {}], ["block8_5_conv", 0, 0, {}]]]}, {"class_name": "Activation", "config": {"name": "block8_5_ac", "trainable": true, "dtype": "float32", "activation": "relu"}, "name": "block8_5_ac", "inbound_nodes": [[["block8_5", 0, 0, {}]]]}, {"class_name": "Conv2D", "config": {"name": "conv2d_872", "trainable": true, "dtype": "float32", "filters": 192, "kernel_size": [1, 1], "strides": [1, 1], "padding": "same", "data_format": "channels_last", "dilation_rate": [1, 1], "activation": "linear", "use_bias": false, "kernel_initializer": {"class_name": "GlorotUniform", "config": {"seed": null}}, "bias_initializer": {"class_name": "Zeros", "config": {}}, "kernel_regularizer": null, "bias_regularizer": null, "activity_regularizer": null, "kernel_constraint": null, "bias_constraint": null}, "name": "conv2d_872", "inbound_nodes": [[["block8_5_ac", 0, 0, {}]]]}, {"class_name": "BatchNormalization", "config": {"name": "batch_normalization_888", "trainable": true, "dtype": "float32", "axis": [3], "momentum": 0.99, "epsilon": 0.001, "center": true, "scale": false, "beta_initializer": {"class_name": "Zeros", "config": {}}, "gamma_initializer": {"class_name": "Ones", "config": {}}, "moving_mean_initializer": {"class_name": "Zeros", "config": {}}, "moving_variance_initializer": {"class_name": "Ones", "config": {}}, "beta_regularizer": null, "gamma_regularizer": null, "beta_constraint": null, "gamma_constraint": null}, "name": "batch_normalization_888", "inbound_nodes": [[["conv2d_872", 0, 0, {}]]]}, {"class_name": "Activation", "config": {"name": "activation_872", "trainable": true, "dtype": "float32", "activation": "relu"}, "name": "activation_872", "inbound_nodes": [[["batch_normalization_888", 0, 0, {}]]]}, {"class_name": "Conv2D", "config": {"name": "conv2d_873", "trainable": true, "dtype": "float32", "filters": 224, "kernel_size": [1, 3], "strides": [1, 1], "padding": "same", "data_format": "channels_last", "dilation_rate": [1, 1], "activation": "linear", "use_bias": false, "kernel_initializer": {"class_name": "GlorotUniform", "config": {"seed": null}}, "bias_initializer": {"class_name": "Zeros", "config": {}}, "kernel_regularizer": null, "bias_regularizer": null, "activity_regularizer": null, "kernel_constraint": null, "bias_constraint": null}, "name": "conv2d_873", "inbound_nodes": [[["activation_872", 0, 0, {}]]]}, {"class_name": "BatchNormalization", "config": {"name": "batch_normalization_889", "trainable": true, "dtype": "float32", "axis": [3], "momentum": 0.99, "epsilon": 0.001, "center": true, "scale": false, "beta_initializer": {"class_name": "Zeros", "config": {}}, "gamma_initializer": {"class_name": "Ones", "config": {}}, "moving_mean_initializer": {"class_name": "Zeros", "config": {}}, "moving_variance_initializer": {"class_name": "Ones", "config": {}}, "beta_regularizer": null, "gamma_regularizer": null, "beta_constraint": null, "gamma_constraint": null}, "name": "batch_normalization_889", "inbound_nodes": [[["conv2d_873", 0, 0, {}]]]}, {"class_name": "Activation", "config": {"name": "activation_873", "trainable": true, "dtype": "float32", "activation": "relu"}, "name": "activation_873", "inbound_nodes": [[["batch_normalization_889", 0, 0, {}]]]}, {"class_name": "Conv2D", "config": {"name": "conv2d_871", "trainable": true, "dtype": "float32", "filters": 192, "kernel_size": [1, 1], "strides": [1, 1], "padding": "same", "data_format": "channels_last", "dilation_rate": [1, 1], "activation": "linear", "use_bias": false, "kernel_initializer": {"class_name": "GlorotUniform", "config": {"seed": null}}, "bias_initializer": {"class_name": "Zeros", "config": {}}, "kernel_regularizer": null, "bias_regularizer": null, "activity_regularizer": null, "kernel_constraint": null, "bias_constraint": null}, "name": "conv2d_871", "inbound_nodes": [[["block8_5_ac", 0, 0, {}]]]}, {"class_name": "Conv2D", "config": {"name": "conv2d_874", "trainable": true, "dtype": "float32", "filters": 256, "kernel_size": [3, 1], "strides": [1, 1], "padding": "same", "data_format": "channels_last", "dilation_rate": [1, 1], "activation": "linear", "use_bias": false, "kernel_initializer": {"class_name": "GlorotUniform", "config": {"seed": null}}, "bias_initializer": {"class_name": "Zeros", "config": {}}, "kernel_regularizer": null, "bias_regularizer": null, "activity_regularizer": null, "kernel_constraint": null, "bias_constraint": null}, "name": "conv2d_874", "inbound_nodes": [[["activation_873", 0, 0, {}]]]}, {"class_name": "BatchNormalization", "config": {"name": "batch_normalization_887", "trainable": true, "dtype": "float32", "axis": [3], "momentum": 0.99, "epsilon": 0.001, "center": true, "scale": false, "beta_initializer": {"class_name": "Zeros", "config": {}}, "gamma_initializer": {"class_name": "Ones", "config": {}}, "moving_mean_initializer": {"class_name": "Zeros", "config": {}}, "moving_variance_initializer": {"class_name": "Ones", "config": {}}, "beta_regularizer": null, "gamma_regularizer": null, "beta_constraint": null, "gamma_constraint": null}, "name": "batch_normalization_887", "inbound_nodes": [[["conv2d_871", 0, 0, {}]]]}, {"class_name": "BatchNormalization", "config": {"name": "batch_normalization_890", "trainable": true, "dtype": "float32", "axis": [3], "momentum": 0.99, "epsilon": 0.001, "center": true, "scale": false, "beta_initializer": {"class_name": "Zeros", "config": {}}, "gamma_initializer": {"class_name": "Ones", "config": {}}, "moving_mean_initializer": {"class_name": "Zeros", "config": {}}, "moving_variance_initializer": {"class_name": "Ones", "config": {}}, "beta_regularizer": null, "gamma_regularizer": null, "beta_constraint": null, "gamma_constraint": null}, "name": "batch_normalization_890", "inbound_nodes": [[["conv2d_874", 0, 0, {}]]]}, {"class_name": "Activation", "config": {"name": "activation_871", "trainable": true, "dtype": "float32", "activation": "relu"}, "name": "activation_871", "inbound_nodes": [[["batch_normalization_887", 0, 0, {}]]]}, {"class_name": "Activation", "config": {"name": "activation_874", "trainable": true, "dtype": "float32", "activation": "relu"}, "name": "activation_874", "inbound_nodes": [[["batch_normalization_890", 0, 0, {}]]]}, {"class_name": "Concatenate", "config": {"name": "block8_6_mixed", "trainable": true, "dtype": "float32", "axis": 3}, "name": "block8_6_mixed", "inbound_nodes": [[["activation_871", 0, 0, {}], ["activation_874", 0, 0, {}]]]}, {"class_name": "Conv2D", "config": {"name": "block8_6_conv", "trainable": true, "dtype": "float32", "filters": 2080, "kernel_size": [1, 1], "strides": [1, 1], "padding": "same", "data_format": "channels_last", "dilation_rate": [1, 1], "activation": "linear", "use_bias": true, "kernel_initializer": {"class_name": "GlorotUniform", "config": {"seed": null}}, "bias_initializer": {"class_name": "Zeros", "config": {}}, "kernel_regularizer": null, "bias_regularizer": null, "activity_regularizer": null, "kernel_constraint": null, "bias_constraint": null}, "name": "block8_6_conv", "inbound_nodes": [[["block8_6_mixed", 0, 0, {}]]]}, {"class_name": "Lambda", "config": {"name": "block8_6", "trainable": true, "dtype": "float32", "function": ["4wIAAAAAAAAAAgAAAAMAAABTAAAAcxQAAAB8AGQBGQB8AGQCGQB8ARQAFwBTACkDTukAAAAA6QEA\nAACpACkC2gZpbnB1dHPaBXNjYWxlcgMAAAByAwAAAPpkL2hvbWUvZmlsZnkvYW5hY29uZGEzL2Vu\ndnMvb3dnL2xpYi9weXRob24zLjcvc2l0ZS1wYWNrYWdlcy9rZXJhc19hcHBsaWNhdGlvbnMvaW5j\nZXB0aW9uX3Jlc25ldF92Mi5wedoIPGxhbWJkYT6oAAAA8wAAAAA=\n", null, null], "function_type": "lambda", "module": "keras_applications.inception_resnet_v2", "output_shape": [2, 2, 2080], "output_shape_type": "raw", "output_shape_module": null, "arguments": {"scale": 0.2}}, "name": "block8_6", "inbound_nodes": [[["block8_5_ac", 0, 0, {}], ["block8_6_conv", 0, 0, {}]]]}, {"class_name": "Activation", "config": {"name": "block8_6_ac", "trainable": true, "dtype": "float32", "activation": "relu"}, "name": "block8_6_ac", "inbound_nodes": [[["block8_6", 0, 0, {}]]]}, {"class_name": "Conv2D", "config": {"name": "conv2d_876", "trainable": true, "dtype": "float32", "filters": 192, "kernel_size": [1, 1], "strides": [1, 1], "padding": "same", "data_format": "channels_last", "dilation_rate": [1, 1], "activation": "linear", "use_bias": false, "kernel_initializer": {"class_name": "GlorotUniform", "config": {"seed": null}}, "bias_initializer": {"class_name": "Zeros", "config": {}}, "kernel_regularizer": null, "bias_regularizer": null, "activity_regularizer": null, "kernel_constraint": null, "bias_constraint": null}, "name": "conv2d_876", "inbound_nodes": [[["block8_6_ac", 0, 0, {}]]]}, {"class_name": "BatchNormalization", "config": {"name": "batch_normalization_892", "trainable": true, "dtype": "float32", "axis": [3], "momentum": 0.99, "epsilon": 0.001, "center": true, "scale": false, "beta_initializer": {"class_name": "Zeros", "config": {}}, "gamma_initializer": {"class_name": "Ones", "config": {}}, "moving_mean_initializer": {"class_name": "Zeros", "config": {}}, "moving_variance_initializer": {"class_name": "Ones", "config": {}}, "beta_regularizer": null, "gamma_regularizer": null, "beta_constraint": null, "gamma_constraint": null}, "name": "batch_normalization_892", "inbound_nodes": [[["conv2d_876", 0, 0, {}]]]}, {"class_name": "Activation", "config": {"name": "activation_876", "trainable": true, "dtype": "float32", "activation": "relu"}, "name": "activation_876", "inbound_nodes": [[["batch_normalization_892", 0, 0, {}]]]}, {"class_name": "Conv2D", "config": {"name": "conv2d_877", "trainable": true, "dtype": "float32", "filters": 224, "kernel_size": [1, 3], "strides": [1, 1], "padding": "same", "data_format": "channels_last", "dilation_rate": [1, 1], "activation": "linear", "use_bias": false, "kernel_initializer": {"class_name": "GlorotUniform", "config": {"seed": null}}, "bias_initializer": {"class_name": "Zeros", "config": {}}, "kernel_regularizer": null, "bias_regularizer": null, "activity_regularizer": null, "kernel_constraint": null, "bias_constraint": null}, "name": "conv2d_877", "inbound_nodes": [[["activation_876", 0, 0, {}]]]}, {"class_name": "BatchNormalization", "config": {"name": "batch_normalization_893", "trainable": true, "dtype": "float32", "axis": [3], "momentum": 0.99, "epsilon": 0.001, "center": true, "scale": false, "beta_initializer": {"class_name": "Zeros", "config": {}}, "gamma_initializer": {"class_name": "Ones", "config": {}}, "moving_mean_initializer": {"class_name": "Zeros", "config": {}}, "moving_variance_initializer": {"class_name": "Ones", "config": {}}, "beta_regularizer": null, "gamma_regularizer": null, "beta_constraint": null, "gamma_constraint": null}, "name": "batch_normalization_893", "inbound_nodes": [[["conv2d_877", 0, 0, {}]]]}, {"class_name": "Activation", "config": {"name": "activation_877", "trainable": true, "dtype": "float32", "activation": "relu"}, "name": "activation_877", "inbound_nodes": [[["batch_normalization_893", 0, 0, {}]]]}, {"class_name": "Conv2D", "config": {"name": "conv2d_875", "trainable": true, "dtype": "float32", "filters": 192, "kernel_size": [1, 1], "strides": [1, 1], "padding": "same", "data_format": "channels_last", "dilation_rate": [1, 1], "activation": "linear", "use_bias": false, "kernel_initializer": {"class_name": "GlorotUniform", "config": {"seed": null}}, "bias_initializer": {"class_name": "Zeros", "config": {}}, "kernel_regularizer": null, "bias_regularizer": null, "activity_regularizer": null, "kernel_constraint": null, "bias_constraint": null}, "name": "conv2d_875", "inbound_nodes": [[["block8_6_ac", 0, 0, {}]]]}, {"class_name": "Conv2D", "config": {"name": "conv2d_878", "trainable": true, "dtype": "float32", "filters": 256, "kernel_size": [3, 1], "strides": [1, 1], "padding": "same", "data_format": "channels_last", "dilation_rate": [1, 1], "activation": "linear", "use_bias": false, "kernel_initializer": {"class_name": "GlorotUniform", "config": {"seed": null}}, "bias_initializer": {"class_name": "Zeros", "config": {}}, "kernel_regularizer": null, "bias_regularizer": null, "activity_regularizer": null, "kernel_constraint": null, "bias_constraint": null}, "name": "conv2d_878", "inbound_nodes": [[["activation_877", 0, 0, {}]]]}, {"class_name": "BatchNormalization", "config": {"name": "batch_normalization_891", "trainable": true, "dtype": "float32", "axis": [3], "momentum": 0.99, "epsilon": 0.001, "center": true, "scale": false, "beta_initializer": {"class_name": "Zeros", "config": {}}, "gamma_initializer": {"class_name": "Ones", "config": {}}, "moving_mean_initializer": {"class_name": "Zeros", "config": {}}, "moving_variance_initializer": {"class_name": "Ones", "config": {}}, "beta_regularizer": null, "gamma_regularizer": null, "beta_constraint": null, "gamma_constraint": null}, "name": "batch_normalization_891", "inbound_nodes": [[["conv2d_875", 0, 0, {}]]]}, {"class_name": "BatchNormalization", "config": {"name": "batch_normalization_894", "trainable": true, "dtype": "float32", "axis": [3], "momentum": 0.99, "epsilon": 0.001, "center": true, "scale": false, "beta_initializer": {"class_name": "Zeros", "config": {}}, "gamma_initializer": {"class_name": "Ones", "config": {}}, "moving_mean_initializer": {"class_name": "Zeros", "config": {}}, "moving_variance_initializer": {"class_name": "Ones", "config": {}}, "beta_regularizer": null, "gamma_regularizer": null, "beta_constraint": null, "gamma_constraint": null}, "name": "batch_normalization_894", "inbound_nodes": [[["conv2d_878", 0, 0, {}]]]}, {"class_name": "Activation", "config": {"name": "activation_875", "trainable": true, "dtype": "float32", "activation": "relu"}, "name": "activation_875", "inbound_nodes": [[["batch_normalization_891", 0, 0, {}]]]}, {"class_name": "Activation", "config": {"name": "activation_878", "trainable": true, "dtype": "float32", "activation": "relu"}, "name": "activation_878", "inbound_nodes": [[["batch_normalization_894", 0, 0, {}]]]}, {"class_name": "Concatenate", "config": {"name": "block8_7_mixed", "trainable": true, "dtype": "float32", "axis": 3}, "name": "block8_7_mixed", "inbound_nodes": [[["activation_875", 0, 0, {}], ["activation_878", 0, 0, {}]]]}, {"class_name": "Conv2D", "config": {"name": "block8_7_conv", "trainable": true, "dtype": "float32", "filters": 2080, "kernel_size": [1, 1], "strides": [1, 1], "padding": "same", "data_format": "channels_last", "dilation_rate": [1, 1], "activation": "linear", "use_bias": true, "kernel_initializer": {"class_name": "GlorotUniform", "config": {"seed": null}}, "bias_initializer": {"class_name": "Zeros", "config": {}}, "kernel_regularizer": null, "bias_regularizer": null, "activity_regularizer": null, "kernel_constraint": null, "bias_constraint": null}, "name": "block8_7_conv", "inbound_nodes": [[["block8_7_mixed", 0, 0, {}]]]}, {"class_name": "Lambda", "config": {"name": "block8_7", "trainable": true, "dtype": "float32", "function": ["4wIAAAAAAAAAAgAAAAMAAABTAAAAcxQAAAB8AGQBGQB8AGQCGQB8ARQAFwBTACkDTukAAAAA6QEA\nAACpACkC2gZpbnB1dHPaBXNjYWxlcgMAAAByAwAAAPpkL2hvbWUvZmlsZnkvYW5hY29uZGEzL2Vu\ndnMvb3dnL2xpYi9weXRob24zLjcvc2l0ZS1wYWNrYWdlcy9rZXJhc19hcHBsaWNhdGlvbnMvaW5j\nZXB0aW9uX3Jlc25ldF92Mi5wedoIPGxhbWJkYT6oAAAA8wAAAAA=\n", null, null], "function_type": "lambda", "module": "keras_applications.inception_resnet_v2", "output_shape": [2, 2, 2080], "output_shape_type": "raw", "output_shape_module": null, "arguments": {"scale": 0.2}}, "name": "block8_7", "inbound_nodes": [[["block8_6_ac", 0, 0, {}], ["block8_7_conv", 0, 0, {}]]]}, {"class_name": "Activation", "config": {"name": "block8_7_ac", "trainable": true, "dtype": "float32", "activation": "relu"}, "name": "block8_7_ac", "inbound_nodes": [[["block8_7", 0, 0, {}]]]}, {"class_name": "Conv2D", "config": {"name": "conv2d_880", "trainable": true, "dtype": "float32", "filters": 192, "kernel_size": [1, 1], "strides": [1, 1], "padding": "same", "data_format": "channels_last", "dilation_rate": [1, 1], "activation": "linear", "use_bias": false, "kernel_initializer": {"class_name": "GlorotUniform", "config": {"seed": null}}, "bias_initializer": {"class_name": "Zeros", "config": {}}, "kernel_regularizer": null, "bias_regularizer": null, "activity_regularizer": null, "kernel_constraint": null, "bias_constraint": null}, "name": "conv2d_880", "inbound_nodes": [[["block8_7_ac", 0, 0, {}]]]}, {"class_name": "BatchNormalization", "config": {"name": "batch_normalization_896", "trainable": true, "dtype": "float32", "axis": [3], "momentum": 0.99, "epsilon": 0.001, "center": true, "scale": false, "beta_initializer": {"class_name": "Zeros", "config": {}}, "gamma_initializer": {"class_name": "Ones", "config": {}}, "moving_mean_initializer": {"class_name": "Zeros", "config": {}}, "moving_variance_initializer": {"class_name": "Ones", "config": {}}, "beta_regularizer": null, "gamma_regularizer": null, "beta_constraint": null, "gamma_constraint": null}, "name": "batch_normalization_896", "inbound_nodes": [[["conv2d_880", 0, 0, {}]]]}, {"class_name": "Activation", "config": {"name": "activation_880", "trainable": true, "dtype": "float32", "activation": "relu"}, "name": "activation_880", "inbound_nodes": [[["batch_normalization_896", 0, 0, {}]]]}, {"class_name": "Conv2D", "config": {"name": "conv2d_881", "trainable": true, "dtype": "float32", "filters": 224, "kernel_size": [1, 3], "strides": [1, 1], "padding": "same", "data_format": "channels_last", "dilation_rate": [1, 1], "activation": "linear", "use_bias": false, "kernel_initializer": {"class_name": "GlorotUniform", "config": {"seed": null}}, "bias_initializer": {"class_name": "Zeros", "config": {}}, "kernel_regularizer": null, "bias_regularizer": null, "activity_regularizer": null, "kernel_constraint": null, "bias_constraint": null}, "name": "conv2d_881", "inbound_nodes": [[["activation_880", 0, 0, {}]]]}, {"class_name": "BatchNormalization", "config": {"name": "batch_normalization_897", "trainable": true, "dtype": "float32", "axis": [3], "momentum": 0.99, "epsilon": 0.001, "center": true, "scale": false, "beta_initializer": {"class_name": "Zeros", "config": {}}, "gamma_initializer": {"class_name": "Ones", "config": {}}, "moving_mean_initializer": {"class_name": "Zeros", "config": {}}, "moving_variance_initializer": {"class_name": "Ones", "config": {}}, "beta_regularizer": null, "gamma_regularizer": null, "beta_constraint": null, "gamma_constraint": null}, "name": "batch_normalization_897", "inbound_nodes": [[["conv2d_881", 0, 0, {}]]]}, {"class_name": "Activation", "config": {"name": "activation_881", "trainable": true, "dtype": "float32", "activation": "relu"}, "name": "activation_881", "inbound_nodes": [[["batch_normalization_897", 0, 0, {}]]]}, {"class_name": "Conv2D", "config": {"name": "conv2d_879", "trainable": true, "dtype": "float32", "filters": 192, "kernel_size": [1, 1], "strides": [1, 1], "padding": "same", "data_format": "channels_last", "dilation_rate": [1, 1], "activation": "linear", "use_bias": false, "kernel_initializer": {"class_name": "GlorotUniform", "config": {"seed": null}}, "bias_initializer": {"class_name": "Zeros", "config": {}}, "kernel_regularizer": null, "bias_regularizer": null, "activity_regularizer": null, "kernel_constraint": null, "bias_constraint": null}, "name": "conv2d_879", "inbound_nodes": [[["block8_7_ac", 0, 0, {}]]]}, {"class_name": "Conv2D", "config": {"name": "conv2d_882", "trainable": true, "dtype": "float32", "filters": 256, "kernel_size": [3, 1], "strides": [1, 1], "padding": "same", "data_format": "channels_last", "dilation_rate": [1, 1], "activation": "linear", "use_bias": false, "kernel_initializer": {"class_name": "GlorotUniform", "config": {"seed": null}}, "bias_initializer": {"class_name": "Zeros", "config": {}}, "kernel_regularizer": null, "bias_regularizer": null, "activity_regularizer": null, "kernel_constraint": null, "bias_constraint": null}, "name": "conv2d_882", "inbound_nodes": [[["activation_881", 0, 0, {}]]]}, {"class_name": "BatchNormalization", "config": {"name": "batch_normalization_895", "trainable": true, "dtype": "float32", "axis": [3], "momentum": 0.99, "epsilon": 0.001, "center": true, "scale": false, "beta_initializer": {"class_name": "Zeros", "config": {}}, "gamma_initializer": {"class_name": "Ones", "config": {}}, "moving_mean_initializer": {"class_name": "Zeros", "config": {}}, "moving_variance_initializer": {"class_name": "Ones", "config": {}}, "beta_regularizer": null, "gamma_regularizer": null, "beta_constraint": null, "gamma_constraint": null}, "name": "batch_normalization_895", "inbound_nodes": [[["conv2d_879", 0, 0, {}]]]}, {"class_name": "BatchNormalization", "config": {"name": "batch_normalization_898", "trainable": true, "dtype": "float32", "axis": [3], "momentum": 0.99, "epsilon": 0.001, "center": true, "scale": false, "beta_initializer": {"class_name": "Zeros", "config": {}}, "gamma_initializer": {"class_name": "Ones", "config": {}}, "moving_mean_initializer": {"class_name": "Zeros", "config": {}}, "moving_variance_initializer": {"class_name": "Ones", "config": {}}, "beta_regularizer": null, "gamma_regularizer": null, "beta_constraint": null, "gamma_constraint": null}, "name": "batch_normalization_898", "inbound_nodes": [[["conv2d_882", 0, 0, {}]]]}, {"class_name": "Activation", "config": {"name": "activation_879", "trainable": true, "dtype": "float32", "activation": "relu"}, "name": "activation_879", "inbound_nodes": [[["batch_normalization_895", 0, 0, {}]]]}, {"class_name": "Activation", "config": {"name": "activation_882", "trainable": true, "dtype": "float32", "activation": "relu"}, "name": "activation_882", "inbound_nodes": [[["batch_normalization_898", 0, 0, {}]]]}, {"class_name": "Concatenate", "config": {"name": "block8_8_mixed", "trainable": true, "dtype": "float32", "axis": 3}, "name": "block8_8_mixed", "inbound_nodes": [[["activation_879", 0, 0, {}], ["activation_882", 0, 0, {}]]]}, {"class_name": "Conv2D", "config": {"name": "block8_8_conv", "trainable": true, "dtype": "float32", "filters": 2080, "kernel_size": [1, 1], "strides": [1, 1], "padding": "same", "data_format": "channels_last", "dilation_rate": [1, 1], "activation": "linear", "use_bias": true, "kernel_initializer": {"class_name": "GlorotUniform", "config": {"seed": null}}, "bias_initializer": {"class_name": "Zeros", "config": {}}, "kernel_regularizer": null, "bias_regularizer": null, "activity_regularizer": null, "kernel_constraint": null, "bias_constraint": null}, "name": "block8_8_conv", "inbound_nodes": [[["block8_8_mixed", 0, 0, {}]]]}, {"class_name": "Lambda", "config": {"name": "block8_8", "trainable": true, "dtype": "float32", "function": ["4wIAAAAAAAAAAgAAAAMAAABTAAAAcxQAAAB8AGQBGQB8AGQCGQB8ARQAFwBTACkDTukAAAAA6QEA\nAACpACkC2gZpbnB1dHPaBXNjYWxlcgMAAAByAwAAAPpkL2hvbWUvZmlsZnkvYW5hY29uZGEzL2Vu\ndnMvb3dnL2xpYi9weXRob24zLjcvc2l0ZS1wYWNrYWdlcy9rZXJhc19hcHBsaWNhdGlvbnMvaW5j\nZXB0aW9uX3Jlc25ldF92Mi5wedoIPGxhbWJkYT6oAAAA8wAAAAA=\n", null, null], "function_type": "lambda", "module": "keras_applications.inception_resnet_v2", "output_shape": [2, 2, 2080], "output_shape_type": "raw", "output_shape_module": null, "arguments": {"scale": 0.2}}, "name": "block8_8", "inbound_nodes": [[["block8_7_ac", 0, 0, {}], ["block8_8_conv", 0, 0, {}]]]}, {"class_name": "Activation", "config": {"name": "block8_8_ac", "trainable": true, "dtype": "float32", "activation": "relu"}, "name": "block8_8_ac", "inbound_nodes": [[["block8_8", 0, 0, {}]]]}, {"class_name": "Conv2D", "config": {"name": "conv2d_884", "trainable": true, "dtype": "float32", "filters": 192, "kernel_size": [1, 1], "strides": [1, 1], "padding": "same", "data_format": "channels_last", "dilation_rate": [1, 1], "activation": "linear", "use_bias": false, "kernel_initializer": {"class_name": "GlorotUniform", "config": {"seed": null}}, "bias_initializer": {"class_name": "Zeros", "config": {}}, "kernel_regularizer": null, "bias_regularizer": null, "activity_regularizer": null, "kernel_constraint": null, "bias_constraint": null}, "name": "conv2d_884", "inbound_nodes": [[["block8_8_ac", 0, 0, {}]]]}, {"class_name": "BatchNormalization", "config": {"name": "batch_normalization_900", "trainable": true, "dtype": "float32", "axis": [3], "momentum": 0.99, "epsilon": 0.001, "center": true, "scale": false, "beta_initializer": {"class_name": "Zeros", "config": {}}, "gamma_initializer": {"class_name": "Ones", "config": {}}, "moving_mean_initializer": {"class_name": "Zeros", "config": {}}, "moving_variance_initializer": {"class_name": "Ones", "config": {}}, "beta_regularizer": null, "gamma_regularizer": null, "beta_constraint": null, "gamma_constraint": null}, "name": "batch_normalization_900", "inbound_nodes": [[["conv2d_884", 0, 0, {}]]]}, {"class_name": "Activation", "config": {"name": "activation_884", "trainable": true, "dtype": "float32", "activation": "relu"}, "name": "activation_884", "inbound_nodes": [[["batch_normalization_900", 0, 0, {}]]]}, {"class_name": "Conv2D", "config": {"name": "conv2d_885", "trainable": true, "dtype": "float32", "filters": 224, "kernel_size": [1, 3], "strides": [1, 1], "padding": "same", "data_format": "channels_last", "dilation_rate": [1, 1], "activation": "linear", "use_bias": false, "kernel_initializer": {"class_name": "GlorotUniform", "config": {"seed": null}}, "bias_initializer": {"class_name": "Zeros", "config": {}}, "kernel_regularizer": null, "bias_regularizer": null, "activity_regularizer": null, "kernel_constraint": null, "bias_constraint": null}, "name": "conv2d_885", "inbound_nodes": [[["activation_884", 0, 0, {}]]]}, {"class_name": "BatchNormalization", "config": {"name": "batch_normalization_901", "trainable": true, "dtype": "float32", "axis": [3], "momentum": 0.99, "epsilon": 0.001, "center": true, "scale": false, "beta_initializer": {"class_name": "Zeros", "config": {}}, "gamma_initializer": {"class_name": "Ones", "config": {}}, "moving_mean_initializer": {"class_name": "Zeros", "config": {}}, "moving_variance_initializer": {"class_name": "Ones", "config": {}}, "beta_regularizer": null, "gamma_regularizer": null, "beta_constraint": null, "gamma_constraint": null}, "name": "batch_normalization_901", "inbound_nodes": [[["conv2d_885", 0, 0, {}]]]}, {"class_name": "Activation", "config": {"name": "activation_885", "trainable": true, "dtype": "float32", "activation": "relu"}, "name": "activation_885", "inbound_nodes": [[["batch_normalization_901", 0, 0, {}]]]}, {"class_name": "Conv2D", "config": {"name": "conv2d_883", "trainable": true, "dtype": "float32", "filters": 192, "kernel_size": [1, 1], "strides": [1, 1], "padding": "same", "data_format": "channels_last", "dilation_rate": [1, 1], "activation": "linear", "use_bias": false, "kernel_initializer": {"class_name": "GlorotUniform", "config": {"seed": null}}, "bias_initializer": {"class_name": "Zeros", "config": {}}, "kernel_regularizer": null, "bias_regularizer": null, "activity_regularizer": null, "kernel_constraint": null, "bias_constraint": null}, "name": "conv2d_883", "inbound_nodes": [[["block8_8_ac", 0, 0, {}]]]}, {"class_name": "Conv2D", "config": {"name": "conv2d_886", "trainable": true, "dtype": "float32", "filters": 256, "kernel_size": [3, 1], "strides": [1, 1], "padding": "same", "data_format": "channels_last", "dilation_rate": [1, 1], "activation": "linear", "use_bias": false, "kernel_initializer": {"class_name": "GlorotUniform", "config": {"seed": null}}, "bias_initializer": {"class_name": "Zeros", "config": {}}, "kernel_regularizer": null, "bias_regularizer": null, "activity_regularizer": null, "kernel_constraint": null, "bias_constraint": null}, "name": "conv2d_886", "inbound_nodes": [[["activation_885", 0, 0, {}]]]}, {"class_name": "BatchNormalization", "config": {"name": "batch_normalization_899", "trainable": true, "dtype": "float32", "axis": [3], "momentum": 0.99, "epsilon": 0.001, "center": true, "scale": false, "beta_initializer": {"class_name": "Zeros", "config": {}}, "gamma_initializer": {"class_name": "Ones", "config": {}}, "moving_mean_initializer": {"class_name": "Zeros", "config": {}}, "moving_variance_initializer": {"class_name": "Ones", "config": {}}, "beta_regularizer": null, "gamma_regularizer": null, "beta_constraint": null, "gamma_constraint": null}, "name": "batch_normalization_899", "inbound_nodes": [[["conv2d_883", 0, 0, {}]]]}, {"class_name": "BatchNormalization", "config": {"name": "batch_normalization_902", "trainable": true, "dtype": "float32", "axis": [3], "momentum": 0.99, "epsilon": 0.001, "center": true, "scale": false, "beta_initializer": {"class_name": "Zeros", "config": {}}, "gamma_initializer": {"class_name": "Ones", "config": {}}, "moving_mean_initializer": {"class_name": "Zeros", "config": {}}, "moving_variance_initializer": {"class_name": "Ones", "config": {}}, "beta_regularizer": null, "gamma_regularizer": null, "beta_constraint": null, "gamma_constraint": null}, "name": "batch_normalization_902", "inbound_nodes": [[["conv2d_886", 0, 0, {}]]]}, {"class_name": "Activation", "config": {"name": "activation_883", "trainable": true, "dtype": "float32", "activation": "relu"}, "name": "activation_883", "inbound_nodes": [[["batch_normalization_899", 0, 0, {}]]]}, {"class_name": "Activation", "config": {"name": "activation_886", "trainable": true, "dtype": "float32", "activation": "relu"}, "name": "activation_886", "inbound_nodes": [[["batch_normalization_902", 0, 0, {}]]]}, {"class_name": "Concatenate", "config": {"name": "block8_9_mixed", "trainable": true, "dtype": "float32", "axis": 3}, "name": "block8_9_mixed", "inbound_nodes": [[["activation_883", 0, 0, {}], ["activation_886", 0, 0, {}]]]}, {"class_name": "Conv2D", "config": {"name": "block8_9_conv", "trainable": true, "dtype": "float32", "filters": 2080, "kernel_size": [1, 1], "strides": [1, 1], "padding": "same", "data_format": "channels_last", "dilation_rate": [1, 1], "activation": "linear", "use_bias": true, "kernel_initializer": {"class_name": "GlorotUniform", "config": {"seed": null}}, "bias_initializer": {"class_name": "Zeros", "config": {}}, "kernel_regularizer": null, "bias_regularizer": null, "activity_regularizer": null, "kernel_constraint": null, "bias_constraint": null}, "name": "block8_9_conv", "inbound_nodes": [[["block8_9_mixed", 0, 0, {}]]]}, {"class_name": "Lambda", "config": {"name": "block8_9", "trainable": true, "dtype": "float32", "function": ["4wIAAAAAAAAAAgAAAAMAAABTAAAAcxQAAAB8AGQBGQB8AGQCGQB8ARQAFwBTACkDTukAAAAA6QEA\nAACpACkC2gZpbnB1dHPaBXNjYWxlcgMAAAByAwAAAPpkL2hvbWUvZmlsZnkvYW5hY29uZGEzL2Vu\ndnMvb3dnL2xpYi9weXRob24zLjcvc2l0ZS1wYWNrYWdlcy9rZXJhc19hcHBsaWNhdGlvbnMvaW5j\nZXB0aW9uX3Jlc25ldF92Mi5wedoIPGxhbWJkYT6oAAAA8wAAAAA=\n", null, null], "function_type": "lambda", "module": "keras_applications.inception_resnet_v2", "output_shape": [2, 2, 2080], "output_shape_type": "raw", "output_shape_module": null, "arguments": {"scale": 0.2}}, "name": "block8_9", "inbound_nodes": [[["block8_8_ac", 0, 0, {}], ["block8_9_conv", 0, 0, {}]]]}, {"class_name": "Activation", "config": {"name": "block8_9_ac", "trainable": true, "dtype": "float32", "activation": "relu"}, "name": "block8_9_ac", "inbound_nodes": [[["block8_9", 0, 0, {}]]]}, {"class_name": "Conv2D", "config": {"name": "conv2d_888", "trainable": true, "dtype": "float32", "filters": 192, "kernel_size": [1, 1], "strides": [1, 1], "padding": "same", "data_format": "channels_last", "dilation_rate": [1, 1], "activation": "linear", "use_bias": false, "kernel_initializer": {"class_name": "GlorotUniform", "config": {"seed": null}}, "bias_initializer": {"class_name": "Zeros", "config": {}}, "kernel_regularizer": null, "bias_regularizer": null, "activity_regularizer": null, "kernel_constraint": null, "bias_constraint": null}, "name": "conv2d_888", "inbound_nodes": [[["block8_9_ac", 0, 0, {}]]]}, {"class_name": "BatchNormalization", "config": {"name": "batch_normalization_904", "trainable": true, "dtype": "float32", "axis": [3], "momentum": 0.99, "epsilon": 0.001, "center": true, "scale": false, "beta_initializer": {"class_name": "Zeros", "config": {}}, "gamma_initializer": {"class_name": "Ones", "config": {}}, "moving_mean_initializer": {"class_name": "Zeros", "config": {}}, "moving_variance_initializer": {"class_name": "Ones", "config": {}}, "beta_regularizer": null, "gamma_regularizer": null, "beta_constraint": null, "gamma_constraint": null}, "name": "batch_normalization_904", "inbound_nodes": [[["conv2d_888", 0, 0, {}]]]}, {"class_name": "Activation", "config": {"name": "activation_888", "trainable": true, "dtype": "float32", "activation": "relu"}, "name": "activation_888", "inbound_nodes": [[["batch_normalization_904", 0, 0, {}]]]}, {"class_name": "Conv2D", "config": {"name": "conv2d_889", "trainable": true, "dtype": "float32", "filters": 224, "kernel_size": [1, 3], "strides": [1, 1], "padding": "same", "data_format": "channels_last", "dilation_rate": [1, 1], "activation": "linear", "use_bias": false, "kernel_initializer": {"class_name": "GlorotUniform", "config": {"seed": null}}, "bias_initializer": {"class_name": "Zeros", "config": {}}, "kernel_regularizer": null, "bias_regularizer": null, "activity_regularizer": null, "kernel_constraint": null, "bias_constraint": null}, "name": "conv2d_889", "inbound_nodes": [[["activation_888", 0, 0, {}]]]}, {"class_name": "BatchNormalization", "config": {"name": "batch_normalization_905", "trainable": true, "dtype": "float32", "axis": [3], "momentum": 0.99, "epsilon": 0.001, "center": true, "scale": false, "beta_initializer": {"class_name": "Zeros", "config": {}}, "gamma_initializer": {"class_name": "Ones", "config": {}}, "moving_mean_initializer": {"class_name": "Zeros", "config": {}}, "moving_variance_initializer": {"class_name": "Ones", "config": {}}, "beta_regularizer": null, "gamma_regularizer": null, "beta_constraint": null, "gamma_constraint": null}, "name": "batch_normalization_905", "inbound_nodes": [[["conv2d_889", 0, 0, {}]]]}, {"class_name": "Activation", "config": {"name": "activation_889", "trainable": true, "dtype": "float32", "activation": "relu"}, "name": "activation_889", "inbound_nodes": [[["batch_normalization_905", 0, 0, {}]]]}, {"class_name": "Conv2D", "config": {"name": "conv2d_887", "trainable": true, "dtype": "float32", "filters": 192, "kernel_size": [1, 1], "strides": [1, 1], "padding": "same", "data_format": "channels_last", "dilation_rate": [1, 1], "activation": "linear", "use_bias": false, "kernel_initializer": {"class_name": "GlorotUniform", "config": {"seed": null}}, "bias_initializer": {"class_name": "Zeros", "config": {}}, "kernel_regularizer": null, "bias_regularizer": null, "activity_regularizer": null, "kernel_constraint": null, "bias_constraint": null}, "name": "conv2d_887", "inbound_nodes": [[["block8_9_ac", 0, 0, {}]]]}, {"class_name": "Conv2D", "config": {"name": "conv2d_890", "trainable": true, "dtype": "float32", "filters": 256, "kernel_size": [3, 1], "strides": [1, 1], "padding": "same", "data_format": "channels_last", "dilation_rate": [1, 1], "activation": "linear", "use_bias": false, "kernel_initializer": {"class_name": "GlorotUniform", "config": {"seed": null}}, "bias_initializer": {"class_name": "Zeros", "config": {}}, "kernel_regularizer": null, "bias_regularizer": null, "activity_regularizer": null, "kernel_constraint": null, "bias_constraint": null}, "name": "conv2d_890", "inbound_nodes": [[["activation_889", 0, 0, {}]]]}, {"class_name": "BatchNormalization", "config": {"name": "batch_normalization_903", "trainable": true, "dtype": "float32", "axis": [3], "momentum": 0.99, "epsilon": 0.001, "center": true, "scale": false, "beta_initializer": {"class_name": "Zeros", "config": {}}, "gamma_initializer": {"class_name": "Ones", "config": {}}, "moving_mean_initializer": {"class_name": "Zeros", "config": {}}, "moving_variance_initializer": {"class_name": "Ones", "config": {}}, "beta_regularizer": null, "gamma_regularizer": null, "beta_constraint": null, "gamma_constraint": null}, "name": "batch_normalization_903", "inbound_nodes": [[["conv2d_887", 0, 0, {}]]]}, {"class_name": "BatchNormalization", "config": {"name": "batch_normalization_906", "trainable": true, "dtype": "float32", "axis": [3], "momentum": 0.99, "epsilon": 0.001, "center": true, "scale": false, "beta_initializer": {"class_name": "Zeros", "config": {}}, "gamma_initializer": {"class_name": "Ones", "config": {}}, "moving_mean_initializer": {"class_name": "Zeros", "config": {}}, "moving_variance_initializer": {"class_name": "Ones", "config": {}}, "beta_regularizer": null, "gamma_regularizer": null, "beta_constraint": null, "gamma_constraint": null}, "name": "batch_normalization_906", "inbound_nodes": [[["conv2d_890", 0, 0, {}]]]}, {"class_name": "Activation", "config": {"name": "activation_887", "trainable": true, "dtype": "float32", "activation": "relu"}, "name": "activation_887", "inbound_nodes": [[["batch_normalization_903", 0, 0, {}]]]}, {"class_name": "Activation", "config": {"name": "activation_890", "trainable": true, "dtype": "float32", "activation": "relu"}, "name": "activation_890", "inbound_nodes": [[["batch_normalization_906", 0, 0, {}]]]}, {"class_name": "Concatenate", "config": {"name": "block8_10_mixed", "trainable": true, "dtype": "float32", "axis": 3}, "name": "block8_10_mixed", "inbound_nodes": [[["activation_887", 0, 0, {}], ["activation_890", 0, 0, {}]]]}, {"class_name": "Conv2D", "config": {"name": "block8_10_conv", "trainable": true, "dtype": "float32", "filters": 2080, "kernel_size": [1, 1], "strides": [1, 1], "padding": "same", "data_format": "channels_last", "dilation_rate": [1, 1], "activation": "linear", "use_bias": true, "kernel_initializer": {"class_name": "GlorotUniform", "config": {"seed": null}}, "bias_initializer": {"class_name": "Zeros", "config": {}}, "kernel_regularizer": null, "bias_regularizer": null, "activity_regularizer": null, "kernel_constraint": null, "bias_constraint": null}, "name": "block8_10_conv", "inbound_nodes": [[["block8_10_mixed", 0, 0, {}]]]}, {"class_name": "Lambda", "config": {"name": "block8_10", "trainable": true, "dtype": "float32", "function": ["4wIAAAAAAAAAAgAAAAMAAABTAAAAcxQAAAB8AGQBGQB8AGQCGQB8ARQAFwBTACkDTukAAAAA6QEA\nAACpACkC2gZpbnB1dHPaBXNjYWxlcgMAAAByAwAAAPpkL2hvbWUvZmlsZnkvYW5hY29uZGEzL2Vu\ndnMvb3dnL2xpYi9weXRob24zLjcvc2l0ZS1wYWNrYWdlcy9rZXJhc19hcHBsaWNhdGlvbnMvaW5j\nZXB0aW9uX3Jlc25ldF92Mi5wedoIPGxhbWJkYT6oAAAA8wAAAAA=\n", null, null], "function_type": "lambda", "module": "keras_applications.inception_resnet_v2", "output_shape": [2, 2, 2080], "output_shape_type": "raw", "output_shape_module": null, "arguments": {"scale": 1.0}}, "name": "block8_10", "inbound_nodes": [[["block8_9_ac", 0, 0, {}], ["block8_10_conv", 0, 0, {}]]]}, {"class_name": "Conv2D", "config": {"name": "conv_7b", "trainable": true, "dtype": "float32", "filters": 1536, "kernel_size": [1, 1], "strides": [1, 1], "padding": "same", "data_format": "channels_last", "dilation_rate": [1, 1], "activation": "linear", "use_bias": false, "kernel_initializer": {"class_name": "GlorotUniform", "config": {"seed": null}}, "bias_initializer": {"class_name": "Zeros", "config": {}}, "kernel_regularizer": null, "bias_regularizer": null, "activity_regularizer": null, "kernel_constraint": null, "bias_constraint": null}, "name": "conv_7b", "inbound_nodes": [[["block8_10", 0, 0, {}]]]}, {"class_name": "BatchNormalization", "config": {"name": "conv_7b_bn", "trainable": true, "dtype": "float32", "axis": [3], "momentum": 0.99, "epsilon": 0.001, "center": true, "scale": false, "beta_initializer": {"class_name": "Zeros", "config": {}}, "gamma_initializer": {"class_name": "Ones", "config": {}}, "moving_mean_initializer": {"class_name": "Zeros", "config": {}}, "moving_variance_initializer": {"class_name": "Ones", "config": {}}, "beta_regularizer": null, "gamma_regularizer": null, "beta_constraint": null, "gamma_constraint": null}, "name": "conv_7b_bn", "inbound_nodes": [[["conv_7b", 0, 0, {}]]]}, {"class_name": "Activation", "config": {"name": "conv_7b_ac", "trainable": true, "dtype": "float32", "activation": "relu"}, "name": "conv_7b_ac", "inbound_nodes": [[["conv_7b_bn", 0, 0, {}]]]}], "input_layers": [["input_9", 0, 0]], "output_layers": [["conv_7b_ac", 0, 0]]}}, {"class_name": "BatchNormalization", "config": {"name": "batch_normalization_908", "trainable": true, "dtype": "float32", "axis": [3], "momentum": 0.99, "epsilon": 0.001, "center": true, "scale": true, "beta_initializer": {"class_name": "Zeros", "config": {}}, "gamma_initializer": {"class_name": "Ones", "config": {}}, "moving_mean_initializer": {"class_name": "Zeros", "config": {}}, "moving_variance_initializer": {"class_name": "Ones", "config": {}}, "beta_regularizer": null, "gamma_regularizer": null, "beta_constraint": null, "gamma_constraint": null}}, {"class_name": "GlobalAveragePooling2D", "config": {"name": "global_average_pooling2d_8", "trainable": true, "dtype": "float32", "data_format": "channels_last"}}, {"class_name": "Dropout", "config": {"name": "dropout_8", "trainable": true, "dtype": "float32", "rate": 0.5, "noise_shape": null, "seed": null}}, {"class_name": "Dense", "config": {"name": "dense_8", "trainable": true, "dtype": "float32", "units": 1, "activation": "linear", "use_bias": true, "kernel_initializer": {"class_name": "GlorotUniform", "config": {"seed": null}}, "bias_initializer": {"class_name": "Zeros", "config": {}}, "kernel_regularizer": null, "bias_regularizer": null, "activity_regularizer": null, "kernel_constraint": null, "bias_constraint": null}}]}, "keras_version": "2.2.4-tf", "backend": "tensorflow"}