{"class_name": "Sequential", "config": {"name": "sequential_1", "layers": [{"class_name": "BatchNormalization", "config": {"name": "batch_normalization_190", "trainable": true, "batch_input_shape": [null, 128, 128, 1], "dtype": "float32", "axis": [3], "momentum": 0.99, "epsilon": 0.001, "center": true, "scale": true, "beta_initializer": {"class_name": "Zeros", "config": {}}, "gamma_initializer": {"class_name": "Ones", "config": {}}, "moving_mean_initializer": {"class_name": "Zeros", "config": {}}, "moving_variance_initializer": {"class_name": "Ones", "config": {}}, "beta_regularizer": null, "gamma_regularizer": null, "beta_constraint": null, "gamma_constraint": null}}, {"class_name": "Model", "config": {"name": "inception_v3", "layers": [{"class_name": "InputLayer", "config": {"batch_input_shape": [null, 128, 128, 1], "dtype": "float32", "sparse": false, "name": "input_2"}, "name": "input_2", "inbound_nodes": []}, {"class_name": "Conv2D", "config": {"name": "conv2d_94", "trainable": true, "dtype": "float32", "filters": 32, "kernel_size": [3, 3], "strides": [2, 2], "padding": "valid", "data_format": "channels_last", "dilation_rate": [1, 1], "activation": "linear", "use_bias": false, "kernel_initializer": {"class_name": "GlorotUniform", "config": {"seed": null}}, "bias_initializer": {"class_name": "Zeros", "config": {}}, "kernel_regularizer": null, "bias_regularizer": null, "activity_regularizer": null, "kernel_constraint": null, "bias_constraint": null}, "name": "conv2d_94", "inbound_nodes": [[["input_2", 0, 0, {}]]]}, {"class_name": "BatchNormalization", "config": {"name": "batch_normalization_96", "trainable": true, "dtype": "float32", "axis": [3], "momentum": 0.99, "epsilon": 0.001, "center": true, "scale": false, "beta_initializer": {"class_name": "Zeros", "config": {}}, "gamma_initializer": {"class_name": "Ones", "config": {}}, "moving_mean_initializer": {"class_name": "Zeros", "config": {}}, "moving_variance_initializer": {"class_name": "Ones", "config": {}}, "beta_regularizer": null, "gamma_regularizer": null, "beta_constraint": null, "gamma_constraint": null}, "name": "batch_normalization_96", "inbound_nodes": [[["conv2d_94", 0, 0, {}]]]}, {"class_name": "Activation", "config": {"name": "activation_94", "trainable": true, "dtype": "float32", "activation": "relu"}, "name": "activation_94", "inbound_nodes": [[["batch_normalization_96", 0, 0, {}]]]}, {"class_name": "Conv2D", "config": {"name": "conv2d_95", "trainable": true, "dtype": "float32", "filters": 32, "kernel_size": [3, 3], "strides": [1, 1], "padding": "valid", "data_format": "channels_last", "dilation_rate": [1, 1], "activation": "linear", "use_bias": false, "kernel_initializer": {"class_name": "GlorotUniform", "config": {"seed": null}}, "bias_initializer": {"class_name": "Zeros", "config": {}}, "kernel_regularizer": null, "bias_regularizer": null, "activity_regularizer": null, "kernel_constraint": null, "bias_constraint": null}, "name": "conv2d_95", "inbound_nodes": [[["activation_94", 0, 0, {}]]]}, {"class_name": "BatchNormalization", "config": {"name": "batch_normalization_97", "trainable": true, "dtype": "float32", "axis": [3], "momentum": 0.99, "epsilon": 0.001, "center": true, "scale": false, "beta_initializer": {"class_name": "Zeros", "config": {}}, "gamma_initializer": {"class_name": "Ones", "config": {}}, "moving_mean_initializer": {"class_name": "Zeros", "config": {}}, "moving_variance_initializer": {"class_name": "Ones", "config": {}}, "beta_regularizer": null, "gamma_regularizer": null, "beta_constraint": null, "gamma_constraint": null}, "name": "batch_normalization_97", "inbound_nodes": [[["conv2d_95", 0, 0, {}]]]}, {"class_name": "Activation", "config": {"name": "activation_95", "trainable": true, "dtype": "float32", "activation": "relu"}, "name": "activation_95", "inbound_nodes": [[["batch_normalization_97", 0, 0, {}]]]}, {"class_name": "Conv2D", "config": {"name": "conv2d_96", "trainable": true, "dtype": "float32", "filters": 64, "kernel_size": [3, 3], "strides": [1, 1], "padding": "same", "data_format": "channels_last", "dilation_rate": [1, 1], "activation": "linear", "use_bias": false, "kernel_initializer": {"class_name": "GlorotUniform", "config": {"seed": null}}, "bias_initializer": {"class_name": "Zeros", "config": {}}, "kernel_regularizer": null, "bias_regularizer": null, "activity_regularizer": null, "kernel_constraint": null, "bias_constraint": null}, "name": "conv2d_96", "inbound_nodes": [[["activation_95", 0, 0, {}]]]}, {"class_name": "BatchNormalization", "config": {"name": "batch_normalization_98", "trainable": true, "dtype": "float32", "axis": [3], "momentum": 0.99, "epsilon": 0.001, "center": true, "scale": false, "beta_initializer": {"class_name": "Zeros", "config": {}}, "gamma_initializer": {"class_name": "Ones", "config": {}}, "moving_mean_initializer": {"class_name": "Zeros", "config": {}}, "moving_variance_initializer": {"class_name": "Ones", "config": {}}, "beta_regularizer": null, "gamma_regularizer": null, "beta_constraint": null, "gamma_constraint": null}, "name": "batch_normalization_98", "inbound_nodes": [[["conv2d_96", 0, 0, {}]]]}, {"class_name": "Activation", "config": {"name": "activation_96", "trainable": true, "dtype": "float32", "activation": "relu"}, "name": "activation_96", "inbound_nodes": [[["batch_normalization_98", 0, 0, {}]]]}, {"class_name": "MaxPooling2D", "config": {"name": "max_pooling2d_4", "trainable": true, "dtype": "float32", "pool_size": [3, 3], "padding": "valid", "strides": [2, 2], "data_format": "channels_last"}, "name": "max_pooling2d_4", "inbound_nodes": [[["activation_96", 0, 0, {}]]]}, {"class_name": "Conv2D", "config": {"name": "conv2d_97", "trainable": true, "dtype": "float32", "filters": 80, "kernel_size": [1, 1], "strides": [1, 1], "padding": "valid", "data_format": "channels_last", "dilation_rate": [1, 1], "activation": "linear", "use_bias": false, "kernel_initializer": {"class_name": "GlorotUniform", "config": {"seed": null}}, "bias_initializer": {"class_name": "Zeros", "config": {}}, "kernel_regularizer": null, "bias_regularizer": null, "activity_regularizer": null, "kernel_constraint": null, "bias_constraint": null}, "name": "conv2d_97", "inbound_nodes": [[["max_pooling2d_4", 0, 0, {}]]]}, {"class_name": "BatchNormalization", "config": {"name": "batch_normalization_99", "trainable": true, "dtype": "float32", "axis": [3], "momentum": 0.99, "epsilon": 0.001, "center": true, "scale": false, "beta_initializer": {"class_name": "Zeros", "config": {}}, "gamma_initializer": {"class_name": "Ones", "config": {}}, "moving_mean_initializer": {"class_name": "Zeros", "config": {}}, "moving_variance_initializer": {"class_name": "Ones", "config": {}}, "beta_regularizer": null, "gamma_regularizer": null, "beta_constraint": null, "gamma_constraint": null}, "name": "batch_normalization_99", "inbound_nodes": [[["conv2d_97", 0, 0, {}]]]}, {"class_name": "Activation", "config": {"name": "activation_97", "trainable": true, "dtype": "float32", "activation": "relu"}, "name": "activation_97", "inbound_nodes": [[["batch_normalization_99", 0, 0, {}]]]}, {"class_name": "Conv2D", "config": {"name": "conv2d_98", "trainable": true, "dtype": "float32", "filters": 192, "kernel_size": [3, 3], "strides": [1, 1], "padding": "valid", "data_format": "channels_last", "dilation_rate": [1, 1], "activation": "linear", "use_bias": false, "kernel_initializer": {"class_name": "GlorotUniform", "config": {"seed": null}}, "bias_initializer": {"class_name": "Zeros", "config": {}}, "kernel_regularizer": null, "bias_regularizer": null, "activity_regularizer": null, "kernel_constraint": null, "bias_constraint": null}, "name": "conv2d_98", "inbound_nodes": [[["activation_97", 0, 0, {}]]]}, {"class_name": "BatchNormalization", "config": {"name": "batch_normalization_100", "trainable": true, "dtype": "float32", "axis": [3], "momentum": 0.99, "epsilon": 0.001, "center": true, "scale": false, "beta_initializer": {"class_name": "Zeros", "config": {}}, "gamma_initializer": {"class_name": "Ones", "config": {}}, "moving_mean_initializer": {"class_name": "Zeros", "config": {}}, "moving_variance_initializer": {"class_name": "Ones", "config": {}}, "beta_regularizer": null, "gamma_regularizer": null, "beta_constraint": null, "gamma_constraint": null}, "name": "batch_normalization_100", "inbound_nodes": [[["conv2d_98", 0, 0, {}]]]}, {"class_name": "Activation", "config": {"name": "activation_98", "trainable": true, "dtype": "float32", "activation": "relu"}, "name": "activation_98", "inbound_nodes": [[["batch_normalization_100", 0, 0, {}]]]}, {"class_name": "MaxPooling2D", "config": {"name": "max_pooling2d_5", "trainable": true, "dtype": "float32", "pool_size": [3, 3], "padding": "valid", "strides": [2, 2], "data_format": "channels_last"}, "name": "max_pooling2d_5", "inbound_nodes": [[["activation_98", 0, 0, {}]]]}, {"class_name": "Conv2D", "config": {"name": "conv2d_102", "trainable": true, "dtype": "float32", "filters": 64, "kernel_size": [1, 1], "strides": [1, 1], "padding": "same", "data_format": "channels_last", "dilation_rate": [1, 1], "activation": "linear", "use_bias": false, "kernel_initializer": {"class_name": "GlorotUniform", "config": {"seed": null}}, "bias_initializer": {"class_name": "Zeros", "config": {}}, "kernel_regularizer": null, "bias_regularizer": null, "activity_regularizer": null, "kernel_constraint": null, "bias_constraint": null}, "name": "conv2d_102", "inbound_nodes": [[["max_pooling2d_5", 0, 0, {}]]]}, {"class_name": "BatchNormalization", "config": {"name": "batch_normalization_104", "trainable": true, "dtype": "float32", "axis": [3], "momentum": 0.99, "epsilon": 0.001, "center": true, "scale": false, "beta_initializer": {"class_name": "Zeros", "config": {}}, "gamma_initializer": {"class_name": "Ones", "config": {}}, "moving_mean_initializer": {"class_name": "Zeros", "config": {}}, "moving_variance_initializer": {"class_name": "Ones", "config": {}}, "beta_regularizer": null, "gamma_regularizer": null, "beta_constraint": null, "gamma_constraint": null}, "name": "batch_normalization_104", "inbound_nodes": [[["conv2d_102", 0, 0, {}]]]}, {"class_name": "Activation", "config": {"name": "activation_102", "trainable": true, "dtype": "float32", "activation": "relu"}, "name": "activation_102", "inbound_nodes": [[["batch_normalization_104", 0, 0, {}]]]}, {"class_name": "Conv2D", "config": {"name": "conv2d_100", "trainable": true, "dtype": "float32", "filters": 48, "kernel_size": [1, 1], "strides": [1, 1], "padding": "same", "data_format": "channels_last", "dilation_rate": [1, 1], "activation": "linear", "use_bias": false, "kernel_initializer": {"class_name": "GlorotUniform", "config": {"seed": null}}, "bias_initializer": {"class_name": "Zeros", "config": {}}, "kernel_regularizer": null, "bias_regularizer": null, "activity_regularizer": null, "kernel_constraint": null, "bias_constraint": null}, "name": "conv2d_100", "inbound_nodes": [[["max_pooling2d_5", 0, 0, {}]]]}, {"class_name": "Conv2D", "config": {"name": "conv2d_103", "trainable": true, "dtype": "float32", "filters": 96, "kernel_size": [3, 3], "strides": [1, 1], "padding": "same", "data_format": "channels_last", "dilation_rate": [1, 1], "activation": "linear", "use_bias": false, "kernel_initializer": {"class_name": "GlorotUniform", "config": {"seed": null}}, "bias_initializer": {"class_name": "Zeros", "config": {}}, "kernel_regularizer": null, "bias_regularizer": null, "activity_regularizer": null, "kernel_constraint": null, "bias_constraint": null}, "name": "conv2d_103", "inbound_nodes": [[["activation_102", 0, 0, {}]]]}, {"class_name": "BatchNormalization", "config": {"name": "batch_normalization_102", "trainable": true, "dtype": "float32", "axis": [3], "momentum": 0.99, "epsilon": 0.001, "center": true, "scale": false, "beta_initializer": {"class_name": "Zeros", "config": {}}, "gamma_initializer": {"class_name": "Ones", "config": {}}, "moving_mean_initializer": {"class_name": "Zeros", "config": {}}, "moving_variance_initializer": {"class_name": "Ones", "config": {}}, "beta_regularizer": null, "gamma_regularizer": null, "beta_constraint": null, "gamma_constraint": null}, "name": "batch_normalization_102", "inbound_nodes": [[["conv2d_100", 0, 0, {}]]]}, {"class_name": "BatchNormalization", "config": {"name": "batch_normalization_105", "trainable": true, "dtype": "float32", "axis": [3], "momentum": 0.99, "epsilon": 0.001, "center": true, "scale": false, "beta_initializer": {"class_name": "Zeros", "config": {}}, "gamma_initializer": {"class_name": "Ones", "config": {}}, "moving_mean_initializer": {"class_name": "Zeros", "config": {}}, "moving_variance_initializer": {"class_name": "Ones", "config": {}}, "beta_regularizer": null, "gamma_regularizer": null, "beta_constraint": null, "gamma_constraint": null}, "name": "batch_normalization_105", "inbound_nodes": [[["conv2d_103", 0, 0, {}]]]}, {"class_name": "Activation", "config": {"name": "activation_100", "trainable": true, "dtype": "float32", "activation": "relu"}, "name": "activation_100", "inbound_nodes": [[["batch_normalization_102", 0, 0, {}]]]}, {"class_name": "Activation", "config": {"name": "activation_103", "trainable": true, "dtype": "float32", "activation": "relu"}, "name": "activation_103", "inbound_nodes": [[["batch_normalization_105", 0, 0, {}]]]}, {"class_name": "AveragePooling2D", "config": {"name": "average_pooling2d_9", "trainable": true, "dtype": "float32", "pool_size": [3, 3], "padding": "same", "strides": [1, 1], "data_format": "channels_last"}, "name": "average_pooling2d_9", "inbound_nodes": [[["max_pooling2d_5", 0, 0, {}]]]}, {"class_name": "Conv2D", "config": {"name": "conv2d_99", "trainable": true, "dtype": "float32", "filters": 64, "kernel_size": [1, 1], "strides": [1, 1], "padding": "same", "data_format": "channels_last", "dilation_rate": [1, 1], "activation": "linear", "use_bias": false, "kernel_initializer": {"class_name": "GlorotUniform", "config": {"seed": null}}, "bias_initializer": {"class_name": "Zeros", "config": {}}, "kernel_regularizer": null, "bias_regularizer": null, "activity_regularizer": null, "kernel_constraint": null, "bias_constraint": null}, "name": "conv2d_99", "inbound_nodes": [[["max_pooling2d_5", 0, 0, {}]]]}, {"class_name": "Conv2D", "config": {"name": "conv2d_101", "trainable": true, "dtype": "float32", "filters": 64, "kernel_size": [5, 5], "strides": [1, 1], "padding": "same", "data_format": "channels_last", "dilation_rate": [1, 1], "activation": "linear", "use_bias": false, "kernel_initializer": {"class_name": "GlorotUniform", "config": {"seed": null}}, "bias_initializer": {"class_name": "Zeros", "config": {}}, "kernel_regularizer": null, "bias_regularizer": null, "activity_regularizer": null, "kernel_constraint": null, "bias_constraint": null}, "name": "conv2d_101", "inbound_nodes": [[["activation_100", 0, 0, {}]]]}, {"class_name": "Conv2D", "config": {"name": "conv2d_104", "trainable": true, "dtype": "float32", "filters": 96, "kernel_size": [3, 3], "strides": [1, 1], "padding": "same", "data_format": "channels_last", "dilation_rate": [1, 1], "activation": "linear", "use_bias": false, "kernel_initializer": {"class_name": "GlorotUniform", "config": {"seed": null}}, "bias_initializer": {"class_name": "Zeros", "config": {}}, "kernel_regularizer": null, "bias_regularizer": null, "activity_regularizer": null, "kernel_constraint": null, "bias_constraint": null}, "name": "conv2d_104", "inbound_nodes": [[["activation_103", 0, 0, {}]]]}, {"class_name": "Conv2D", "config": {"name": "conv2d_105", "trainable": true, "dtype": "float32", "filters": 32, "kernel_size": [1, 1], "strides": [1, 1], "padding": "same", "data_format": "channels_last", "dilation_rate": [1, 1], "activation": "linear", "use_bias": false, "kernel_initializer": {"class_name": "GlorotUniform", "config": {"seed": null}}, "bias_initializer": {"class_name": "Zeros", "config": {}}, "kernel_regularizer": null, "bias_regularizer": null, "activity_regularizer": null, "kernel_constraint": null, "bias_constraint": null}, "name": "conv2d_105", "inbound_nodes": [[["average_pooling2d_9", 0, 0, {}]]]}, {"class_name": "BatchNormalization", "config": {"name": "batch_normalization_101", "trainable": true, "dtype": "float32", "axis": [3], "momentum": 0.99, "epsilon": 0.001, "center": true, "scale": false, "beta_initializer": {"class_name": "Zeros", "config": {}}, "gamma_initializer": {"class_name": "Ones", "config": {}}, "moving_mean_initializer": {"class_name": "Zeros", "config": {}}, "moving_variance_initializer": {"class_name": "Ones", "config": {}}, "beta_regularizer": null, "gamma_regularizer": null, "beta_constraint": null, "gamma_constraint": null}, "name": "batch_normalization_101", "inbound_nodes": [[["conv2d_99", 0, 0, {}]]]}, {"class_name": "BatchNormalization", "config": {"name": "batch_normalization_103", "trainable": true, "dtype": "float32", "axis": [3], "momentum": 0.99, "epsilon": 0.001, "center": true, "scale": false, "beta_initializer": {"class_name": "Zeros", "config": {}}, "gamma_initializer": {"class_name": "Ones", "config": {}}, "moving_mean_initializer": {"class_name": "Zeros", "config": {}}, "moving_variance_initializer": {"class_name": "Ones", "config": {}}, "beta_regularizer": null, "gamma_regularizer": null, "beta_constraint": null, "gamma_constraint": null}, "name": "batch_normalization_103", "inbound_nodes": [[["conv2d_101", 0, 0, {}]]]}, {"class_name": "BatchNormalization", "config": {"name": "batch_normalization_106", "trainable": true, "dtype": "float32", "axis": [3], "momentum": 0.99, "epsilon": 0.001, "center": true, "scale": false, "beta_initializer": {"class_name": "Zeros", "config": {}}, "gamma_initializer": {"class_name": "Ones", "config": {}}, "moving_mean_initializer": {"class_name": "Zeros", "config": {}}, "moving_variance_initializer": {"class_name": "Ones", "config": {}}, "beta_regularizer": null, "gamma_regularizer": null, "beta_constraint": null, "gamma_constraint": null}, "name": "batch_normalization_106", "inbound_nodes": [[["conv2d_104", 0, 0, {}]]]}, {"class_name": "BatchNormalization", "config": {"name": "batch_normalization_107", "trainable": true, "dtype": "float32", "axis": [3], "momentum": 0.99, "epsilon": 0.001, "center": true, "scale": false, "beta_initializer": {"class_name": "Zeros", "config": {}}, "gamma_initializer": {"class_name": "Ones", "config": {}}, "moving_mean_initializer": {"class_name": "Zeros", "config": {}}, "moving_variance_initializer": {"class_name": "Ones", "config": {}}, "beta_regularizer": null, "gamma_regularizer": null, "beta_constraint": null, "gamma_constraint": null}, "name": "batch_normalization_107", "inbound_nodes": [[["conv2d_105", 0, 0, {}]]]}, {"class_name": "Activation", "config": {"name": "activation_99", "trainable": true, "dtype": "float32", "activation": "relu"}, "name": "activation_99", "inbound_nodes": [[["batch_normalization_101", 0, 0, {}]]]}, {"class_name": "Activation", "config": {"name": "activation_101", "trainable": true, "dtype": "float32", "activation": "relu"}, "name": "activation_101", "inbound_nodes": [[["batch_normalization_103", 0, 0, {}]]]}, {"class_name": "Activation", "config": {"name": "activation_104", "trainable": true, "dtype": "float32", "activation": "relu"}, "name": "activation_104", "inbound_nodes": [[["batch_normalization_106", 0, 0, {}]]]}, {"class_name": "Activation", "config": {"name": "activation_105", "trainable": true, "dtype": "float32", "activation": "relu"}, "name": "activation_105", "inbound_nodes": [[["batch_normalization_107", 0, 0, {}]]]}, {"class_name": "Concatenate", "config": {"name": "mixed0", "trainable": true, "dtype": "float32", "axis": 3}, "name": "mixed0", "inbound_nodes": [[["activation_99", 0, 0, {}], ["activation_101", 0, 0, {}], ["activation_104", 0, 0, {}], ["activation_105", 0, 0, {}]]]}, {"class_name": "Conv2D", "config": {"name": "conv2d_109", "trainable": true, "dtype": "float32", "filters": 64, "kernel_size": [1, 1], "strides": [1, 1], "padding": "same", "data_format": "channels_last", "dilation_rate": [1, 1], "activation": "linear", "use_bias": false, "kernel_initializer": {"class_name": "GlorotUniform", "config": {"seed": null}}, "bias_initializer": {"class_name": "Zeros", "config": {}}, "kernel_regularizer": null, "bias_regularizer": null, "activity_regularizer": null, "kernel_constraint": null, "bias_constraint": null}, "name": "conv2d_109", "inbound_nodes": [[["mixed0", 0, 0, {}]]]}, {"class_name": "BatchNormalization", "config": {"name": "batch_normalization_111", "trainable": true, "dtype": "float32", "axis": [3], "momentum": 0.99, "epsilon": 0.001, "center": true, "scale": false, "beta_initializer": {"class_name": "Zeros", "config": {}}, "gamma_initializer": {"class_name": "Ones", "config": {}}, "moving_mean_initializer": {"class_name": "Zeros", "config": {}}, "moving_variance_initializer": {"class_name": "Ones", "config": {}}, "beta_regularizer": null, "gamma_regularizer": null, "beta_constraint": null, "gamma_constraint": null}, "name": "batch_normalization_111", "inbound_nodes": [[["conv2d_109", 0, 0, {}]]]}, {"class_name": "Activation", "config": {"name": "activation_109", "trainable": true, "dtype": "float32", "activation": "relu"}, "name": "activation_109", "inbound_nodes": [[["batch_normalization_111", 0, 0, {}]]]}, {"class_name": "Conv2D", "config": {"name": "conv2d_107", "trainable": true, "dtype": "float32", "filters": 48, "kernel_size": [1, 1], "strides": [1, 1], "padding": "same", "data_format": "channels_last", "dilation_rate": [1, 1], "activation": "linear", "use_bias": false, "kernel_initializer": {"class_name": "GlorotUniform", "config": {"seed": null}}, "bias_initializer": {"class_name": "Zeros", "config": {}}, "kernel_regularizer": null, "bias_regularizer": null, "activity_regularizer": null, "kernel_constraint": null, "bias_constraint": null}, "name": "conv2d_107", "inbound_nodes": [[["mixed0", 0, 0, {}]]]}, {"class_name": "Conv2D", "config": {"name": "conv2d_110", "trainable": true, "dtype": "float32", "filters": 96, "kernel_size": [3, 3], "strides": [1, 1], "padding": "same", "data_format": "channels_last", "dilation_rate": [1, 1], "activation": "linear", "use_bias": false, "kernel_initializer": {"class_name": "GlorotUniform", "config": {"seed": null}}, "bias_initializer": {"class_name": "Zeros", "config": {}}, "kernel_regularizer": null, "bias_regularizer": null, "activity_regularizer": null, "kernel_constraint": null, "bias_constraint": null}, "name": "conv2d_110", "inbound_nodes": [[["activation_109", 0, 0, {}]]]}, {"class_name": "BatchNormalization", "config": {"name": "batch_normalization_109", "trainable": true, "dtype": "float32", "axis": [3], "momentum": 0.99, "epsilon": 0.001, "center": true, "scale": false, "beta_initializer": {"class_name": "Zeros", "config": {}}, "gamma_initializer": {"class_name": "Ones", "config": {}}, "moving_mean_initializer": {"class_name": "Zeros", "config": {}}, "moving_variance_initializer": {"class_name": "Ones", "config": {}}, "beta_regularizer": null, "gamma_regularizer": null, "beta_constraint": null, "gamma_constraint": null}, "name": "batch_normalization_109", "inbound_nodes": [[["conv2d_107", 0, 0, {}]]]}, {"class_name": "BatchNormalization", "config": {"name": "batch_normalization_112", "trainable": true, "dtype": "float32", "axis": [3], "momentum": 0.99, "epsilon": 0.001, "center": true, "scale": false, "beta_initializer": {"class_name": "Zeros", "config": {}}, "gamma_initializer": {"class_name": "Ones", "config": {}}, "moving_mean_initializer": {"class_name": "Zeros", "config": {}}, "moving_variance_initializer": {"class_name": "Ones", "config": {}}, "beta_regularizer": null, "gamma_regularizer": null, "beta_constraint": null, "gamma_constraint": null}, "name": "batch_normalization_112", "inbound_nodes": [[["conv2d_110", 0, 0, {}]]]}, {"class_name": "Activation", "config": {"name": "activation_107", "trainable": true, "dtype": "float32", "activation": "relu"}, "name": "activation_107", "inbound_nodes": [[["batch_normalization_109", 0, 0, {}]]]}, {"class_name": "Activation", "config": {"name": "activation_110", "trainable": true, "dtype": "float32", "activation": "relu"}, "name": "activation_110", "inbound_nodes": [[["batch_normalization_112", 0, 0, {}]]]}, {"class_name": "AveragePooling2D", "config": {"name": "average_pooling2d_10", "trainable": true, "dtype": "float32", "pool_size": [3, 3], "padding": "same", "strides": [1, 1], "data_format": "channels_last"}, "name": "average_pooling2d_10", "inbound_nodes": [[["mixed0", 0, 0, {}]]]}, {"class_name": "Conv2D", "config": {"name": "conv2d_106", "trainable": true, "dtype": "float32", "filters": 64, "kernel_size": [1, 1], "strides": [1, 1], "padding": "same", "data_format": "channels_last", "dilation_rate": [1, 1], "activation": "linear", "use_bias": false, "kernel_initializer": {"class_name": "GlorotUniform", "config": {"seed": null}}, "bias_initializer": {"class_name": "Zeros", "config": {}}, "kernel_regularizer": null, "bias_regularizer": null, "activity_regularizer": null, "kernel_constraint": null, "bias_constraint": null}, "name": "conv2d_106", "inbound_nodes": [[["mixed0", 0, 0, {}]]]}, {"class_name": "Conv2D", "config": {"name": "conv2d_108", "trainable": true, "dtype": "float32", "filters": 64, "kernel_size": [5, 5], "strides": [1, 1], "padding": "same", "data_format": "channels_last", "dilation_rate": [1, 1], "activation": "linear", "use_bias": false, "kernel_initializer": {"class_name": "GlorotUniform", "config": {"seed": null}}, "bias_initializer": {"class_name": "Zeros", "config": {}}, "kernel_regularizer": null, "bias_regularizer": null, "activity_regularizer": null, "kernel_constraint": null, "bias_constraint": null}, "name": "conv2d_108", "inbound_nodes": [[["activation_107", 0, 0, {}]]]}, {"class_name": "Conv2D", "config": {"name": "conv2d_111", "trainable": true, "dtype": "float32", "filters": 96, "kernel_size": [3, 3], "strides": [1, 1], "padding": "same", "data_format": "channels_last", "dilation_rate": [1, 1], "activation": "linear", "use_bias": false, "kernel_initializer": {"class_name": "GlorotUniform", "config": {"seed": null}}, "bias_initializer": {"class_name": "Zeros", "config": {}}, "kernel_regularizer": null, "bias_regularizer": null, "activity_regularizer": null, "kernel_constraint": null, "bias_constraint": null}, "name": "conv2d_111", "inbound_nodes": [[["activation_110", 0, 0, {}]]]}, {"class_name": "Conv2D", "config": {"name": "conv2d_112", "trainable": true, "dtype": "float32", "filters": 64, "kernel_size": [1, 1], "strides": [1, 1], "padding": "same", "data_format": "channels_last", "dilation_rate": [1, 1], "activation": "linear", "use_bias": false, "kernel_initializer": {"class_name": "GlorotUniform", "config": {"seed": null}}, "bias_initializer": {"class_name": "Zeros", "config": {}}, "kernel_regularizer": null, "bias_regularizer": null, "activity_regularizer": null, "kernel_constraint": null, "bias_constraint": null}, "name": "conv2d_112", "inbound_nodes": [[["average_pooling2d_10", 0, 0, {}]]]}, {"class_name": "BatchNormalization", "config": {"name": "batch_normalization_108", "trainable": true, "dtype": "float32", "axis": [3], "momentum": 0.99, "epsilon": 0.001, "center": true, "scale": false, "beta_initializer": {"class_name": "Zeros", "config": {}}, "gamma_initializer": {"class_name": "Ones", "config": {}}, "moving_mean_initializer": {"class_name": "Zeros", "config": {}}, "moving_variance_initializer": {"class_name": "Ones", "config": {}}, "beta_regularizer": null, "gamma_regularizer": null, "beta_constraint": null, "gamma_constraint": null}, "name": "batch_normalization_108", "inbound_nodes": [[["conv2d_106", 0, 0, {}]]]}, {"class_name": "BatchNormalization", "config": {"name": "batch_normalization_110", "trainable": true, "dtype": "float32", "axis": [3], "momentum": 0.99, "epsilon": 0.001, "center": true, "scale": false, "beta_initializer": {"class_name": "Zeros", "config": {}}, "gamma_initializer": {"class_name": "Ones", "config": {}}, "moving_mean_initializer": {"class_name": "Zeros", "config": {}}, "moving_variance_initializer": {"class_name": "Ones", "config": {}}, "beta_regularizer": null, "gamma_regularizer": null, "beta_constraint": null, "gamma_constraint": null}, "name": "batch_normalization_110", "inbound_nodes": [[["conv2d_108", 0, 0, {}]]]}, {"class_name": "BatchNormalization", "config": {"name": "batch_normalization_113", "trainable": true, "dtype": "float32", "axis": [3], "momentum": 0.99, "epsilon": 0.001, "center": true, "scale": false, "beta_initializer": {"class_name": "Zeros", "config": {}}, "gamma_initializer": {"class_name": "Ones", "config": {}}, "moving_mean_initializer": {"class_name": "Zeros", "config": {}}, "moving_variance_initializer": {"class_name": "Ones", "config": {}}, "beta_regularizer": null, "gamma_regularizer": null, "beta_constraint": null, "gamma_constraint": null}, "name": "batch_normalization_113", "inbound_nodes": [[["conv2d_111", 0, 0, {}]]]}, {"class_name": "BatchNormalization", "config": {"name": "batch_normalization_114", "trainable": true, "dtype": "float32", "axis": [3], "momentum": 0.99, "epsilon": 0.001, "center": true, "scale": false, "beta_initializer": {"class_name": "Zeros", "config": {}}, "gamma_initializer": {"class_name": "Ones", "config": {}}, "moving_mean_initializer": {"class_name": "Zeros", "config": {}}, "moving_variance_initializer": {"class_name": "Ones", "config": {}}, "beta_regularizer": null, "gamma_regularizer": null, "beta_constraint": null, "gamma_constraint": null}, "name": "batch_normalization_114", "inbound_nodes": [[["conv2d_112", 0, 0, {}]]]}, {"class_name": "Activation", "config": {"name": "activation_106", "trainable": true, "dtype": "float32", "activation": "relu"}, "name": "activation_106", "inbound_nodes": [[["batch_normalization_108", 0, 0, {}]]]}, {"class_name": "Activation", "config": {"name": "activation_108", "trainable": true, "dtype": "float32", "activation": "relu"}, "name": "activation_108", "inbound_nodes": [[["batch_normalization_110", 0, 0, {}]]]}, {"class_name": "Activation", "config": {"name": "activation_111", "trainable": true, "dtype": "float32", "activation": "relu"}, "name": "activation_111", "inbound_nodes": [[["batch_normalization_113", 0, 0, {}]]]}, {"class_name": "Activation", "config": {"name": "activation_112", "trainable": true, "dtype": "float32", "activation": "relu"}, "name": "activation_112", "inbound_nodes": [[["batch_normalization_114", 0, 0, {}]]]}, {"class_name": "Concatenate", "config": {"name": "mixed1", "trainable": true, "dtype": "float32", "axis": 3}, "name": "mixed1", "inbound_nodes": [[["activation_106", 0, 0, {}], ["activation_108", 0, 0, {}], ["activation_111", 0, 0, {}], ["activation_112", 0, 0, {}]]]}, {"class_name": "Conv2D", "config": {"name": "conv2d_116", "trainable": true, "dtype": "float32", "filters": 64, "kernel_size": [1, 1], "strides": [1, 1], "padding": "same", "data_format": "channels_last", "dilation_rate": [1, 1], "activation": "linear", "use_bias": false, "kernel_initializer": {"class_name": "GlorotUniform", "config": {"seed": null}}, "bias_initializer": {"class_name": "Zeros", "config": {}}, "kernel_regularizer": null, "bias_regularizer": null, "activity_regularizer": null, "kernel_constraint": null, "bias_constraint": null}, "name": "conv2d_116", "inbound_nodes": [[["mixed1", 0, 0, {}]]]}, {"class_name": "BatchNormalization", "config": {"name": "batch_normalization_118", "trainable": true, "dtype": "float32", "axis": [3], "momentum": 0.99, "epsilon": 0.001, "center": true, "scale": false, "beta_initializer": {"class_name": "Zeros", "config": {}}, "gamma_initializer": {"class_name": "Ones", "config": {}}, "moving_mean_initializer": {"class_name": "Zeros", "config": {}}, "moving_variance_initializer": {"class_name": "Ones", "config": {}}, "beta_regularizer": null, "gamma_regularizer": null, "beta_constraint": null, "gamma_constraint": null}, "name": "batch_normalization_118", "inbound_nodes": [[["conv2d_116", 0, 0, {}]]]}, {"class_name": "Activation", "config": {"name": "activation_116", "trainable": true, "dtype": "float32", "activation": "relu"}, "name": "activation_116", "inbound_nodes": [[["batch_normalization_118", 0, 0, {}]]]}, {"class_name": "Conv2D", "config": {"name": "conv2d_114", "trainable": true, "dtype": "float32", "filters": 48, "kernel_size": [1, 1], "strides": [1, 1], "padding": "same", "data_format": "channels_last", "dilation_rate": [1, 1], "activation": "linear", "use_bias": false, "kernel_initializer": {"class_name": "GlorotUniform", "config": {"seed": null}}, "bias_initializer": {"class_name": "Zeros", "config": {}}, "kernel_regularizer": null, "bias_regularizer": null, "activity_regularizer": null, "kernel_constraint": null, "bias_constraint": null}, "name": "conv2d_114", "inbound_nodes": [[["mixed1", 0, 0, {}]]]}, {"class_name": "Conv2D", "config": {"name": "conv2d_117", "trainable": true, "dtype": "float32", "filters": 96, "kernel_size": [3, 3], "strides": [1, 1], "padding": "same", "data_format": "channels_last", "dilation_rate": [1, 1], "activation": "linear", "use_bias": false, "kernel_initializer": {"class_name": "GlorotUniform", "config": {"seed": null}}, "bias_initializer": {"class_name": "Zeros", "config": {}}, "kernel_regularizer": null, "bias_regularizer": null, "activity_regularizer": null, "kernel_constraint": null, "bias_constraint": null}, "name": "conv2d_117", "inbound_nodes": [[["activation_116", 0, 0, {}]]]}, {"class_name": "BatchNormalization", "config": {"name": "batch_normalization_116", "trainable": true, "dtype": "float32", "axis": [3], "momentum": 0.99, "epsilon": 0.001, "center": true, "scale": false, "beta_initializer": {"class_name": "Zeros", "config": {}}, "gamma_initializer": {"class_name": "Ones", "config": {}}, "moving_mean_initializer": {"class_name": "Zeros", "config": {}}, "moving_variance_initializer": {"class_name": "Ones", "config": {}}, "beta_regularizer": null, "gamma_regularizer": null, "beta_constraint": null, "gamma_constraint": null}, "name": "batch_normalization_116", "inbound_nodes": [[["conv2d_114", 0, 0, {}]]]}, {"class_name": "BatchNormalization", "config": {"name": "batch_normalization_119", "trainable": true, "dtype": "float32", "axis": [3], "momentum": 0.99, "epsilon": 0.001, "center": true, "scale": false, "beta_initializer": {"class_name": "Zeros", "config": {}}, "gamma_initializer": {"class_name": "Ones", "config": {}}, "moving_mean_initializer": {"class_name": "Zeros", "config": {}}, "moving_variance_initializer": {"class_name": "Ones", "config": {}}, "beta_regularizer": null, "gamma_regularizer": null, "beta_constraint": null, "gamma_constraint": null}, "name": "batch_normalization_119", "inbound_nodes": [[["conv2d_117", 0, 0, {}]]]}, {"class_name": "Activation", "config": {"name": "activation_114", "trainable": true, "dtype": "float32", "activation": "relu"}, "name": "activation_114", "inbound_nodes": [[["batch_normalization_116", 0, 0, {}]]]}, {"class_name": "Activation", "config": {"name": "activation_117", "trainable": true, "dtype": "float32", "activation": "relu"}, "name": "activation_117", "inbound_nodes": [[["batch_normalization_119", 0, 0, {}]]]}, {"class_name": "AveragePooling2D", "config": {"name": "average_pooling2d_11", "trainable": true, "dtype": "float32", "pool_size": [3, 3], "padding": "same", "strides": [1, 1], "data_format": "channels_last"}, "name": "average_pooling2d_11", "inbound_nodes": [[["mixed1", 0, 0, {}]]]}, {"class_name": "Conv2D", "config": {"name": "conv2d_113", "trainable": true, "dtype": "float32", "filters": 64, "kernel_size": [1, 1], "strides": [1, 1], "padding": "same", "data_format": "channels_last", "dilation_rate": [1, 1], "activation": "linear", "use_bias": false, "kernel_initializer": {"class_name": "GlorotUniform", "config": {"seed": null}}, "bias_initializer": {"class_name": "Zeros", "config": {}}, "kernel_regularizer": null, "bias_regularizer": null, "activity_regularizer": null, "kernel_constraint": null, "bias_constraint": null}, "name": "conv2d_113", "inbound_nodes": [[["mixed1", 0, 0, {}]]]}, {"class_name": "Conv2D", "config": {"name": "conv2d_115", "trainable": true, "dtype": "float32", "filters": 64, "kernel_size": [5, 5], "strides": [1, 1], "padding": "same", "data_format": "channels_last", "dilation_rate": [1, 1], "activation": "linear", "use_bias": false, "kernel_initializer": {"class_name": "GlorotUniform", "config": {"seed": null}}, "bias_initializer": {"class_name": "Zeros", "config": {}}, "kernel_regularizer": null, "bias_regularizer": null, "activity_regularizer": null, "kernel_constraint": null, "bias_constraint": null}, "name": "conv2d_115", "inbound_nodes": [[["activation_114", 0, 0, {}]]]}, {"class_name": "Conv2D", "config": {"name": "conv2d_118", "trainable": true, "dtype": "float32", "filters": 96, "kernel_size": [3, 3], "strides": [1, 1], "padding": "same", "data_format": "channels_last", "dilation_rate": [1, 1], "activation": "linear", "use_bias": false, "kernel_initializer": {"class_name": "GlorotUniform", "config": {"seed": null}}, "bias_initializer": {"class_name": "Zeros", "config": {}}, "kernel_regularizer": null, "bias_regularizer": null, "activity_regularizer": null, "kernel_constraint": null, "bias_constraint": null}, "name": "conv2d_118", "inbound_nodes": [[["activation_117", 0, 0, {}]]]}, {"class_name": "Conv2D", "config": {"name": "conv2d_119", "trainable": true, "dtype": "float32", "filters": 64, "kernel_size": [1, 1], "strides": [1, 1], "padding": "same", "data_format": "channels_last", "dilation_rate": [1, 1], "activation": "linear", "use_bias": false, "kernel_initializer": {"class_name": "GlorotUniform", "config": {"seed": null}}, "bias_initializer": {"class_name": "Zeros", "config": {}}, "kernel_regularizer": null, "bias_regularizer": null, "activity_regularizer": null, "kernel_constraint": null, "bias_constraint": null}, "name": "conv2d_119", "inbound_nodes": [[["average_pooling2d_11", 0, 0, {}]]]}, {"class_name": "BatchNormalization", "config": {"name": "batch_normalization_115", "trainable": true, "dtype": "float32", "axis": [3], "momentum": 0.99, "epsilon": 0.001, "center": true, "scale": false, "beta_initializer": {"class_name": "Zeros", "config": {}}, "gamma_initializer": {"class_name": "Ones", "config": {}}, "moving_mean_initializer": {"class_name": "Zeros", "config": {}}, "moving_variance_initializer": {"class_name": "Ones", "config": {}}, "beta_regularizer": null, "gamma_regularizer": null, "beta_constraint": null, "gamma_constraint": null}, "name": "batch_normalization_115", "inbound_nodes": [[["conv2d_113", 0, 0, {}]]]}, {"class_name": "BatchNormalization", "config": {"name": "batch_normalization_117", "trainable": true, "dtype": "float32", "axis": [3], "momentum": 0.99, "epsilon": 0.001, "center": true, "scale": false, "beta_initializer": {"class_name": "Zeros", "config": {}}, "gamma_initializer": {"class_name": "Ones", "config": {}}, "moving_mean_initializer": {"class_name": "Zeros", "config": {}}, "moving_variance_initializer": {"class_name": "Ones", "config": {}}, "beta_regularizer": null, "gamma_regularizer": null, "beta_constraint": null, "gamma_constraint": null}, "name": "batch_normalization_117", "inbound_nodes": [[["conv2d_115", 0, 0, {}]]]}, {"class_name": "BatchNormalization", "config": {"name": "batch_normalization_120", "trainable": true, "dtype": "float32", "axis": [3], "momentum": 0.99, "epsilon": 0.001, "center": true, "scale": false, "beta_initializer": {"class_name": "Zeros", "config": {}}, "gamma_initializer": {"class_name": "Ones", "config": {}}, "moving_mean_initializer": {"class_name": "Zeros", "config": {}}, "moving_variance_initializer": {"class_name": "Ones", "config": {}}, "beta_regularizer": null, "gamma_regularizer": null, "beta_constraint": null, "gamma_constraint": null}, "name": "batch_normalization_120", "inbound_nodes": [[["conv2d_118", 0, 0, {}]]]}, {"class_name": "BatchNormalization", "config": {"name": "batch_normalization_121", "trainable": true, "dtype": "float32", "axis": [3], "momentum": 0.99, "epsilon": 0.001, "center": true, "scale": false, "beta_initializer": {"class_name": "Zeros", "config": {}}, "gamma_initializer": {"class_name": "Ones", "config": {}}, "moving_mean_initializer": {"class_name": "Zeros", "config": {}}, "moving_variance_initializer": {"class_name": "Ones", "config": {}}, "beta_regularizer": null, "gamma_regularizer": null, "beta_constraint": null, "gamma_constraint": null}, "name": "batch_normalization_121", "inbound_nodes": [[["conv2d_119", 0, 0, {}]]]}, {"class_name": "Activation", "config": {"name": "activation_113", "trainable": true, "dtype": "float32", "activation": "relu"}, "name": "activation_113", "inbound_nodes": [[["batch_normalization_115", 0, 0, {}]]]}, {"class_name": "Activation", "config": {"name": "activation_115", "trainable": true, "dtype": "float32", "activation": "relu"}, "name": "activation_115", "inbound_nodes": [[["batch_normalization_117", 0, 0, {}]]]}, {"class_name": "Activation", "config": {"name": "activation_118", "trainable": true, "dtype": "float32", "activation": "relu"}, "name": "activation_118", "inbound_nodes": [[["batch_normalization_120", 0, 0, {}]]]}, {"class_name": "Activation", "config": {"name": "activation_119", "trainable": true, "dtype": "float32", "activation": "relu"}, "name": "activation_119", "inbound_nodes": [[["batch_normalization_121", 0, 0, {}]]]}, {"class_name": "Concatenate", "config": {"name": "mixed2", "trainable": true, "dtype": "float32", "axis": 3}, "name": "mixed2", "inbound_nodes": [[["activation_113", 0, 0, {}], ["activation_115", 0, 0, {}], ["activation_118", 0, 0, {}], ["activation_119", 0, 0, {}]]]}, {"class_name": "Conv2D", "config": {"name": "conv2d_121", "trainable": true, "dtype": "float32", "filters": 64, "kernel_size": [1, 1], "strides": [1, 1], "padding": "same", "data_format": "channels_last", "dilation_rate": [1, 1], "activation": "linear", "use_bias": false, "kernel_initializer": {"class_name": "GlorotUniform", "config": {"seed": null}}, "bias_initializer": {"class_name": "Zeros", "config": {}}, "kernel_regularizer": null, "bias_regularizer": null, "activity_regularizer": null, "kernel_constraint": null, "bias_constraint": null}, "name": "conv2d_121", "inbound_nodes": [[["mixed2", 0, 0, {}]]]}, {"class_name": "BatchNormalization", "config": {"name": "batch_normalization_123", "trainable": true, "dtype": "float32", "axis": [3], "momentum": 0.99, "epsilon": 0.001, "center": true, "scale": false, "beta_initializer": {"class_name": "Zeros", "config": {}}, "gamma_initializer": {"class_name": "Ones", "config": {}}, "moving_mean_initializer": {"class_name": "Zeros", "config": {}}, "moving_variance_initializer": {"class_name": "Ones", "config": {}}, "beta_regularizer": null, "gamma_regularizer": null, "beta_constraint": null, "gamma_constraint": null}, "name": "batch_normalization_123", "inbound_nodes": [[["conv2d_121", 0, 0, {}]]]}, {"class_name": "Activation", "config": {"name": "activation_121", "trainable": true, "dtype": "float32", "activation": "relu"}, "name": "activation_121", "inbound_nodes": [[["batch_normalization_123", 0, 0, {}]]]}, {"class_name": "Conv2D", "config": {"name": "conv2d_122", "trainable": true, "dtype": "float32", "filters": 96, "kernel_size": [3, 3], "strides": [1, 1], "padding": "same", "data_format": "channels_last", "dilation_rate": [1, 1], "activation": "linear", "use_bias": false, "kernel_initializer": {"class_name": "GlorotUniform", "config": {"seed": null}}, "bias_initializer": {"class_name": "Zeros", "config": {}}, "kernel_regularizer": null, "bias_regularizer": null, "activity_regularizer": null, "kernel_constraint": null, "bias_constraint": null}, "name": "conv2d_122", "inbound_nodes": [[["activation_121", 0, 0, {}]]]}, {"class_name": "BatchNormalization", "config": {"name": "batch_normalization_124", "trainable": true, "dtype": "float32", "axis": [3], "momentum": 0.99, "epsilon": 0.001, "center": true, "scale": false, "beta_initializer": {"class_name": "Zeros", "config": {}}, "gamma_initializer": {"class_name": "Ones", "config": {}}, "moving_mean_initializer": {"class_name": "Zeros", "config": {}}, "moving_variance_initializer": {"class_name": "Ones", "config": {}}, "beta_regularizer": null, "gamma_regularizer": null, "beta_constraint": null, "gamma_constraint": null}, "name": "batch_normalization_124", "inbound_nodes": [[["conv2d_122", 0, 0, {}]]]}, {"class_name": "Activation", "config": {"name": "activation_122", "trainable": true, "dtype": "float32", "activation": "relu"}, "name": "activation_122", "inbound_nodes": [[["batch_normalization_124", 0, 0, {}]]]}, {"class_name": "Conv2D", "config": {"name": "conv2d_120", "trainable": true, "dtype": "float32", "filters": 384, "kernel_size": [3, 3], "strides": [2, 2], "padding": "valid", "data_format": "channels_last", "dilation_rate": [1, 1], "activation": "linear", "use_bias": false, "kernel_initializer": {"class_name": "GlorotUniform", "config": {"seed": null}}, "bias_initializer": {"class_name": "Zeros", "config": {}}, "kernel_regularizer": null, "bias_regularizer": null, "activity_regularizer": null, "kernel_constraint": null, "bias_constraint": null}, "name": "conv2d_120", "inbound_nodes": [[["mixed2", 0, 0, {}]]]}, {"class_name": "Conv2D", "config": {"name": "conv2d_123", "trainable": true, "dtype": "float32", "filters": 96, "kernel_size": [3, 3], "strides": [2, 2], "padding": "valid", "data_format": "channels_last", "dilation_rate": [1, 1], "activation": "linear", "use_bias": false, "kernel_initializer": {"class_name": "GlorotUniform", "config": {"seed": null}}, "bias_initializer": {"class_name": "Zeros", "config": {}}, "kernel_regularizer": null, "bias_regularizer": null, "activity_regularizer": null, "kernel_constraint": null, "bias_constraint": null}, "name": "conv2d_123", "inbound_nodes": [[["activation_122", 0, 0, {}]]]}, {"class_name": "BatchNormalization", "config": {"name": "batch_normalization_122", "trainable": true, "dtype": "float32", "axis": [3], "momentum": 0.99, "epsilon": 0.001, "center": true, "scale": false, "beta_initializer": {"class_name": "Zeros", "config": {}}, "gamma_initializer": {"class_name": "Ones", "config": {}}, "moving_mean_initializer": {"class_name": "Zeros", "config": {}}, "moving_variance_initializer": {"class_name": "Ones", "config": {}}, "beta_regularizer": null, "gamma_regularizer": null, "beta_constraint": null, "gamma_constraint": null}, "name": "batch_normalization_122", "inbound_nodes": [[["conv2d_120", 0, 0, {}]]]}, {"class_name": "BatchNormalization", "config": {"name": "batch_normalization_125", "trainable": true, "dtype": "float32", "axis": [3], "momentum": 0.99, "epsilon": 0.001, "center": true, "scale": false, "beta_initializer": {"class_name": "Zeros", "config": {}}, "gamma_initializer": {"class_name": "Ones", "config": {}}, "moving_mean_initializer": {"class_name": "Zeros", "config": {}}, "moving_variance_initializer": {"class_name": "Ones", "config": {}}, "beta_regularizer": null, "gamma_regularizer": null, "beta_constraint": null, "gamma_constraint": null}, "name": "batch_normalization_125", "inbound_nodes": [[["conv2d_123", 0, 0, {}]]]}, {"class_name": "Activation", "config": {"name": "activation_120", "trainable": true, "dtype": "float32", "activation": "relu"}, "name": "activation_120", "inbound_nodes": [[["batch_normalization_122", 0, 0, {}]]]}, {"class_name": "Activation", "config": {"name": "activation_123", "trainable": true, "dtype": "float32", "activation": "relu"}, "name": "activation_123", "inbound_nodes": [[["batch_normalization_125", 0, 0, {}]]]}, {"class_name": "MaxPooling2D", "config": {"name": "max_pooling2d_6", "trainable": true, "dtype": "float32", "pool_size": [3, 3], "padding": "valid", "strides": [2, 2], "data_format": "channels_last"}, "name": "max_pooling2d_6", "inbound_nodes": [[["mixed2", 0, 0, {}]]]}, {"class_name": "Concatenate", "config": {"name": "mixed3", "trainable": true, "dtype": "float32", "axis": 3}, "name": "mixed3", "inbound_nodes": [[["activation_120", 0, 0, {}], ["activation_123", 0, 0, {}], ["max_pooling2d_6", 0, 0, {}]]]}, {"class_name": "Conv2D", "config": {"name": "conv2d_128", "trainable": true, "dtype": "float32", "filters": 128, "kernel_size": [1, 1], "strides": [1, 1], "padding": "same", "data_format": "channels_last", "dilation_rate": [1, 1], "activation": "linear", "use_bias": false, "kernel_initializer": {"class_name": "GlorotUniform", "config": {"seed": null}}, "bias_initializer": {"class_name": "Zeros", "config": {}}, "kernel_regularizer": null, "bias_regularizer": null, "activity_regularizer": null, "kernel_constraint": null, "bias_constraint": null}, "name": "conv2d_128", "inbound_nodes": [[["mixed3", 0, 0, {}]]]}, {"class_name": "BatchNormalization", "config": {"name": "batch_normalization_130", "trainable": true, "dtype": "float32", "axis": [3], "momentum": 0.99, "epsilon": 0.001, "center": true, "scale": false, "beta_initializer": {"class_name": "Zeros", "config": {}}, "gamma_initializer": {"class_name": "Ones", "config": {}}, "moving_mean_initializer": {"class_name": "Zeros", "config": {}}, "moving_variance_initializer": {"class_name": "Ones", "config": {}}, "beta_regularizer": null, "gamma_regularizer": null, "beta_constraint": null, "gamma_constraint": null}, "name": "batch_normalization_130", "inbound_nodes": [[["conv2d_128", 0, 0, {}]]]}, {"class_name": "Activation", "config": {"name": "activation_128", "trainable": true, "dtype": "float32", "activation": "relu"}, "name": "activation_128", "inbound_nodes": [[["batch_normalization_130", 0, 0, {}]]]}, {"class_name": "Conv2D", "config": {"name": "conv2d_129", "trainable": true, "dtype": "float32", "filters": 128, "kernel_size": [7, 1], "strides": [1, 1], "padding": "same", "data_format": "channels_last", "dilation_rate": [1, 1], "activation": "linear", "use_bias": false, "kernel_initializer": {"class_name": "GlorotUniform", "config": {"seed": null}}, "bias_initializer": {"class_name": "Zeros", "config": {}}, "kernel_regularizer": null, "bias_regularizer": null, "activity_regularizer": null, "kernel_constraint": null, "bias_constraint": null}, "name": "conv2d_129", "inbound_nodes": [[["activation_128", 0, 0, {}]]]}, {"class_name": "BatchNormalization", "config": {"name": "batch_normalization_131", "trainable": true, "dtype": "float32", "axis": [3], "momentum": 0.99, "epsilon": 0.001, "center": true, "scale": false, "beta_initializer": {"class_name": "Zeros", "config": {}}, "gamma_initializer": {"class_name": "Ones", "config": {}}, "moving_mean_initializer": {"class_name": "Zeros", "config": {}}, "moving_variance_initializer": {"class_name": "Ones", "config": {}}, "beta_regularizer": null, "gamma_regularizer": null, "beta_constraint": null, "gamma_constraint": null}, "name": "batch_normalization_131", "inbound_nodes": [[["conv2d_129", 0, 0, {}]]]}, {"class_name": "Activation", "config": {"name": "activation_129", "trainable": true, "dtype": "float32", "activation": "relu"}, "name": "activation_129", "inbound_nodes": [[["batch_normalization_131", 0, 0, {}]]]}, {"class_name": "Conv2D", "config": {"name": "conv2d_125", "trainable": true, "dtype": "float32", "filters": 128, "kernel_size": [1, 1], "strides": [1, 1], "padding": "same", "data_format": "channels_last", "dilation_rate": [1, 1], "activation": "linear", "use_bias": false, "kernel_initializer": {"class_name": "GlorotUniform", "config": {"seed": null}}, "bias_initializer": {"class_name": "Zeros", "config": {}}, "kernel_regularizer": null, "bias_regularizer": null, "activity_regularizer": null, "kernel_constraint": null, "bias_constraint": null}, "name": "conv2d_125", "inbound_nodes": [[["mixed3", 0, 0, {}]]]}, {"class_name": "Conv2D", "config": {"name": "conv2d_130", "trainable": true, "dtype": "float32", "filters": 128, "kernel_size": [1, 7], "strides": [1, 1], "padding": "same", "data_format": "channels_last", "dilation_rate": [1, 1], "activation": "linear", "use_bias": false, "kernel_initializer": {"class_name": "GlorotUniform", "config": {"seed": null}}, "bias_initializer": {"class_name": "Zeros", "config": {}}, "kernel_regularizer": null, "bias_regularizer": null, "activity_regularizer": null, "kernel_constraint": null, "bias_constraint": null}, "name": "conv2d_130", "inbound_nodes": [[["activation_129", 0, 0, {}]]]}, {"class_name": "BatchNormalization", "config": {"name": "batch_normalization_127", "trainable": true, "dtype": "float32", "axis": [3], "momentum": 0.99, "epsilon": 0.001, "center": true, "scale": false, "beta_initializer": {"class_name": "Zeros", "config": {}}, "gamma_initializer": {"class_name": "Ones", "config": {}}, "moving_mean_initializer": {"class_name": "Zeros", "config": {}}, "moving_variance_initializer": {"class_name": "Ones", "config": {}}, "beta_regularizer": null, "gamma_regularizer": null, "beta_constraint": null, "gamma_constraint": null}, "name": "batch_normalization_127", "inbound_nodes": [[["conv2d_125", 0, 0, {}]]]}, {"class_name": "BatchNormalization", "config": {"name": "batch_normalization_132", "trainable": true, "dtype": "float32", "axis": [3], "momentum": 0.99, "epsilon": 0.001, "center": true, "scale": false, "beta_initializer": {"class_name": "Zeros", "config": {}}, "gamma_initializer": {"class_name": "Ones", "config": {}}, "moving_mean_initializer": {"class_name": "Zeros", "config": {}}, "moving_variance_initializer": {"class_name": "Ones", "config": {}}, "beta_regularizer": null, "gamma_regularizer": null, "beta_constraint": null, "gamma_constraint": null}, "name": "batch_normalization_132", "inbound_nodes": [[["conv2d_130", 0, 0, {}]]]}, {"class_name": "Activation", "config": {"name": "activation_125", "trainable": true, "dtype": "float32", "activation": "relu"}, "name": "activation_125", "inbound_nodes": [[["batch_normalization_127", 0, 0, {}]]]}, {"class_name": "Activation", "config": {"name": "activation_130", "trainable": true, "dtype": "float32", "activation": "relu"}, "name": "activation_130", "inbound_nodes": [[["batch_normalization_132", 0, 0, {}]]]}, {"class_name": "Conv2D", "config": {"name": "conv2d_126", "trainable": true, "dtype": "float32", "filters": 128, "kernel_size": [1, 7], "strides": [1, 1], "padding": "same", "data_format": "channels_last", "dilation_rate": [1, 1], "activation": "linear", "use_bias": false, "kernel_initializer": {"class_name": "GlorotUniform", "config": {"seed": null}}, "bias_initializer": {"class_name": "Zeros", "config": {}}, "kernel_regularizer": null, "bias_regularizer": null, "activity_regularizer": null, "kernel_constraint": null, "bias_constraint": null}, "name": "conv2d_126", "inbound_nodes": [[["activation_125", 0, 0, {}]]]}, {"class_name": "Conv2D", "config": {"name": "conv2d_131", "trainable": true, "dtype": "float32", "filters": 128, "kernel_size": [7, 1], "strides": [1, 1], "padding": "same", "data_format": "channels_last", "dilation_rate": [1, 1], "activation": "linear", "use_bias": false, "kernel_initializer": {"class_name": "GlorotUniform", "config": {"seed": null}}, "bias_initializer": {"class_name": "Zeros", "config": {}}, "kernel_regularizer": null, "bias_regularizer": null, "activity_regularizer": null, "kernel_constraint": null, "bias_constraint": null}, "name": "conv2d_131", "inbound_nodes": [[["activation_130", 0, 0, {}]]]}, {"class_name": "BatchNormalization", "config": {"name": "batch_normalization_128", "trainable": true, "dtype": "float32", "axis": [3], "momentum": 0.99, "epsilon": 0.001, "center": true, "scale": false, "beta_initializer": {"class_name": "Zeros", "config": {}}, "gamma_initializer": {"class_name": "Ones", "config": {}}, "moving_mean_initializer": {"class_name": "Zeros", "config": {}}, "moving_variance_initializer": {"class_name": "Ones", "config": {}}, "beta_regularizer": null, "gamma_regularizer": null, "beta_constraint": null, "gamma_constraint": null}, "name": "batch_normalization_128", "inbound_nodes": [[["conv2d_126", 0, 0, {}]]]}, {"class_name": "BatchNormalization", "config": {"name": "batch_normalization_133", "trainable": true, "dtype": "float32", "axis": [3], "momentum": 0.99, "epsilon": 0.001, "center": true, "scale": false, "beta_initializer": {"class_name": "Zeros", "config": {}}, "gamma_initializer": {"class_name": "Ones", "config": {}}, "moving_mean_initializer": {"class_name": "Zeros", "config": {}}, "moving_variance_initializer": {"class_name": "Ones", "config": {}}, "beta_regularizer": null, "gamma_regularizer": null, "beta_constraint": null, "gamma_constraint": null}, "name": "batch_normalization_133", "inbound_nodes": [[["conv2d_131", 0, 0, {}]]]}, {"class_name": "Activation", "config": {"name": "activation_126", "trainable": true, "dtype": "float32", "activation": "relu"}, "name": "activation_126", "inbound_nodes": [[["batch_normalization_128", 0, 0, {}]]]}, {"class_name": "Activation", "config": {"name": "activation_131", "trainable": true, "dtype": "float32", "activation": "relu"}, "name": "activation_131", "inbound_nodes": [[["batch_normalization_133", 0, 0, {}]]]}, {"class_name": "AveragePooling2D", "config": {"name": "average_pooling2d_12", "trainable": true, "dtype": "float32", "pool_size": [3, 3], "padding": "same", "strides": [1, 1], "data_format": "channels_last"}, "name": "average_pooling2d_12", "inbound_nodes": [[["mixed3", 0, 0, {}]]]}, {"class_name": "Conv2D", "config": {"name": "conv2d_124", "trainable": true, "dtype": "float32", "filters": 192, "kernel_size": [1, 1], "strides": [1, 1], "padding": "same", "data_format": "channels_last", "dilation_rate": [1, 1], "activation": "linear", "use_bias": false, "kernel_initializer": {"class_name": "GlorotUniform", "config": {"seed": null}}, "bias_initializer": {"class_name": "Zeros", "config": {}}, "kernel_regularizer": null, "bias_regularizer": null, "activity_regularizer": null, "kernel_constraint": null, "bias_constraint": null}, "name": "conv2d_124", "inbound_nodes": [[["mixed3", 0, 0, {}]]]}, {"class_name": "Conv2D", "config": {"name": "conv2d_127", "trainable": true, "dtype": "float32", "filters": 192, "kernel_size": [7, 1], "strides": [1, 1], "padding": "same", "data_format": "channels_last", "dilation_rate": [1, 1], "activation": "linear", "use_bias": false, "kernel_initializer": {"class_name": "GlorotUniform", "config": {"seed": null}}, "bias_initializer": {"class_name": "Zeros", "config": {}}, "kernel_regularizer": null, "bias_regularizer": null, "activity_regularizer": null, "kernel_constraint": null, "bias_constraint": null}, "name": "conv2d_127", "inbound_nodes": [[["activation_126", 0, 0, {}]]]}, {"class_name": "Conv2D", "config": {"name": "conv2d_132", "trainable": true, "dtype": "float32", "filters": 192, "kernel_size": [1, 7], "strides": [1, 1], "padding": "same", "data_format": "channels_last", "dilation_rate": [1, 1], "activation": "linear", "use_bias": false, "kernel_initializer": {"class_name": "GlorotUniform", "config": {"seed": null}}, "bias_initializer": {"class_name": "Zeros", "config": {}}, "kernel_regularizer": null, "bias_regularizer": null, "activity_regularizer": null, "kernel_constraint": null, "bias_constraint": null}, "name": "conv2d_132", "inbound_nodes": [[["activation_131", 0, 0, {}]]]}, {"class_name": "Conv2D", "config": {"name": "conv2d_133", "trainable": true, "dtype": "float32", "filters": 192, "kernel_size": [1, 1], "strides": [1, 1], "padding": "same", "data_format": "channels_last", "dilation_rate": [1, 1], "activation": "linear", "use_bias": false, "kernel_initializer": {"class_name": "GlorotUniform", "config": {"seed": null}}, "bias_initializer": {"class_name": "Zeros", "config": {}}, "kernel_regularizer": null, "bias_regularizer": null, "activity_regularizer": null, "kernel_constraint": null, "bias_constraint": null}, "name": "conv2d_133", "inbound_nodes": [[["average_pooling2d_12", 0, 0, {}]]]}, {"class_name": "BatchNormalization", "config": {"name": "batch_normalization_126", "trainable": true, "dtype": "float32", "axis": [3], "momentum": 0.99, "epsilon": 0.001, "center": true, "scale": false, "beta_initializer": {"class_name": "Zeros", "config": {}}, "gamma_initializer": {"class_name": "Ones", "config": {}}, "moving_mean_initializer": {"class_name": "Zeros", "config": {}}, "moving_variance_initializer": {"class_name": "Ones", "config": {}}, "beta_regularizer": null, "gamma_regularizer": null, "beta_constraint": null, "gamma_constraint": null}, "name": "batch_normalization_126", "inbound_nodes": [[["conv2d_124", 0, 0, {}]]]}, {"class_name": "BatchNormalization", "config": {"name": "batch_normalization_129", "trainable": true, "dtype": "float32", "axis": [3], "momentum": 0.99, "epsilon": 0.001, "center": true, "scale": false, "beta_initializer": {"class_name": "Zeros", "config": {}}, "gamma_initializer": {"class_name": "Ones", "config": {}}, "moving_mean_initializer": {"class_name": "Zeros", "config": {}}, "moving_variance_initializer": {"class_name": "Ones", "config": {}}, "beta_regularizer": null, "gamma_regularizer": null, "beta_constraint": null, "gamma_constraint": null}, "name": "batch_normalization_129", "inbound_nodes": [[["conv2d_127", 0, 0, {}]]]}, {"class_name": "BatchNormalization", "config": {"name": "batch_normalization_134", "trainable": true, "dtype": "float32", "axis": [3], "momentum": 0.99, "epsilon": 0.001, "center": true, "scale": false, "beta_initializer": {"class_name": "Zeros", "config": {}}, "gamma_initializer": {"class_name": "Ones", "config": {}}, "moving_mean_initializer": {"class_name": "Zeros", "config": {}}, "moving_variance_initializer": {"class_name": "Ones", "config": {}}, "beta_regularizer": null, "gamma_regularizer": null, "beta_constraint": null, "gamma_constraint": null}, "name": "batch_normalization_134", "inbound_nodes": [[["conv2d_132", 0, 0, {}]]]}, {"class_name": "BatchNormalization", "config": {"name": "batch_normalization_135", "trainable": true, "dtype": "float32", "axis": [3], "momentum": 0.99, "epsilon": 0.001, "center": true, "scale": false, "beta_initializer": {"class_name": "Zeros", "config": {}}, "gamma_initializer": {"class_name": "Ones", "config": {}}, "moving_mean_initializer": {"class_name": "Zeros", "config": {}}, "moving_variance_initializer": {"class_name": "Ones", "config": {}}, "beta_regularizer": null, "gamma_regularizer": null, "beta_constraint": null, "gamma_constraint": null}, "name": "batch_normalization_135", "inbound_nodes": [[["conv2d_133", 0, 0, {}]]]}, {"class_name": "Activation", "config": {"name": "activation_124", "trainable": true, "dtype": "float32", "activation": "relu"}, "name": "activation_124", "inbound_nodes": [[["batch_normalization_126", 0, 0, {}]]]}, {"class_name": "Activation", "config": {"name": "activation_127", "trainable": true, "dtype": "float32", "activation": "relu"}, "name": "activation_127", "inbound_nodes": [[["batch_normalization_129", 0, 0, {}]]]}, {"class_name": "Activation", "config": {"name": "activation_132", "trainable": true, "dtype": "float32", "activation": "relu"}, "name": "activation_132", "inbound_nodes": [[["batch_normalization_134", 0, 0, {}]]]}, {"class_name": "Activation", "config": {"name": "activation_133", "trainable": true, "dtype": "float32", "activation": "relu"}, "name": "activation_133", "inbound_nodes": [[["batch_normalization_135", 0, 0, {}]]]}, {"class_name": "Concatenate", "config": {"name": "mixed4", "trainable": true, "dtype": "float32", "axis": 3}, "name": "mixed4", "inbound_nodes": [[["activation_124", 0, 0, {}], ["activation_127", 0, 0, {}], ["activation_132", 0, 0, {}], ["activation_133", 0, 0, {}]]]}, {"class_name": "Conv2D", "config": {"name": "conv2d_138", "trainable": true, "dtype": "float32", "filters": 160, "kernel_size": [1, 1], "strides": [1, 1], "padding": "same", "data_format": "channels_last", "dilation_rate": [1, 1], "activation": "linear", "use_bias": false, "kernel_initializer": {"class_name": "GlorotUniform", "config": {"seed": null}}, "bias_initializer": {"class_name": "Zeros", "config": {}}, "kernel_regularizer": null, "bias_regularizer": null, "activity_regularizer": null, "kernel_constraint": null, "bias_constraint": null}, "name": "conv2d_138", "inbound_nodes": [[["mixed4", 0, 0, {}]]]}, {"class_name": "BatchNormalization", "config": {"name": "batch_normalization_140", "trainable": true, "dtype": "float32", "axis": [3], "momentum": 0.99, "epsilon": 0.001, "center": true, "scale": false, "beta_initializer": {"class_name": "Zeros", "config": {}}, "gamma_initializer": {"class_name": "Ones", "config": {}}, "moving_mean_initializer": {"class_name": "Zeros", "config": {}}, "moving_variance_initializer": {"class_name": "Ones", "config": {}}, "beta_regularizer": null, "gamma_regularizer": null, "beta_constraint": null, "gamma_constraint": null}, "name": "batch_normalization_140", "inbound_nodes": [[["conv2d_138", 0, 0, {}]]]}, {"class_name": "Activation", "config": {"name": "activation_138", "trainable": true, "dtype": "float32", "activation": "relu"}, "name": "activation_138", "inbound_nodes": [[["batch_normalization_140", 0, 0, {}]]]}, {"class_name": "Conv2D", "config": {"name": "conv2d_139", "trainable": true, "dtype": "float32", "filters": 160, "kernel_size": [7, 1], "strides": [1, 1], "padding": "same", "data_format": "channels_last", "dilation_rate": [1, 1], "activation": "linear", "use_bias": false, "kernel_initializer": {"class_name": "GlorotUniform", "config": {"seed": null}}, "bias_initializer": {"class_name": "Zeros", "config": {}}, "kernel_regularizer": null, "bias_regularizer": null, "activity_regularizer": null, "kernel_constraint": null, "bias_constraint": null}, "name": "conv2d_139", "inbound_nodes": [[["activation_138", 0, 0, {}]]]}, {"class_name": "BatchNormalization", "config": {"name": "batch_normalization_141", "trainable": true, "dtype": "float32", "axis": [3], "momentum": 0.99, "epsilon": 0.001, "center": true, "scale": false, "beta_initializer": {"class_name": "Zeros", "config": {}}, "gamma_initializer": {"class_name": "Ones", "config": {}}, "moving_mean_initializer": {"class_name": "Zeros", "config": {}}, "moving_variance_initializer": {"class_name": "Ones", "config": {}}, "beta_regularizer": null, "gamma_regularizer": null, "beta_constraint": null, "gamma_constraint": null}, "name": "batch_normalization_141", "inbound_nodes": [[["conv2d_139", 0, 0, {}]]]}, {"class_name": "Activation", "config": {"name": "activation_139", "trainable": true, "dtype": "float32", "activation": "relu"}, "name": "activation_139", "inbound_nodes": [[["batch_normalization_141", 0, 0, {}]]]}, {"class_name": "Conv2D", "config": {"name": "conv2d_135", "trainable": true, "dtype": "float32", "filters": 160, "kernel_size": [1, 1], "strides": [1, 1], "padding": "same", "data_format": "channels_last", "dilation_rate": [1, 1], "activation": "linear", "use_bias": false, "kernel_initializer": {"class_name": "GlorotUniform", "config": {"seed": null}}, "bias_initializer": {"class_name": "Zeros", "config": {}}, "kernel_regularizer": null, "bias_regularizer": null, "activity_regularizer": null, "kernel_constraint": null, "bias_constraint": null}, "name": "conv2d_135", "inbound_nodes": [[["mixed4", 0, 0, {}]]]}, {"class_name": "Conv2D", "config": {"name": "conv2d_140", "trainable": true, "dtype": "float32", "filters": 160, "kernel_size": [1, 7], "strides": [1, 1], "padding": "same", "data_format": "channels_last", "dilation_rate": [1, 1], "activation": "linear", "use_bias": false, "kernel_initializer": {"class_name": "GlorotUniform", "config": {"seed": null}}, "bias_initializer": {"class_name": "Zeros", "config": {}}, "kernel_regularizer": null, "bias_regularizer": null, "activity_regularizer": null, "kernel_constraint": null, "bias_constraint": null}, "name": "conv2d_140", "inbound_nodes": [[["activation_139", 0, 0, {}]]]}, {"class_name": "BatchNormalization", "config": {"name": "batch_normalization_137", "trainable": true, "dtype": "float32", "axis": [3], "momentum": 0.99, "epsilon": 0.001, "center": true, "scale": false, "beta_initializer": {"class_name": "Zeros", "config": {}}, "gamma_initializer": {"class_name": "Ones", "config": {}}, "moving_mean_initializer": {"class_name": "Zeros", "config": {}}, "moving_variance_initializer": {"class_name": "Ones", "config": {}}, "beta_regularizer": null, "gamma_regularizer": null, "beta_constraint": null, "gamma_constraint": null}, "name": "batch_normalization_137", "inbound_nodes": [[["conv2d_135", 0, 0, {}]]]}, {"class_name": "BatchNormalization", "config": {"name": "batch_normalization_142", "trainable": true, "dtype": "float32", "axis": [3], "momentum": 0.99, "epsilon": 0.001, "center": true, "scale": false, "beta_initializer": {"class_name": "Zeros", "config": {}}, "gamma_initializer": {"class_name": "Ones", "config": {}}, "moving_mean_initializer": {"class_name": "Zeros", "config": {}}, "moving_variance_initializer": {"class_name": "Ones", "config": {}}, "beta_regularizer": null, "gamma_regularizer": null, "beta_constraint": null, "gamma_constraint": null}, "name": "batch_normalization_142", "inbound_nodes": [[["conv2d_140", 0, 0, {}]]]}, {"class_name": "Activation", "config": {"name": "activation_135", "trainable": true, "dtype": "float32", "activation": "relu"}, "name": "activation_135", "inbound_nodes": [[["batch_normalization_137", 0, 0, {}]]]}, {"class_name": "Activation", "config": {"name": "activation_140", "trainable": true, "dtype": "float32", "activation": "relu"}, "name": "activation_140", "inbound_nodes": [[["batch_normalization_142", 0, 0, {}]]]}, {"class_name": "Conv2D", "config": {"name": "conv2d_136", "trainable": true, "dtype": "float32", "filters": 160, "kernel_size": [1, 7], "strides": [1, 1], "padding": "same", "data_format": "channels_last", "dilation_rate": [1, 1], "activation": "linear", "use_bias": false, "kernel_initializer": {"class_name": "GlorotUniform", "config": {"seed": null}}, "bias_initializer": {"class_name": "Zeros", "config": {}}, "kernel_regularizer": null, "bias_regularizer": null, "activity_regularizer": null, "kernel_constraint": null, "bias_constraint": null}, "name": "conv2d_136", "inbound_nodes": [[["activation_135", 0, 0, {}]]]}, {"class_name": "Conv2D", "config": {"name": "conv2d_141", "trainable": true, "dtype": "float32", "filters": 160, "kernel_size": [7, 1], "strides": [1, 1], "padding": "same", "data_format": "channels_last", "dilation_rate": [1, 1], "activation": "linear", "use_bias": false, "kernel_initializer": {"class_name": "GlorotUniform", "config": {"seed": null}}, "bias_initializer": {"class_name": "Zeros", "config": {}}, "kernel_regularizer": null, "bias_regularizer": null, "activity_regularizer": null, "kernel_constraint": null, "bias_constraint": null}, "name": "conv2d_141", "inbound_nodes": [[["activation_140", 0, 0, {}]]]}, {"class_name": "BatchNormalization", "config": {"name": "batch_normalization_138", "trainable": true, "dtype": "float32", "axis": [3], "momentum": 0.99, "epsilon": 0.001, "center": true, "scale": false, "beta_initializer": {"class_name": "Zeros", "config": {}}, "gamma_initializer": {"class_name": "Ones", "config": {}}, "moving_mean_initializer": {"class_name": "Zeros", "config": {}}, "moving_variance_initializer": {"class_name": "Ones", "config": {}}, "beta_regularizer": null, "gamma_regularizer": null, "beta_constraint": null, "gamma_constraint": null}, "name": "batch_normalization_138", "inbound_nodes": [[["conv2d_136", 0, 0, {}]]]}, {"class_name": "BatchNormalization", "config": {"name": "batch_normalization_143", "trainable": true, "dtype": "float32", "axis": [3], "momentum": 0.99, "epsilon": 0.001, "center": true, "scale": false, "beta_initializer": {"class_name": "Zeros", "config": {}}, "gamma_initializer": {"class_name": "Ones", "config": {}}, "moving_mean_initializer": {"class_name": "Zeros", "config": {}}, "moving_variance_initializer": {"class_name": "Ones", "config": {}}, "beta_regularizer": null, "gamma_regularizer": null, "beta_constraint": null, "gamma_constraint": null}, "name": "batch_normalization_143", "inbound_nodes": [[["conv2d_141", 0, 0, {}]]]}, {"class_name": "Activation", "config": {"name": "activation_136", "trainable": true, "dtype": "float32", "activation": "relu"}, "name": "activation_136", "inbound_nodes": [[["batch_normalization_138", 0, 0, {}]]]}, {"class_name": "Activation", "config": {"name": "activation_141", "trainable": true, "dtype": "float32", "activation": "relu"}, "name": "activation_141", "inbound_nodes": [[["batch_normalization_143", 0, 0, {}]]]}, {"class_name": "AveragePooling2D", "config": {"name": "average_pooling2d_13", "trainable": true, "dtype": "float32", "pool_size": [3, 3], "padding": "same", "strides": [1, 1], "data_format": "channels_last"}, "name": "average_pooling2d_13", "inbound_nodes": [[["mixed4", 0, 0, {}]]]}, {"class_name": "Conv2D", "config": {"name": "conv2d_134", "trainable": true, "dtype": "float32", "filters": 192, "kernel_size": [1, 1], "strides": [1, 1], "padding": "same", "data_format": "channels_last", "dilation_rate": [1, 1], "activation": "linear", "use_bias": false, "kernel_initializer": {"class_name": "GlorotUniform", "config": {"seed": null}}, "bias_initializer": {"class_name": "Zeros", "config": {}}, "kernel_regularizer": null, "bias_regularizer": null, "activity_regularizer": null, "kernel_constraint": null, "bias_constraint": null}, "name": "conv2d_134", "inbound_nodes": [[["mixed4", 0, 0, {}]]]}, {"class_name": "Conv2D", "config": {"name": "conv2d_137", "trainable": true, "dtype": "float32", "filters": 192, "kernel_size": [7, 1], "strides": [1, 1], "padding": "same", "data_format": "channels_last", "dilation_rate": [1, 1], "activation": "linear", "use_bias": false, "kernel_initializer": {"class_name": "GlorotUniform", "config": {"seed": null}}, "bias_initializer": {"class_name": "Zeros", "config": {}}, "kernel_regularizer": null, "bias_regularizer": null, "activity_regularizer": null, "kernel_constraint": null, "bias_constraint": null}, "name": "conv2d_137", "inbound_nodes": [[["activation_136", 0, 0, {}]]]}, {"class_name": "Conv2D", "config": {"name": "conv2d_142", "trainable": true, "dtype": "float32", "filters": 192, "kernel_size": [1, 7], "strides": [1, 1], "padding": "same", "data_format": "channels_last", "dilation_rate": [1, 1], "activation": "linear", "use_bias": false, "kernel_initializer": {"class_name": "GlorotUniform", "config": {"seed": null}}, "bias_initializer": {"class_name": "Zeros", "config": {}}, "kernel_regularizer": null, "bias_regularizer": null, "activity_regularizer": null, "kernel_constraint": null, "bias_constraint": null}, "name": "conv2d_142", "inbound_nodes": [[["activation_141", 0, 0, {}]]]}, {"class_name": "Conv2D", "config": {"name": "conv2d_143", "trainable": true, "dtype": "float32", "filters": 192, "kernel_size": [1, 1], "strides": [1, 1], "padding": "same", "data_format": "channels_last", "dilation_rate": [1, 1], "activation": "linear", "use_bias": false, "kernel_initializer": {"class_name": "GlorotUniform", "config": {"seed": null}}, "bias_initializer": {"class_name": "Zeros", "config": {}}, "kernel_regularizer": null, "bias_regularizer": null, "activity_regularizer": null, "kernel_constraint": null, "bias_constraint": null}, "name": "conv2d_143", "inbound_nodes": [[["average_pooling2d_13", 0, 0, {}]]]}, {"class_name": "BatchNormalization", "config": {"name": "batch_normalization_136", "trainable": true, "dtype": "float32", "axis": [3], "momentum": 0.99, "epsilon": 0.001, "center": true, "scale": false, "beta_initializer": {"class_name": "Zeros", "config": {}}, "gamma_initializer": {"class_name": "Ones", "config": {}}, "moving_mean_initializer": {"class_name": "Zeros", "config": {}}, "moving_variance_initializer": {"class_name": "Ones", "config": {}}, "beta_regularizer": null, "gamma_regularizer": null, "beta_constraint": null, "gamma_constraint": null}, "name": "batch_normalization_136", "inbound_nodes": [[["conv2d_134", 0, 0, {}]]]}, {"class_name": "BatchNormalization", "config": {"name": "batch_normalization_139", "trainable": true, "dtype": "float32", "axis": [3], "momentum": 0.99, "epsilon": 0.001, "center": true, "scale": false, "beta_initializer": {"class_name": "Zeros", "config": {}}, "gamma_initializer": {"class_name": "Ones", "config": {}}, "moving_mean_initializer": {"class_name": "Zeros", "config": {}}, "moving_variance_initializer": {"class_name": "Ones", "config": {}}, "beta_regularizer": null, "gamma_regularizer": null, "beta_constraint": null, "gamma_constraint": null}, "name": "batch_normalization_139", "inbound_nodes": [[["conv2d_137", 0, 0, {}]]]}, {"class_name": "BatchNormalization", "config": {"name": "batch_normalization_144", "trainable": true, "dtype": "float32", "axis": [3], "momentum": 0.99, "epsilon": 0.001, "center": true, "scale": false, "beta_initializer": {"class_name": "Zeros", "config": {}}, "gamma_initializer": {"class_name": "Ones", "config": {}}, "moving_mean_initializer": {"class_name": "Zeros", "config": {}}, "moving_variance_initializer": {"class_name": "Ones", "config": {}}, "beta_regularizer": null, "gamma_regularizer": null, "beta_constraint": null, "gamma_constraint": null}, "name": "batch_normalization_144", "inbound_nodes": [[["conv2d_142", 0, 0, {}]]]}, {"class_name": "BatchNormalization", "config": {"name": "batch_normalization_145", "trainable": true, "dtype": "float32", "axis": [3], "momentum": 0.99, "epsilon": 0.001, "center": true, "scale": false, "beta_initializer": {"class_name": "Zeros", "config": {}}, "gamma_initializer": {"class_name": "Ones", "config": {}}, "moving_mean_initializer": {"class_name": "Zeros", "config": {}}, "moving_variance_initializer": {"class_name": "Ones", "config": {}}, "beta_regularizer": null, "gamma_regularizer": null, "beta_constraint": null, "gamma_constraint": null}, "name": "batch_normalization_145", "inbound_nodes": [[["conv2d_143", 0, 0, {}]]]}, {"class_name": "Activation", "config": {"name": "activation_134", "trainable": true, "dtype": "float32", "activation": "relu"}, "name": "activation_134", "inbound_nodes": [[["batch_normalization_136", 0, 0, {}]]]}, {"class_name": "Activation", "config": {"name": "activation_137", "trainable": true, "dtype": "float32", "activation": "relu"}, "name": "activation_137", "inbound_nodes": [[["batch_normalization_139", 0, 0, {}]]]}, {"class_name": "Activation", "config": {"name": "activation_142", "trainable": true, "dtype": "float32", "activation": "relu"}, "name": "activation_142", "inbound_nodes": [[["batch_normalization_144", 0, 0, {}]]]}, {"class_name": "Activation", "config": {"name": "activation_143", "trainable": true, "dtype": "float32", "activation": "relu"}, "name": "activation_143", "inbound_nodes": [[["batch_normalization_145", 0, 0, {}]]]}, {"class_name": "Concatenate", "config": {"name": "mixed5", "trainable": true, "dtype": "float32", "axis": 3}, "name": "mixed5", "inbound_nodes": [[["activation_134", 0, 0, {}], ["activation_137", 0, 0, {}], ["activation_142", 0, 0, {}], ["activation_143", 0, 0, {}]]]}, {"class_name": "Conv2D", "config": {"name": "conv2d_148", "trainable": true, "dtype": "float32", "filters": 160, "kernel_size": [1, 1], "strides": [1, 1], "padding": "same", "data_format": "channels_last", "dilation_rate": [1, 1], "activation": "linear", "use_bias": false, "kernel_initializer": {"class_name": "GlorotUniform", "config": {"seed": null}}, "bias_initializer": {"class_name": "Zeros", "config": {}}, "kernel_regularizer": null, "bias_regularizer": null, "activity_regularizer": null, "kernel_constraint": null, "bias_constraint": null}, "name": "conv2d_148", "inbound_nodes": [[["mixed5", 0, 0, {}]]]}, {"class_name": "BatchNormalization", "config": {"name": "batch_normalization_150", "trainable": true, "dtype": "float32", "axis": [3], "momentum": 0.99, "epsilon": 0.001, "center": true, "scale": false, "beta_initializer": {"class_name": "Zeros", "config": {}}, "gamma_initializer": {"class_name": "Ones", "config": {}}, "moving_mean_initializer": {"class_name": "Zeros", "config": {}}, "moving_variance_initializer": {"class_name": "Ones", "config": {}}, "beta_regularizer": null, "gamma_regularizer": null, "beta_constraint": null, "gamma_constraint": null}, "name": "batch_normalization_150", "inbound_nodes": [[["conv2d_148", 0, 0, {}]]]}, {"class_name": "Activation", "config": {"name": "activation_148", "trainable": true, "dtype": "float32", "activation": "relu"}, "name": "activation_148", "inbound_nodes": [[["batch_normalization_150", 0, 0, {}]]]}, {"class_name": "Conv2D", "config": {"name": "conv2d_149", "trainable": true, "dtype": "float32", "filters": 160, "kernel_size": [7, 1], "strides": [1, 1], "padding": "same", "data_format": "channels_last", "dilation_rate": [1, 1], "activation": "linear", "use_bias": false, "kernel_initializer": {"class_name": "GlorotUniform", "config": {"seed": null}}, "bias_initializer": {"class_name": "Zeros", "config": {}}, "kernel_regularizer": null, "bias_regularizer": null, "activity_regularizer": null, "kernel_constraint": null, "bias_constraint": null}, "name": "conv2d_149", "inbound_nodes": [[["activation_148", 0, 0, {}]]]}, {"class_name": "BatchNormalization", "config": {"name": "batch_normalization_151", "trainable": true, "dtype": "float32", "axis": [3], "momentum": 0.99, "epsilon": 0.001, "center": true, "scale": false, "beta_initializer": {"class_name": "Zeros", "config": {}}, "gamma_initializer": {"class_name": "Ones", "config": {}}, "moving_mean_initializer": {"class_name": "Zeros", "config": {}}, "moving_variance_initializer": {"class_name": "Ones", "config": {}}, "beta_regularizer": null, "gamma_regularizer": null, "beta_constraint": null, "gamma_constraint": null}, "name": "batch_normalization_151", "inbound_nodes": [[["conv2d_149", 0, 0, {}]]]}, {"class_name": "Activation", "config": {"name": "activation_149", "trainable": true, "dtype": "float32", "activation": "relu"}, "name": "activation_149", "inbound_nodes": [[["batch_normalization_151", 0, 0, {}]]]}, {"class_name": "Conv2D", "config": {"name": "conv2d_145", "trainable": true, "dtype": "float32", "filters": 160, "kernel_size": [1, 1], "strides": [1, 1], "padding": "same", "data_format": "channels_last", "dilation_rate": [1, 1], "activation": "linear", "use_bias": false, "kernel_initializer": {"class_name": "GlorotUniform", "config": {"seed": null}}, "bias_initializer": {"class_name": "Zeros", "config": {}}, "kernel_regularizer": null, "bias_regularizer": null, "activity_regularizer": null, "kernel_constraint": null, "bias_constraint": null}, "name": "conv2d_145", "inbound_nodes": [[["mixed5", 0, 0, {}]]]}, {"class_name": "Conv2D", "config": {"name": "conv2d_150", "trainable": true, "dtype": "float32", "filters": 160, "kernel_size": [1, 7], "strides": [1, 1], "padding": "same", "data_format": "channels_last", "dilation_rate": [1, 1], "activation": "linear", "use_bias": false, "kernel_initializer": {"class_name": "GlorotUniform", "config": {"seed": null}}, "bias_initializer": {"class_name": "Zeros", "config": {}}, "kernel_regularizer": null, "bias_regularizer": null, "activity_regularizer": null, "kernel_constraint": null, "bias_constraint": null}, "name": "conv2d_150", "inbound_nodes": [[["activation_149", 0, 0, {}]]]}, {"class_name": "BatchNormalization", "config": {"name": "batch_normalization_147", "trainable": true, "dtype": "float32", "axis": [3], "momentum": 0.99, "epsilon": 0.001, "center": true, "scale": false, "beta_initializer": {"class_name": "Zeros", "config": {}}, "gamma_initializer": {"class_name": "Ones", "config": {}}, "moving_mean_initializer": {"class_name": "Zeros", "config": {}}, "moving_variance_initializer": {"class_name": "Ones", "config": {}}, "beta_regularizer": null, "gamma_regularizer": null, "beta_constraint": null, "gamma_constraint": null}, "name": "batch_normalization_147", "inbound_nodes": [[["conv2d_145", 0, 0, {}]]]}, {"class_name": "BatchNormalization", "config": {"name": "batch_normalization_152", "trainable": true, "dtype": "float32", "axis": [3], "momentum": 0.99, "epsilon": 0.001, "center": true, "scale": false, "beta_initializer": {"class_name": "Zeros", "config": {}}, "gamma_initializer": {"class_name": "Ones", "config": {}}, "moving_mean_initializer": {"class_name": "Zeros", "config": {}}, "moving_variance_initializer": {"class_name": "Ones", "config": {}}, "beta_regularizer": null, "gamma_regularizer": null, "beta_constraint": null, "gamma_constraint": null}, "name": "batch_normalization_152", "inbound_nodes": [[["conv2d_150", 0, 0, {}]]]}, {"class_name": "Activation", "config": {"name": "activation_145", "trainable": true, "dtype": "float32", "activation": "relu"}, "name": "activation_145", "inbound_nodes": [[["batch_normalization_147", 0, 0, {}]]]}, {"class_name": "Activation", "config": {"name": "activation_150", "trainable": true, "dtype": "float32", "activation": "relu"}, "name": "activation_150", "inbound_nodes": [[["batch_normalization_152", 0, 0, {}]]]}, {"class_name": "Conv2D", "config": {"name": "conv2d_146", "trainable": true, "dtype": "float32", "filters": 160, "kernel_size": [1, 7], "strides": [1, 1], "padding": "same", "data_format": "channels_last", "dilation_rate": [1, 1], "activation": "linear", "use_bias": false, "kernel_initializer": {"class_name": "GlorotUniform", "config": {"seed": null}}, "bias_initializer": {"class_name": "Zeros", "config": {}}, "kernel_regularizer": null, "bias_regularizer": null, "activity_regularizer": null, "kernel_constraint": null, "bias_constraint": null}, "name": "conv2d_146", "inbound_nodes": [[["activation_145", 0, 0, {}]]]}, {"class_name": "Conv2D", "config": {"name": "conv2d_151", "trainable": true, "dtype": "float32", "filters": 160, "kernel_size": [7, 1], "strides": [1, 1], "padding": "same", "data_format": "channels_last", "dilation_rate": [1, 1], "activation": "linear", "use_bias": false, "kernel_initializer": {"class_name": "GlorotUniform", "config": {"seed": null}}, "bias_initializer": {"class_name": "Zeros", "config": {}}, "kernel_regularizer": null, "bias_regularizer": null, "activity_regularizer": null, "kernel_constraint": null, "bias_constraint": null}, "name": "conv2d_151", "inbound_nodes": [[["activation_150", 0, 0, {}]]]}, {"class_name": "BatchNormalization", "config": {"name": "batch_normalization_148", "trainable": true, "dtype": "float32", "axis": [3], "momentum": 0.99, "epsilon": 0.001, "center": true, "scale": false, "beta_initializer": {"class_name": "Zeros", "config": {}}, "gamma_initializer": {"class_name": "Ones", "config": {}}, "moving_mean_initializer": {"class_name": "Zeros", "config": {}}, "moving_variance_initializer": {"class_name": "Ones", "config": {}}, "beta_regularizer": null, "gamma_regularizer": null, "beta_constraint": null, "gamma_constraint": null}, "name": "batch_normalization_148", "inbound_nodes": [[["conv2d_146", 0, 0, {}]]]}, {"class_name": "BatchNormalization", "config": {"name": "batch_normalization_153", "trainable": true, "dtype": "float32", "axis": [3], "momentum": 0.99, "epsilon": 0.001, "center": true, "scale": false, "beta_initializer": {"class_name": "Zeros", "config": {}}, "gamma_initializer": {"class_name": "Ones", "config": {}}, "moving_mean_initializer": {"class_name": "Zeros", "config": {}}, "moving_variance_initializer": {"class_name": "Ones", "config": {}}, "beta_regularizer": null, "gamma_regularizer": null, "beta_constraint": null, "gamma_constraint": null}, "name": "batch_normalization_153", "inbound_nodes": [[["conv2d_151", 0, 0, {}]]]}, {"class_name": "Activation", "config": {"name": "activation_146", "trainable": true, "dtype": "float32", "activation": "relu"}, "name": "activation_146", "inbound_nodes": [[["batch_normalization_148", 0, 0, {}]]]}, {"class_name": "Activation", "config": {"name": "activation_151", "trainable": true, "dtype": "float32", "activation": "relu"}, "name": "activation_151", "inbound_nodes": [[["batch_normalization_153", 0, 0, {}]]]}, {"class_name": "AveragePooling2D", "config": {"name": "average_pooling2d_14", "trainable": true, "dtype": "float32", "pool_size": [3, 3], "padding": "same", "strides": [1, 1], "data_format": "channels_last"}, "name": "average_pooling2d_14", "inbound_nodes": [[["mixed5", 0, 0, {}]]]}, {"class_name": "Conv2D", "config": {"name": "conv2d_144", "trainable": true, "dtype": "float32", "filters": 192, "kernel_size": [1, 1], "strides": [1, 1], "padding": "same", "data_format": "channels_last", "dilation_rate": [1, 1], "activation": "linear", "use_bias": false, "kernel_initializer": {"class_name": "GlorotUniform", "config": {"seed": null}}, "bias_initializer": {"class_name": "Zeros", "config": {}}, "kernel_regularizer": null, "bias_regularizer": null, "activity_regularizer": null, "kernel_constraint": null, "bias_constraint": null}, "name": "conv2d_144", "inbound_nodes": [[["mixed5", 0, 0, {}]]]}, {"class_name": "Conv2D", "config": {"name": "conv2d_147", "trainable": true, "dtype": "float32", "filters": 192, "kernel_size": [7, 1], "strides": [1, 1], "padding": "same", "data_format": "channels_last", "dilation_rate": [1, 1], "activation": "linear", "use_bias": false, "kernel_initializer": {"class_name": "GlorotUniform", "config": {"seed": null}}, "bias_initializer": {"class_name": "Zeros", "config": {}}, "kernel_regularizer": null, "bias_regularizer": null, "activity_regularizer": null, "kernel_constraint": null, "bias_constraint": null}, "name": "conv2d_147", "inbound_nodes": [[["activation_146", 0, 0, {}]]]}, {"class_name": "Conv2D", "config": {"name": "conv2d_152", "trainable": true, "dtype": "float32", "filters": 192, "kernel_size": [1, 7], "strides": [1, 1], "padding": "same", "data_format": "channels_last", "dilation_rate": [1, 1], "activation": "linear", "use_bias": false, "kernel_initializer": {"class_name": "GlorotUniform", "config": {"seed": null}}, "bias_initializer": {"class_name": "Zeros", "config": {}}, "kernel_regularizer": null, "bias_regularizer": null, "activity_regularizer": null, "kernel_constraint": null, "bias_constraint": null}, "name": "conv2d_152", "inbound_nodes": [[["activation_151", 0, 0, {}]]]}, {"class_name": "Conv2D", "config": {"name": "conv2d_153", "trainable": true, "dtype": "float32", "filters": 192, "kernel_size": [1, 1], "strides": [1, 1], "padding": "same", "data_format": "channels_last", "dilation_rate": [1, 1], "activation": "linear", "use_bias": false, "kernel_initializer": {"class_name": "GlorotUniform", "config": {"seed": null}}, "bias_initializer": {"class_name": "Zeros", "config": {}}, "kernel_regularizer": null, "bias_regularizer": null, "activity_regularizer": null, "kernel_constraint": null, "bias_constraint": null}, "name": "conv2d_153", "inbound_nodes": [[["average_pooling2d_14", 0, 0, {}]]]}, {"class_name": "BatchNormalization", "config": {"name": "batch_normalization_146", "trainable": true, "dtype": "float32", "axis": [3], "momentum": 0.99, "epsilon": 0.001, "center": true, "scale": false, "beta_initializer": {"class_name": "Zeros", "config": {}}, "gamma_initializer": {"class_name": "Ones", "config": {}}, "moving_mean_initializer": {"class_name": "Zeros", "config": {}}, "moving_variance_initializer": {"class_name": "Ones", "config": {}}, "beta_regularizer": null, "gamma_regularizer": null, "beta_constraint": null, "gamma_constraint": null}, "name": "batch_normalization_146", "inbound_nodes": [[["conv2d_144", 0, 0, {}]]]}, {"class_name": "BatchNormalization", "config": {"name": "batch_normalization_149", "trainable": true, "dtype": "float32", "axis": [3], "momentum": 0.99, "epsilon": 0.001, "center": true, "scale": false, "beta_initializer": {"class_name": "Zeros", "config": {}}, "gamma_initializer": {"class_name": "Ones", "config": {}}, "moving_mean_initializer": {"class_name": "Zeros", "config": {}}, "moving_variance_initializer": {"class_name": "Ones", "config": {}}, "beta_regularizer": null, "gamma_regularizer": null, "beta_constraint": null, "gamma_constraint": null}, "name": "batch_normalization_149", "inbound_nodes": [[["conv2d_147", 0, 0, {}]]]}, {"class_name": "BatchNormalization", "config": {"name": "batch_normalization_154", "trainable": true, "dtype": "float32", "axis": [3], "momentum": 0.99, "epsilon": 0.001, "center": true, "scale": false, "beta_initializer": {"class_name": "Zeros", "config": {}}, "gamma_initializer": {"class_name": "Ones", "config": {}}, "moving_mean_initializer": {"class_name": "Zeros", "config": {}}, "moving_variance_initializer": {"class_name": "Ones", "config": {}}, "beta_regularizer": null, "gamma_regularizer": null, "beta_constraint": null, "gamma_constraint": null}, "name": "batch_normalization_154", "inbound_nodes": [[["conv2d_152", 0, 0, {}]]]}, {"class_name": "BatchNormalization", "config": {"name": "batch_normalization_155", "trainable": true, "dtype": "float32", "axis": [3], "momentum": 0.99, "epsilon": 0.001, "center": true, "scale": false, "beta_initializer": {"class_name": "Zeros", "config": {}}, "gamma_initializer": {"class_name": "Ones", "config": {}}, "moving_mean_initializer": {"class_name": "Zeros", "config": {}}, "moving_variance_initializer": {"class_name": "Ones", "config": {}}, "beta_regularizer": null, "gamma_regularizer": null, "beta_constraint": null, "gamma_constraint": null}, "name": "batch_normalization_155", "inbound_nodes": [[["conv2d_153", 0, 0, {}]]]}, {"class_name": "Activation", "config": {"name": "activation_144", "trainable": true, "dtype": "float32", "activation": "relu"}, "name": "activation_144", "inbound_nodes": [[["batch_normalization_146", 0, 0, {}]]]}, {"class_name": "Activation", "config": {"name": "activation_147", "trainable": true, "dtype": "float32", "activation": "relu"}, "name": "activation_147", "inbound_nodes": [[["batch_normalization_149", 0, 0, {}]]]}, {"class_name": "Activation", "config": {"name": "activation_152", "trainable": true, "dtype": "float32", "activation": "relu"}, "name": "activation_152", "inbound_nodes": [[["batch_normalization_154", 0, 0, {}]]]}, {"class_name": "Activation", "config": {"name": "activation_153", "trainable": true, "dtype": "float32", "activation": "relu"}, "name": "activation_153", "inbound_nodes": [[["batch_normalization_155", 0, 0, {}]]]}, {"class_name": "Concatenate", "config": {"name": "mixed6", "trainable": true, "dtype": "float32", "axis": 3}, "name": "mixed6", "inbound_nodes": [[["activation_144", 0, 0, {}], ["activation_147", 0, 0, {}], ["activation_152", 0, 0, {}], ["activation_153", 0, 0, {}]]]}, {"class_name": "Conv2D", "config": {"name": "conv2d_158", "trainable": true, "dtype": "float32", "filters": 192, "kernel_size": [1, 1], "strides": [1, 1], "padding": "same", "data_format": "channels_last", "dilation_rate": [1, 1], "activation": "linear", "use_bias": false, "kernel_initializer": {"class_name": "GlorotUniform", "config": {"seed": null}}, "bias_initializer": {"class_name": "Zeros", "config": {}}, "kernel_regularizer": null, "bias_regularizer": null, "activity_regularizer": null, "kernel_constraint": null, "bias_constraint": null}, "name": "conv2d_158", "inbound_nodes": [[["mixed6", 0, 0, {}]]]}, {"class_name": "BatchNormalization", "config": {"name": "batch_normalization_160", "trainable": true, "dtype": "float32", "axis": [3], "momentum": 0.99, "epsilon": 0.001, "center": true, "scale": false, "beta_initializer": {"class_name": "Zeros", "config": {}}, "gamma_initializer": {"class_name": "Ones", "config": {}}, "moving_mean_initializer": {"class_name": "Zeros", "config": {}}, "moving_variance_initializer": {"class_name": "Ones", "config": {}}, "beta_regularizer": null, "gamma_regularizer": null, "beta_constraint": null, "gamma_constraint": null}, "name": "batch_normalization_160", "inbound_nodes": [[["conv2d_158", 0, 0, {}]]]}, {"class_name": "Activation", "config": {"name": "activation_158", "trainable": true, "dtype": "float32", "activation": "relu"}, "name": "activation_158", "inbound_nodes": [[["batch_normalization_160", 0, 0, {}]]]}, {"class_name": "Conv2D", "config": {"name": "conv2d_159", "trainable": true, "dtype": "float32", "filters": 192, "kernel_size": [7, 1], "strides": [1, 1], "padding": "same", "data_format": "channels_last", "dilation_rate": [1, 1], "activation": "linear", "use_bias": false, "kernel_initializer": {"class_name": "GlorotUniform", "config": {"seed": null}}, "bias_initializer": {"class_name": "Zeros", "config": {}}, "kernel_regularizer": null, "bias_regularizer": null, "activity_regularizer": null, "kernel_constraint": null, "bias_constraint": null}, "name": "conv2d_159", "inbound_nodes": [[["activation_158", 0, 0, {}]]]}, {"class_name": "BatchNormalization", "config": {"name": "batch_normalization_161", "trainable": true, "dtype": "float32", "axis": [3], "momentum": 0.99, "epsilon": 0.001, "center": true, "scale": false, "beta_initializer": {"class_name": "Zeros", "config": {}}, "gamma_initializer": {"class_name": "Ones", "config": {}}, "moving_mean_initializer": {"class_name": "Zeros", "config": {}}, "moving_variance_initializer": {"class_name": "Ones", "config": {}}, "beta_regularizer": null, "gamma_regularizer": null, "beta_constraint": null, "gamma_constraint": null}, "name": "batch_normalization_161", "inbound_nodes": [[["conv2d_159", 0, 0, {}]]]}, {"class_name": "Activation", "config": {"name": "activation_159", "trainable": true, "dtype": "float32", "activation": "relu"}, "name": "activation_159", "inbound_nodes": [[["batch_normalization_161", 0, 0, {}]]]}, {"class_name": "Conv2D", "config": {"name": "conv2d_155", "trainable": true, "dtype": "float32", "filters": 192, "kernel_size": [1, 1], "strides": [1, 1], "padding": "same", "data_format": "channels_last", "dilation_rate": [1, 1], "activation": "linear", "use_bias": false, "kernel_initializer": {"class_name": "GlorotUniform", "config": {"seed": null}}, "bias_initializer": {"class_name": "Zeros", "config": {}}, "kernel_regularizer": null, "bias_regularizer": null, "activity_regularizer": null, "kernel_constraint": null, "bias_constraint": null}, "name": "conv2d_155", "inbound_nodes": [[["mixed6", 0, 0, {}]]]}, {"class_name": "Conv2D", "config": {"name": "conv2d_160", "trainable": true, "dtype": "float32", "filters": 192, "kernel_size": [1, 7], "strides": [1, 1], "padding": "same", "data_format": "channels_last", "dilation_rate": [1, 1], "activation": "linear", "use_bias": false, "kernel_initializer": {"class_name": "GlorotUniform", "config": {"seed": null}}, "bias_initializer": {"class_name": "Zeros", "config": {}}, "kernel_regularizer": null, "bias_regularizer": null, "activity_regularizer": null, "kernel_constraint": null, "bias_constraint": null}, "name": "conv2d_160", "inbound_nodes": [[["activation_159", 0, 0, {}]]]}, {"class_name": "BatchNormalization", "config": {"name": "batch_normalization_157", "trainable": true, "dtype": "float32", "axis": [3], "momentum": 0.99, "epsilon": 0.001, "center": true, "scale": false, "beta_initializer": {"class_name": "Zeros", "config": {}}, "gamma_initializer": {"class_name": "Ones", "config": {}}, "moving_mean_initializer": {"class_name": "Zeros", "config": {}}, "moving_variance_initializer": {"class_name": "Ones", "config": {}}, "beta_regularizer": null, "gamma_regularizer": null, "beta_constraint": null, "gamma_constraint": null}, "name": "batch_normalization_157", "inbound_nodes": [[["conv2d_155", 0, 0, {}]]]}, {"class_name": "BatchNormalization", "config": {"name": "batch_normalization_162", "trainable": true, "dtype": "float32", "axis": [3], "momentum": 0.99, "epsilon": 0.001, "center": true, "scale": false, "beta_initializer": {"class_name": "Zeros", "config": {}}, "gamma_initializer": {"class_name": "Ones", "config": {}}, "moving_mean_initializer": {"class_name": "Zeros", "config": {}}, "moving_variance_initializer": {"class_name": "Ones", "config": {}}, "beta_regularizer": null, "gamma_regularizer": null, "beta_constraint": null, "gamma_constraint": null}, "name": "batch_normalization_162", "inbound_nodes": [[["conv2d_160", 0, 0, {}]]]}, {"class_name": "Activation", "config": {"name": "activation_155", "trainable": true, "dtype": "float32", "activation": "relu"}, "name": "activation_155", "inbound_nodes": [[["batch_normalization_157", 0, 0, {}]]]}, {"class_name": "Activation", "config": {"name": "activation_160", "trainable": true, "dtype": "float32", "activation": "relu"}, "name": "activation_160", "inbound_nodes": [[["batch_normalization_162", 0, 0, {}]]]}, {"class_name": "Conv2D", "config": {"name": "conv2d_156", "trainable": true, "dtype": "float32", "filters": 192, "kernel_size": [1, 7], "strides": [1, 1], "padding": "same", "data_format": "channels_last", "dilation_rate": [1, 1], "activation": "linear", "use_bias": false, "kernel_initializer": {"class_name": "GlorotUniform", "config": {"seed": null}}, "bias_initializer": {"class_name": "Zeros", "config": {}}, "kernel_regularizer": null, "bias_regularizer": null, "activity_regularizer": null, "kernel_constraint": null, "bias_constraint": null}, "name": "conv2d_156", "inbound_nodes": [[["activation_155", 0, 0, {}]]]}, {"class_name": "Conv2D", "config": {"name": "conv2d_161", "trainable": true, "dtype": "float32", "filters": 192, "kernel_size": [7, 1], "strides": [1, 1], "padding": "same", "data_format": "channels_last", "dilation_rate": [1, 1], "activation": "linear", "use_bias": false, "kernel_initializer": {"class_name": "GlorotUniform", "config": {"seed": null}}, "bias_initializer": {"class_name": "Zeros", "config": {}}, "kernel_regularizer": null, "bias_regularizer": null, "activity_regularizer": null, "kernel_constraint": null, "bias_constraint": null}, "name": "conv2d_161", "inbound_nodes": [[["activation_160", 0, 0, {}]]]}, {"class_name": "BatchNormalization", "config": {"name": "batch_normalization_158", "trainable": true, "dtype": "float32", "axis": [3], "momentum": 0.99, "epsilon": 0.001, "center": true, "scale": false, "beta_initializer": {"class_name": "Zeros", "config": {}}, "gamma_initializer": {"class_name": "Ones", "config": {}}, "moving_mean_initializer": {"class_name": "Zeros", "config": {}}, "moving_variance_initializer": {"class_name": "Ones", "config": {}}, "beta_regularizer": null, "gamma_regularizer": null, "beta_constraint": null, "gamma_constraint": null}, "name": "batch_normalization_158", "inbound_nodes": [[["conv2d_156", 0, 0, {}]]]}, {"class_name": "BatchNormalization", "config": {"name": "batch_normalization_163", "trainable": true, "dtype": "float32", "axis": [3], "momentum": 0.99, "epsilon": 0.001, "center": true, "scale": false, "beta_initializer": {"class_name": "Zeros", "config": {}}, "gamma_initializer": {"class_name": "Ones", "config": {}}, "moving_mean_initializer": {"class_name": "Zeros", "config": {}}, "moving_variance_initializer": {"class_name": "Ones", "config": {}}, "beta_regularizer": null, "gamma_regularizer": null, "beta_constraint": null, "gamma_constraint": null}, "name": "batch_normalization_163", "inbound_nodes": [[["conv2d_161", 0, 0, {}]]]}, {"class_name": "Activation", "config": {"name": "activation_156", "trainable": true, "dtype": "float32", "activation": "relu"}, "name": "activation_156", "inbound_nodes": [[["batch_normalization_158", 0, 0, {}]]]}, {"class_name": "Activation", "config": {"name": "activation_161", "trainable": true, "dtype": "float32", "activation": "relu"}, "name": "activation_161", "inbound_nodes": [[["batch_normalization_163", 0, 0, {}]]]}, {"class_name": "AveragePooling2D", "config": {"name": "average_pooling2d_15", "trainable": true, "dtype": "float32", "pool_size": [3, 3], "padding": "same", "strides": [1, 1], "data_format": "channels_last"}, "name": "average_pooling2d_15", "inbound_nodes": [[["mixed6", 0, 0, {}]]]}, {"class_name": "Conv2D", "config": {"name": "conv2d_154", "trainable": true, "dtype": "float32", "filters": 192, "kernel_size": [1, 1], "strides": [1, 1], "padding": "same", "data_format": "channels_last", "dilation_rate": [1, 1], "activation": "linear", "use_bias": false, "kernel_initializer": {"class_name": "GlorotUniform", "config": {"seed": null}}, "bias_initializer": {"class_name": "Zeros", "config": {}}, "kernel_regularizer": null, "bias_regularizer": null, "activity_regularizer": null, "kernel_constraint": null, "bias_constraint": null}, "name": "conv2d_154", "inbound_nodes": [[["mixed6", 0, 0, {}]]]}, {"class_name": "Conv2D", "config": {"name": "conv2d_157", "trainable": true, "dtype": "float32", "filters": 192, "kernel_size": [7, 1], "strides": [1, 1], "padding": "same", "data_format": "channels_last", "dilation_rate": [1, 1], "activation": "linear", "use_bias": false, "kernel_initializer": {"class_name": "GlorotUniform", "config": {"seed": null}}, "bias_initializer": {"class_name": "Zeros", "config": {}}, "kernel_regularizer": null, "bias_regularizer": null, "activity_regularizer": null, "kernel_constraint": null, "bias_constraint": null}, "name": "conv2d_157", "inbound_nodes": [[["activation_156", 0, 0, {}]]]}, {"class_name": "Conv2D", "config": {"name": "conv2d_162", "trainable": true, "dtype": "float32", "filters": 192, "kernel_size": [1, 7], "strides": [1, 1], "padding": "same", "data_format": "channels_last", "dilation_rate": [1, 1], "activation": "linear", "use_bias": false, "kernel_initializer": {"class_name": "GlorotUniform", "config": {"seed": null}}, "bias_initializer": {"class_name": "Zeros", "config": {}}, "kernel_regularizer": null, "bias_regularizer": null, "activity_regularizer": null, "kernel_constraint": null, "bias_constraint": null}, "name": "conv2d_162", "inbound_nodes": [[["activation_161", 0, 0, {}]]]}, {"class_name": "Conv2D", "config": {"name": "conv2d_163", "trainable": true, "dtype": "float32", "filters": 192, "kernel_size": [1, 1], "strides": [1, 1], "padding": "same", "data_format": "channels_last", "dilation_rate": [1, 1], "activation": "linear", "use_bias": false, "kernel_initializer": {"class_name": "GlorotUniform", "config": {"seed": null}}, "bias_initializer": {"class_name": "Zeros", "config": {}}, "kernel_regularizer": null, "bias_regularizer": null, "activity_regularizer": null, "kernel_constraint": null, "bias_constraint": null}, "name": "conv2d_163", "inbound_nodes": [[["average_pooling2d_15", 0, 0, {}]]]}, {"class_name": "BatchNormalization", "config": {"name": "batch_normalization_156", "trainable": true, "dtype": "float32", "axis": [3], "momentum": 0.99, "epsilon": 0.001, "center": true, "scale": false, "beta_initializer": {"class_name": "Zeros", "config": {}}, "gamma_initializer": {"class_name": "Ones", "config": {}}, "moving_mean_initializer": {"class_name": "Zeros", "config": {}}, "moving_variance_initializer": {"class_name": "Ones", "config": {}}, "beta_regularizer": null, "gamma_regularizer": null, "beta_constraint": null, "gamma_constraint": null}, "name": "batch_normalization_156", "inbound_nodes": [[["conv2d_154", 0, 0, {}]]]}, {"class_name": "BatchNormalization", "config": {"name": "batch_normalization_159", "trainable": true, "dtype": "float32", "axis": [3], "momentum": 0.99, "epsilon": 0.001, "center": true, "scale": false, "beta_initializer": {"class_name": "Zeros", "config": {}}, "gamma_initializer": {"class_name": "Ones", "config": {}}, "moving_mean_initializer": {"class_name": "Zeros", "config": {}}, "moving_variance_initializer": {"class_name": "Ones", "config": {}}, "beta_regularizer": null, "gamma_regularizer": null, "beta_constraint": null, "gamma_constraint": null}, "name": "batch_normalization_159", "inbound_nodes": [[["conv2d_157", 0, 0, {}]]]}, {"class_name": "BatchNormalization", "config": {"name": "batch_normalization_164", "trainable": true, "dtype": "float32", "axis": [3], "momentum": 0.99, "epsilon": 0.001, "center": true, "scale": false, "beta_initializer": {"class_name": "Zeros", "config": {}}, "gamma_initializer": {"class_name": "Ones", "config": {}}, "moving_mean_initializer": {"class_name": "Zeros", "config": {}}, "moving_variance_initializer": {"class_name": "Ones", "config": {}}, "beta_regularizer": null, "gamma_regularizer": null, "beta_constraint": null, "gamma_constraint": null}, "name": "batch_normalization_164", "inbound_nodes": [[["conv2d_162", 0, 0, {}]]]}, {"class_name": "BatchNormalization", "config": {"name": "batch_normalization_165", "trainable": true, "dtype": "float32", "axis": [3], "momentum": 0.99, "epsilon": 0.001, "center": true, "scale": false, "beta_initializer": {"class_name": "Zeros", "config": {}}, "gamma_initializer": {"class_name": "Ones", "config": {}}, "moving_mean_initializer": {"class_name": "Zeros", "config": {}}, "moving_variance_initializer": {"class_name": "Ones", "config": {}}, "beta_regularizer": null, "gamma_regularizer": null, "beta_constraint": null, "gamma_constraint": null}, "name": "batch_normalization_165", "inbound_nodes": [[["conv2d_163", 0, 0, {}]]]}, {"class_name": "Activation", "config": {"name": "activation_154", "trainable": true, "dtype": "float32", "activation": "relu"}, "name": "activation_154", "inbound_nodes": [[["batch_normalization_156", 0, 0, {}]]]}, {"class_name": "Activation", "config": {"name": "activation_157", "trainable": true, "dtype": "float32", "activation": "relu"}, "name": "activation_157", "inbound_nodes": [[["batch_normalization_159", 0, 0, {}]]]}, {"class_name": "Activation", "config": {"name": "activation_162", "trainable": true, "dtype": "float32", "activation": "relu"}, "name": "activation_162", "inbound_nodes": [[["batch_normalization_164", 0, 0, {}]]]}, {"class_name": "Activation", "config": {"name": "activation_163", "trainable": true, "dtype": "float32", "activation": "relu"}, "name": "activation_163", "inbound_nodes": [[["batch_normalization_165", 0, 0, {}]]]}, {"class_name": "Concatenate", "config": {"name": "mixed7", "trainable": true, "dtype": "float32", "axis": 3}, "name": "mixed7", "inbound_nodes": [[["activation_154", 0, 0, {}], ["activation_157", 0, 0, {}], ["activation_162", 0, 0, {}], ["activation_163", 0, 0, {}]]]}, {"class_name": "Conv2D", "config": {"name": "conv2d_166", "trainable": true, "dtype": "float32", "filters": 192, "kernel_size": [1, 1], "strides": [1, 1], "padding": "same", "data_format": "channels_last", "dilation_rate": [1, 1], "activation": "linear", "use_bias": false, "kernel_initializer": {"class_name": "GlorotUniform", "config": {"seed": null}}, "bias_initializer": {"class_name": "Zeros", "config": {}}, "kernel_regularizer": null, "bias_regularizer": null, "activity_regularizer": null, "kernel_constraint": null, "bias_constraint": null}, "name": "conv2d_166", "inbound_nodes": [[["mixed7", 0, 0, {}]]]}, {"class_name": "BatchNormalization", "config": {"name": "batch_normalization_168", "trainable": true, "dtype": "float32", "axis": [3], "momentum": 0.99, "epsilon": 0.001, "center": true, "scale": false, "beta_initializer": {"class_name": "Zeros", "config": {}}, "gamma_initializer": {"class_name": "Ones", "config": {}}, "moving_mean_initializer": {"class_name": "Zeros", "config": {}}, "moving_variance_initializer": {"class_name": "Ones", "config": {}}, "beta_regularizer": null, "gamma_regularizer": null, "beta_constraint": null, "gamma_constraint": null}, "name": "batch_normalization_168", "inbound_nodes": [[["conv2d_166", 0, 0, {}]]]}, {"class_name": "Activation", "config": {"name": "activation_166", "trainable": true, "dtype": "float32", "activation": "relu"}, "name": "activation_166", "inbound_nodes": [[["batch_normalization_168", 0, 0, {}]]]}, {"class_name": "Conv2D", "config": {"name": "conv2d_167", "trainable": true, "dtype": "float32", "filters": 192, "kernel_size": [1, 7], "strides": [1, 1], "padding": "same", "data_format": "channels_last", "dilation_rate": [1, 1], "activation": "linear", "use_bias": false, "kernel_initializer": {"class_name": "GlorotUniform", "config": {"seed": null}}, "bias_initializer": {"class_name": "Zeros", "config": {}}, "kernel_regularizer": null, "bias_regularizer": null, "activity_regularizer": null, "kernel_constraint": null, "bias_constraint": null}, "name": "conv2d_167", "inbound_nodes": [[["activation_166", 0, 0, {}]]]}, {"class_name": "BatchNormalization", "config": {"name": "batch_normalization_169", "trainable": true, "dtype": "float32", "axis": [3], "momentum": 0.99, "epsilon": 0.001, "center": true, "scale": false, "beta_initializer": {"class_name": "Zeros", "config": {}}, "gamma_initializer": {"class_name": "Ones", "config": {}}, "moving_mean_initializer": {"class_name": "Zeros", "config": {}}, "moving_variance_initializer": {"class_name": "Ones", "config": {}}, "beta_regularizer": null, "gamma_regularizer": null, "beta_constraint": null, "gamma_constraint": null}, "name": "batch_normalization_169", "inbound_nodes": [[["conv2d_167", 0, 0, {}]]]}, {"class_name": "Activation", "config": {"name": "activation_167", "trainable": true, "dtype": "float32", "activation": "relu"}, "name": "activation_167", "inbound_nodes": [[["batch_normalization_169", 0, 0, {}]]]}, {"class_name": "Conv2D", "config": {"name": "conv2d_164", "trainable": true, "dtype": "float32", "filters": 192, "kernel_size": [1, 1], "strides": [1, 1], "padding": "same", "data_format": "channels_last", "dilation_rate": [1, 1], "activation": "linear", "use_bias": false, "kernel_initializer": {"class_name": "GlorotUniform", "config": {"seed": null}}, "bias_initializer": {"class_name": "Zeros", "config": {}}, "kernel_regularizer": null, "bias_regularizer": null, "activity_regularizer": null, "kernel_constraint": null, "bias_constraint": null}, "name": "conv2d_164", "inbound_nodes": [[["mixed7", 0, 0, {}]]]}, {"class_name": "Conv2D", "config": {"name": "conv2d_168", "trainable": true, "dtype": "float32", "filters": 192, "kernel_size": [7, 1], "strides": [1, 1], "padding": "same", "data_format": "channels_last", "dilation_rate": [1, 1], "activation": "linear", "use_bias": false, "kernel_initializer": {"class_name": "GlorotUniform", "config": {"seed": null}}, "bias_initializer": {"class_name": "Zeros", "config": {}}, "kernel_regularizer": null, "bias_regularizer": null, "activity_regularizer": null, "kernel_constraint": null, "bias_constraint": null}, "name": "conv2d_168", "inbound_nodes": [[["activation_167", 0, 0, {}]]]}, {"class_name": "BatchNormalization", "config": {"name": "batch_normalization_166", "trainable": true, "dtype": "float32", "axis": [3], "momentum": 0.99, "epsilon": 0.001, "center": true, "scale": false, "beta_initializer": {"class_name": "Zeros", "config": {}}, "gamma_initializer": {"class_name": "Ones", "config": {}}, "moving_mean_initializer": {"class_name": "Zeros", "config": {}}, "moving_variance_initializer": {"class_name": "Ones", "config": {}}, "beta_regularizer": null, "gamma_regularizer": null, "beta_constraint": null, "gamma_constraint": null}, "name": "batch_normalization_166", "inbound_nodes": [[["conv2d_164", 0, 0, {}]]]}, {"class_name": "BatchNormalization", "config": {"name": "batch_normalization_170", "trainable": true, "dtype": "float32", "axis": [3], "momentum": 0.99, "epsilon": 0.001, "center": true, "scale": false, "beta_initializer": {"class_name": "Zeros", "config": {}}, "gamma_initializer": {"class_name": "Ones", "config": {}}, "moving_mean_initializer": {"class_name": "Zeros", "config": {}}, "moving_variance_initializer": {"class_name": "Ones", "config": {}}, "beta_regularizer": null, "gamma_regularizer": null, "beta_constraint": null, "gamma_constraint": null}, "name": "batch_normalization_170", "inbound_nodes": [[["conv2d_168", 0, 0, {}]]]}, {"class_name": "Activation", "config": {"name": "activation_164", "trainable": true, "dtype": "float32", "activation": "relu"}, "name": "activation_164", "inbound_nodes": [[["batch_normalization_166", 0, 0, {}]]]}, {"class_name": "Activation", "config": {"name": "activation_168", "trainable": true, "dtype": "float32", "activation": "relu"}, "name": "activation_168", "inbound_nodes": [[["batch_normalization_170", 0, 0, {}]]]}, {"class_name": "Conv2D", "config": {"name": "conv2d_165", "trainable": true, "dtype": "float32", "filters": 320, "kernel_size": [3, 3], "strides": [2, 2], "padding": "valid", "data_format": "channels_last", "dilation_rate": [1, 1], "activation": "linear", "use_bias": false, "kernel_initializer": {"class_name": "GlorotUniform", "config": {"seed": null}}, "bias_initializer": {"class_name": "Zeros", "config": {}}, "kernel_regularizer": null, "bias_regularizer": null, "activity_regularizer": null, "kernel_constraint": null, "bias_constraint": null}, "name": "conv2d_165", "inbound_nodes": [[["activation_164", 0, 0, {}]]]}, {"class_name": "Conv2D", "config": {"name": "conv2d_169", "trainable": true, "dtype": "float32", "filters": 192, "kernel_size": [3, 3], "strides": [2, 2], "padding": "valid", "data_format": "channels_last", "dilation_rate": [1, 1], "activation": "linear", "use_bias": false, "kernel_initializer": {"class_name": "GlorotUniform", "config": {"seed": null}}, "bias_initializer": {"class_name": "Zeros", "config": {}}, "kernel_regularizer": null, "bias_regularizer": null, "activity_regularizer": null, "kernel_constraint": null, "bias_constraint": null}, "name": "conv2d_169", "inbound_nodes": [[["activation_168", 0, 0, {}]]]}, {"class_name": "BatchNormalization", "config": {"name": "batch_normalization_167", "trainable": true, "dtype": "float32", "axis": [3], "momentum": 0.99, "epsilon": 0.001, "center": true, "scale": false, "beta_initializer": {"class_name": "Zeros", "config": {}}, "gamma_initializer": {"class_name": "Ones", "config": {}}, "moving_mean_initializer": {"class_name": "Zeros", "config": {}}, "moving_variance_initializer": {"class_name": "Ones", "config": {}}, "beta_regularizer": null, "gamma_regularizer": null, "beta_constraint": null, "gamma_constraint": null}, "name": "batch_normalization_167", "inbound_nodes": [[["conv2d_165", 0, 0, {}]]]}, {"class_name": "BatchNormalization", "config": {"name": "batch_normalization_171", "trainable": true, "dtype": "float32", "axis": [3], "momentum": 0.99, "epsilon": 0.001, "center": true, "scale": false, "beta_initializer": {"class_name": "Zeros", "config": {}}, "gamma_initializer": {"class_name": "Ones", "config": {}}, "moving_mean_initializer": {"class_name": "Zeros", "config": {}}, "moving_variance_initializer": {"class_name": "Ones", "config": {}}, "beta_regularizer": null, "gamma_regularizer": null, "beta_constraint": null, "gamma_constraint": null}, "name": "batch_normalization_171", "inbound_nodes": [[["conv2d_169", 0, 0, {}]]]}, {"class_name": "Activation", "config": {"name": "activation_165", "trainable": true, "dtype": "float32", "activation": "relu"}, "name": "activation_165", "inbound_nodes": [[["batch_normalization_167", 0, 0, {}]]]}, {"class_name": "Activation", "config": {"name": "activation_169", "trainable": true, "dtype": "float32", "activation": "relu"}, "name": "activation_169", "inbound_nodes": [[["batch_normalization_171", 0, 0, {}]]]}, {"class_name": "MaxPooling2D", "config": {"name": "max_pooling2d_7", "trainable": true, "dtype": "float32", "pool_size": [3, 3], "padding": "valid", "strides": [2, 2], "data_format": "channels_last"}, "name": "max_pooling2d_7", "inbound_nodes": [[["mixed7", 0, 0, {}]]]}, {"class_name": "Concatenate", "config": {"name": "mixed8", "trainable": true, "dtype": "float32", "axis": 3}, "name": "mixed8", "inbound_nodes": [[["activation_165", 0, 0, {}], ["activation_169", 0, 0, {}], ["max_pooling2d_7", 0, 0, {}]]]}, {"class_name": "Conv2D", "config": {"name": "conv2d_174", "trainable": true, "dtype": "float32", "filters": 448, "kernel_size": [1, 1], "strides": [1, 1], "padding": "same", "data_format": "channels_last", "dilation_rate": [1, 1], "activation": "linear", "use_bias": false, "kernel_initializer": {"class_name": "GlorotUniform", "config": {"seed": null}}, "bias_initializer": {"class_name": "Zeros", "config": {}}, "kernel_regularizer": null, "bias_regularizer": null, "activity_regularizer": null, "kernel_constraint": null, "bias_constraint": null}, "name": "conv2d_174", "inbound_nodes": [[["mixed8", 0, 0, {}]]]}, {"class_name": "BatchNormalization", "config": {"name": "batch_normalization_176", "trainable": true, "dtype": "float32", "axis": [3], "momentum": 0.99, "epsilon": 0.001, "center": true, "scale": false, "beta_initializer": {"class_name": "Zeros", "config": {}}, "gamma_initializer": {"class_name": "Ones", "config": {}}, "moving_mean_initializer": {"class_name": "Zeros", "config": {}}, "moving_variance_initializer": {"class_name": "Ones", "config": {}}, "beta_regularizer": null, "gamma_regularizer": null, "beta_constraint": null, "gamma_constraint": null}, "name": "batch_normalization_176", "inbound_nodes": [[["conv2d_174", 0, 0, {}]]]}, {"class_name": "Activation", "config": {"name": "activation_174", "trainable": true, "dtype": "float32", "activation": "relu"}, "name": "activation_174", "inbound_nodes": [[["batch_normalization_176", 0, 0, {}]]]}, {"class_name": "Conv2D", "config": {"name": "conv2d_171", "trainable": true, "dtype": "float32", "filters": 384, "kernel_size": [1, 1], "strides": [1, 1], "padding": "same", "data_format": "channels_last", "dilation_rate": [1, 1], "activation": "linear", "use_bias": false, "kernel_initializer": {"class_name": "GlorotUniform", "config": {"seed": null}}, "bias_initializer": {"class_name": "Zeros", "config": {}}, "kernel_regularizer": null, "bias_regularizer": null, "activity_regularizer": null, "kernel_constraint": null, "bias_constraint": null}, "name": "conv2d_171", "inbound_nodes": [[["mixed8", 0, 0, {}]]]}, {"class_name": "Conv2D", "config": {"name": "conv2d_175", "trainable": true, "dtype": "float32", "filters": 384, "kernel_size": [3, 3], "strides": [1, 1], "padding": "same", "data_format": "channels_last", "dilation_rate": [1, 1], "activation": "linear", "use_bias": false, "kernel_initializer": {"class_name": "GlorotUniform", "config": {"seed": null}}, "bias_initializer": {"class_name": "Zeros", "config": {}}, "kernel_regularizer": null, "bias_regularizer": null, "activity_regularizer": null, "kernel_constraint": null, "bias_constraint": null}, "name": "conv2d_175", "inbound_nodes": [[["activation_174", 0, 0, {}]]]}, {"class_name": "BatchNormalization", "config": {"name": "batch_normalization_173", "trainable": true, "dtype": "float32", "axis": [3], "momentum": 0.99, "epsilon": 0.001, "center": true, "scale": false, "beta_initializer": {"class_name": "Zeros", "config": {}}, "gamma_initializer": {"class_name": "Ones", "config": {}}, "moving_mean_initializer": {"class_name": "Zeros", "config": {}}, "moving_variance_initializer": {"class_name": "Ones", "config": {}}, "beta_regularizer": null, "gamma_regularizer": null, "beta_constraint": null, "gamma_constraint": null}, "name": "batch_normalization_173", "inbound_nodes": [[["conv2d_171", 0, 0, {}]]]}, {"class_name": "BatchNormalization", "config": {"name": "batch_normalization_177", "trainable": true, "dtype": "float32", "axis": [3], "momentum": 0.99, "epsilon": 0.001, "center": true, "scale": false, "beta_initializer": {"class_name": "Zeros", "config": {}}, "gamma_initializer": {"class_name": "Ones", "config": {}}, "moving_mean_initializer": {"class_name": "Zeros", "config": {}}, "moving_variance_initializer": {"class_name": "Ones", "config": {}}, "beta_regularizer": null, "gamma_regularizer": null, "beta_constraint": null, "gamma_constraint": null}, "name": "batch_normalization_177", "inbound_nodes": [[["conv2d_175", 0, 0, {}]]]}, {"class_name": "Activation", "config": {"name": "activation_171", "trainable": true, "dtype": "float32", "activation": "relu"}, "name": "activation_171", "inbound_nodes": [[["batch_normalization_173", 0, 0, {}]]]}, {"class_name": "Activation", "config": {"name": "activation_175", "trainable": true, "dtype": "float32", "activation": "relu"}, "name": "activation_175", "inbound_nodes": [[["batch_normalization_177", 0, 0, {}]]]}, {"class_name": "Conv2D", "config": {"name": "conv2d_172", "trainable": true, "dtype": "float32", "filters": 384, "kernel_size": [1, 3], "strides": [1, 1], "padding": "same", "data_format": "channels_last", "dilation_rate": [1, 1], "activation": "linear", "use_bias": false, "kernel_initializer": {"class_name": "GlorotUniform", "config": {"seed": null}}, "bias_initializer": {"class_name": "Zeros", "config": {}}, "kernel_regularizer": null, "bias_regularizer": null, "activity_regularizer": null, "kernel_constraint": null, "bias_constraint": null}, "name": "conv2d_172", "inbound_nodes": [[["activation_171", 0, 0, {}]]]}, {"class_name": "Conv2D", "config": {"name": "conv2d_173", "trainable": true, "dtype": "float32", "filters": 384, "kernel_size": [3, 1], "strides": [1, 1], "padding": "same", "data_format": "channels_last", "dilation_rate": [1, 1], "activation": "linear", "use_bias": false, "kernel_initializer": {"class_name": "GlorotUniform", "config": {"seed": null}}, "bias_initializer": {"class_name": "Zeros", "config": {}}, "kernel_regularizer": null, "bias_regularizer": null, "activity_regularizer": null, "kernel_constraint": null, "bias_constraint": null}, "name": "conv2d_173", "inbound_nodes": [[["activation_171", 0, 0, {}]]]}, {"class_name": "Conv2D", "config": {"name": "conv2d_176", "trainable": true, "dtype": "float32", "filters": 384, "kernel_size": [1, 3], "strides": [1, 1], "padding": "same", "data_format": "channels_last", "dilation_rate": [1, 1], "activation": "linear", "use_bias": false, "kernel_initializer": {"class_name": "GlorotUniform", "config": {"seed": null}}, "bias_initializer": {"class_name": "Zeros", "config": {}}, "kernel_regularizer": null, "bias_regularizer": null, "activity_regularizer": null, "kernel_constraint": null, "bias_constraint": null}, "name": "conv2d_176", "inbound_nodes": [[["activation_175", 0, 0, {}]]]}, {"class_name": "Conv2D", "config": {"name": "conv2d_177", "trainable": true, "dtype": "float32", "filters": 384, "kernel_size": [3, 1], "strides": [1, 1], "padding": "same", "data_format": "channels_last", "dilation_rate": [1, 1], "activation": "linear", "use_bias": false, "kernel_initializer": {"class_name": "GlorotUniform", "config": {"seed": null}}, "bias_initializer": {"class_name": "Zeros", "config": {}}, "kernel_regularizer": null, "bias_regularizer": null, "activity_regularizer": null, "kernel_constraint": null, "bias_constraint": null}, "name": "conv2d_177", "inbound_nodes": [[["activation_175", 0, 0, {}]]]}, {"class_name": "AveragePooling2D", "config": {"name": "average_pooling2d_16", "trainable": true, "dtype": "float32", "pool_size": [3, 3], "padding": "same", "strides": [1, 1], "data_format": "channels_last"}, "name": "average_pooling2d_16", "inbound_nodes": [[["mixed8", 0, 0, {}]]]}, {"class_name": "Conv2D", "config": {"name": "conv2d_170", "trainable": true, "dtype": "float32", "filters": 320, "kernel_size": [1, 1], "strides": [1, 1], "padding": "same", "data_format": "channels_last", "dilation_rate": [1, 1], "activation": "linear", "use_bias": false, "kernel_initializer": {"class_name": "GlorotUniform", "config": {"seed": null}}, "bias_initializer": {"class_name": "Zeros", "config": {}}, "kernel_regularizer": null, "bias_regularizer": null, "activity_regularizer": null, "kernel_constraint": null, "bias_constraint": null}, "name": "conv2d_170", "inbound_nodes": [[["mixed8", 0, 0, {}]]]}, {"class_name": "BatchNormalization", "config": {"name": "batch_normalization_174", "trainable": true, "dtype": "float32", "axis": [3], "momentum": 0.99, "epsilon": 0.001, "center": true, "scale": false, "beta_initializer": {"class_name": "Zeros", "config": {}}, "gamma_initializer": {"class_name": "Ones", "config": {}}, "moving_mean_initializer": {"class_name": "Zeros", "config": {}}, "moving_variance_initializer": {"class_name": "Ones", "config": {}}, "beta_regularizer": null, "gamma_regularizer": null, "beta_constraint": null, "gamma_constraint": null}, "name": "batch_normalization_174", "inbound_nodes": [[["conv2d_172", 0, 0, {}]]]}, {"class_name": "BatchNormalization", "config": {"name": "batch_normalization_175", "trainable": true, "dtype": "float32", "axis": [3], "momentum": 0.99, "epsilon": 0.001, "center": true, "scale": false, "beta_initializer": {"class_name": "Zeros", "config": {}}, "gamma_initializer": {"class_name": "Ones", "config": {}}, "moving_mean_initializer": {"class_name": "Zeros", "config": {}}, "moving_variance_initializer": {"class_name": "Ones", "config": {}}, "beta_regularizer": null, "gamma_regularizer": null, "beta_constraint": null, "gamma_constraint": null}, "name": "batch_normalization_175", "inbound_nodes": [[["conv2d_173", 0, 0, {}]]]}, {"class_name": "BatchNormalization", "config": {"name": "batch_normalization_178", "trainable": true, "dtype": "float32", "axis": [3], "momentum": 0.99, "epsilon": 0.001, "center": true, "scale": false, "beta_initializer": {"class_name": "Zeros", "config": {}}, "gamma_initializer": {"class_name": "Ones", "config": {}}, "moving_mean_initializer": {"class_name": "Zeros", "config": {}}, "moving_variance_initializer": {"class_name": "Ones", "config": {}}, "beta_regularizer": null, "gamma_regularizer": null, "beta_constraint": null, "gamma_constraint": null}, "name": "batch_normalization_178", "inbound_nodes": [[["conv2d_176", 0, 0, {}]]]}, {"class_name": "BatchNormalization", "config": {"name": "batch_normalization_179", "trainable": true, "dtype": "float32", "axis": [3], "momentum": 0.99, "epsilon": 0.001, "center": true, "scale": false, "beta_initializer": {"class_name": "Zeros", "config": {}}, "gamma_initializer": {"class_name": "Ones", "config": {}}, "moving_mean_initializer": {"class_name": "Zeros", "config": {}}, "moving_variance_initializer": {"class_name": "Ones", "config": {}}, "beta_regularizer": null, "gamma_regularizer": null, "beta_constraint": null, "gamma_constraint": null}, "name": "batch_normalization_179", "inbound_nodes": [[["conv2d_177", 0, 0, {}]]]}, {"class_name": "Conv2D", "config": {"name": "conv2d_178", "trainable": true, "dtype": "float32", "filters": 192, "kernel_size": [1, 1], "strides": [1, 1], "padding": "same", "data_format": "channels_last", "dilation_rate": [1, 1], "activation": "linear", "use_bias": false, "kernel_initializer": {"class_name": "GlorotUniform", "config": {"seed": null}}, "bias_initializer": {"class_name": "Zeros", "config": {}}, "kernel_regularizer": null, "bias_regularizer": null, "activity_regularizer": null, "kernel_constraint": null, "bias_constraint": null}, "name": "conv2d_178", "inbound_nodes": [[["average_pooling2d_16", 0, 0, {}]]]}, {"class_name": "BatchNormalization", "config": {"name": "batch_normalization_172", "trainable": true, "dtype": "float32", "axis": [3], "momentum": 0.99, "epsilon": 0.001, "center": true, "scale": false, "beta_initializer": {"class_name": "Zeros", "config": {}}, "gamma_initializer": {"class_name": "Ones", "config": {}}, "moving_mean_initializer": {"class_name": "Zeros", "config": {}}, "moving_variance_initializer": {"class_name": "Ones", "config": {}}, "beta_regularizer": null, "gamma_regularizer": null, "beta_constraint": null, "gamma_constraint": null}, "name": "batch_normalization_172", "inbound_nodes": [[["conv2d_170", 0, 0, {}]]]}, {"class_name": "Activation", "config": {"name": "activation_172", "trainable": true, "dtype": "float32", "activation": "relu"}, "name": "activation_172", "inbound_nodes": [[["batch_normalization_174", 0, 0, {}]]]}, {"class_name": "Activation", "config": {"name": "activation_173", "trainable": true, "dtype": "float32", "activation": "relu"}, "name": "activation_173", "inbound_nodes": [[["batch_normalization_175", 0, 0, {}]]]}, {"class_name": "Activation", "config": {"name": "activation_176", "trainable": true, "dtype": "float32", "activation": "relu"}, "name": "activation_176", "inbound_nodes": [[["batch_normalization_178", 0, 0, {}]]]}, {"class_name": "Activation", "config": {"name": "activation_177", "trainable": true, "dtype": "float32", "activation": "relu"}, "name": "activation_177", "inbound_nodes": [[["batch_normalization_179", 0, 0, {}]]]}, {"class_name": "BatchNormalization", "config": {"name": "batch_normalization_180", "trainable": true, "dtype": "float32", "axis": [3], "momentum": 0.99, "epsilon": 0.001, "center": true, "scale": false, "beta_initializer": {"class_name": "Zeros", "config": {}}, "gamma_initializer": {"class_name": "Ones", "config": {}}, "moving_mean_initializer": {"class_name": "Zeros", "config": {}}, "moving_variance_initializer": {"class_name": "Ones", "config": {}}, "beta_regularizer": null, "gamma_regularizer": null, "beta_constraint": null, "gamma_constraint": null}, "name": "batch_normalization_180", "inbound_nodes": [[["conv2d_178", 0, 0, {}]]]}, {"class_name": "Activation", "config": {"name": "activation_170", "trainable": true, "dtype": "float32", "activation": "relu"}, "name": "activation_170", "inbound_nodes": [[["batch_normalization_172", 0, 0, {}]]]}, {"class_name": "Concatenate", "config": {"name": "mixed9_0", "trainable": true, "dtype": "float32", "axis": 3}, "name": "mixed9_0", "inbound_nodes": [[["activation_172", 0, 0, {}], ["activation_173", 0, 0, {}]]]}, {"class_name": "Concatenate", "config": {"name": "concatenate_2", "trainable": true, "dtype": "float32", "axis": 3}, "name": "concatenate_2", "inbound_nodes": [[["activation_176", 0, 0, {}], ["activation_177", 0, 0, {}]]]}, {"class_name": "Activation", "config": {"name": "activation_178", "trainable": true, "dtype": "float32", "activation": "relu"}, "name": "activation_178", "inbound_nodes": [[["batch_normalization_180", 0, 0, {}]]]}, {"class_name": "Concatenate", "config": {"name": "mixed9", "trainable": true, "dtype": "float32", "axis": 3}, "name": "mixed9", "inbound_nodes": [[["activation_170", 0, 0, {}], ["mixed9_0", 0, 0, {}], ["concatenate_2", 0, 0, {}], ["activation_178", 0, 0, {}]]]}, {"class_name": "Conv2D", "config": {"name": "conv2d_183", "trainable": true, "dtype": "float32", "filters": 448, "kernel_size": [1, 1], "strides": [1, 1], "padding": "same", "data_format": "channels_last", "dilation_rate": [1, 1], "activation": "linear", "use_bias": false, "kernel_initializer": {"class_name": "GlorotUniform", "config": {"seed": null}}, "bias_initializer": {"class_name": "Zeros", "config": {}}, "kernel_regularizer": null, "bias_regularizer": null, "activity_regularizer": null, "kernel_constraint": null, "bias_constraint": null}, "name": "conv2d_183", "inbound_nodes": [[["mixed9", 0, 0, {}]]]}, {"class_name": "BatchNormalization", "config": {"name": "batch_normalization_185", "trainable": true, "dtype": "float32", "axis": [3], "momentum": 0.99, "epsilon": 0.001, "center": true, "scale": false, "beta_initializer": {"class_name": "Zeros", "config": {}}, "gamma_initializer": {"class_name": "Ones", "config": {}}, "moving_mean_initializer": {"class_name": "Zeros", "config": {}}, "moving_variance_initializer": {"class_name": "Ones", "config": {}}, "beta_regularizer": null, "gamma_regularizer": null, "beta_constraint": null, "gamma_constraint": null}, "name": "batch_normalization_185", "inbound_nodes": [[["conv2d_183", 0, 0, {}]]]}, {"class_name": "Activation", "config": {"name": "activation_183", "trainable": true, "dtype": "float32", "activation": "relu"}, "name": "activation_183", "inbound_nodes": [[["batch_normalization_185", 0, 0, {}]]]}, {"class_name": "Conv2D", "config": {"name": "conv2d_180", "trainable": true, "dtype": "float32", "filters": 384, "kernel_size": [1, 1], "strides": [1, 1], "padding": "same", "data_format": "channels_last", "dilation_rate": [1, 1], "activation": "linear", "use_bias": false, "kernel_initializer": {"class_name": "GlorotUniform", "config": {"seed": null}}, "bias_initializer": {"class_name": "Zeros", "config": {}}, "kernel_regularizer": null, "bias_regularizer": null, "activity_regularizer": null, "kernel_constraint": null, "bias_constraint": null}, "name": "conv2d_180", "inbound_nodes": [[["mixed9", 0, 0, {}]]]}, {"class_name": "Conv2D", "config": {"name": "conv2d_184", "trainable": true, "dtype": "float32", "filters": 384, "kernel_size": [3, 3], "strides": [1, 1], "padding": "same", "data_format": "channels_last", "dilation_rate": [1, 1], "activation": "linear", "use_bias": false, "kernel_initializer": {"class_name": "GlorotUniform", "config": {"seed": null}}, "bias_initializer": {"class_name": "Zeros", "config": {}}, "kernel_regularizer": null, "bias_regularizer": null, "activity_regularizer": null, "kernel_constraint": null, "bias_constraint": null}, "name": "conv2d_184", "inbound_nodes": [[["activation_183", 0, 0, {}]]]}, {"class_name": "BatchNormalization", "config": {"name": "batch_normalization_182", "trainable": true, "dtype": "float32", "axis": [3], "momentum": 0.99, "epsilon": 0.001, "center": true, "scale": false, "beta_initializer": {"class_name": "Zeros", "config": {}}, "gamma_initializer": {"class_name": "Ones", "config": {}}, "moving_mean_initializer": {"class_name": "Zeros", "config": {}}, "moving_variance_initializer": {"class_name": "Ones", "config": {}}, "beta_regularizer": null, "gamma_regularizer": null, "beta_constraint": null, "gamma_constraint": null}, "name": "batch_normalization_182", "inbound_nodes": [[["conv2d_180", 0, 0, {}]]]}, {"class_name": "BatchNormalization", "config": {"name": "batch_normalization_186", "trainable": true, "dtype": "float32", "axis": [3], "momentum": 0.99, "epsilon": 0.001, "center": true, "scale": false, "beta_initializer": {"class_name": "Zeros", "config": {}}, "gamma_initializer": {"class_name": "Ones", "config": {}}, "moving_mean_initializer": {"class_name": "Zeros", "config": {}}, "moving_variance_initializer": {"class_name": "Ones", "config": {}}, "beta_regularizer": null, "gamma_regularizer": null, "beta_constraint": null, "gamma_constraint": null}, "name": "batch_normalization_186", "inbound_nodes": [[["conv2d_184", 0, 0, {}]]]}, {"class_name": "Activation", "config": {"name": "activation_180", "trainable": true, "dtype": "float32", "activation": "relu"}, "name": "activation_180", "inbound_nodes": [[["batch_normalization_182", 0, 0, {}]]]}, {"class_name": "Activation", "config": {"name": "activation_184", "trainable": true, "dtype": "float32", "activation": "relu"}, "name": "activation_184", "inbound_nodes": [[["batch_normalization_186", 0, 0, {}]]]}, {"class_name": "Conv2D", "config": {"name": "conv2d_181", "trainable": true, "dtype": "float32", "filters": 384, "kernel_size": [1, 3], "strides": [1, 1], "padding": "same", "data_format": "channels_last", "dilation_rate": [1, 1], "activation": "linear", "use_bias": false, "kernel_initializer": {"class_name": "GlorotUniform", "config": {"seed": null}}, "bias_initializer": {"class_name": "Zeros", "config": {}}, "kernel_regularizer": null, "bias_regularizer": null, "activity_regularizer": null, "kernel_constraint": null, "bias_constraint": null}, "name": "conv2d_181", "inbound_nodes": [[["activation_180", 0, 0, {}]]]}, {"class_name": "Conv2D", "config": {"name": "conv2d_182", "trainable": true, "dtype": "float32", "filters": 384, "kernel_size": [3, 1], "strides": [1, 1], "padding": "same", "data_format": "channels_last", "dilation_rate": [1, 1], "activation": "linear", "use_bias": false, "kernel_initializer": {"class_name": "GlorotUniform", "config": {"seed": null}}, "bias_initializer": {"class_name": "Zeros", "config": {}}, "kernel_regularizer": null, "bias_regularizer": null, "activity_regularizer": null, "kernel_constraint": null, "bias_constraint": null}, "name": "conv2d_182", "inbound_nodes": [[["activation_180", 0, 0, {}]]]}, {"class_name": "Conv2D", "config": {"name": "conv2d_185", "trainable": true, "dtype": "float32", "filters": 384, "kernel_size": [1, 3], "strides": [1, 1], "padding": "same", "data_format": "channels_last", "dilation_rate": [1, 1], "activation": "linear", "use_bias": false, "kernel_initializer": {"class_name": "GlorotUniform", "config": {"seed": null}}, "bias_initializer": {"class_name": "Zeros", "config": {}}, "kernel_regularizer": null, "bias_regularizer": null, "activity_regularizer": null, "kernel_constraint": null, "bias_constraint": null}, "name": "conv2d_185", "inbound_nodes": [[["activation_184", 0, 0, {}]]]}, {"class_name": "Conv2D", "config": {"name": "conv2d_186", "trainable": true, "dtype": "float32", "filters": 384, "kernel_size": [3, 1], "strides": [1, 1], "padding": "same", "data_format": "channels_last", "dilation_rate": [1, 1], "activation": "linear", "use_bias": false, "kernel_initializer": {"class_name": "GlorotUniform", "config": {"seed": null}}, "bias_initializer": {"class_name": "Zeros", "config": {}}, "kernel_regularizer": null, "bias_regularizer": null, "activity_regularizer": null, "kernel_constraint": null, "bias_constraint": null}, "name": "conv2d_186", "inbound_nodes": [[["activation_184", 0, 0, {}]]]}, {"class_name": "AveragePooling2D", "config": {"name": "average_pooling2d_17", "trainable": true, "dtype": "float32", "pool_size": [3, 3], "padding": "same", "strides": [1, 1], "data_format": "channels_last"}, "name": "average_pooling2d_17", "inbound_nodes": [[["mixed9", 0, 0, {}]]]}, {"class_name": "Conv2D", "config": {"name": "conv2d_179", "trainable": true, "dtype": "float32", "filters": 320, "kernel_size": [1, 1], "strides": [1, 1], "padding": "same", "data_format": "channels_last", "dilation_rate": [1, 1], "activation": "linear", "use_bias": false, "kernel_initializer": {"class_name": "GlorotUniform", "config": {"seed": null}}, "bias_initializer": {"class_name": "Zeros", "config": {}}, "kernel_regularizer": null, "bias_regularizer": null, "activity_regularizer": null, "kernel_constraint": null, "bias_constraint": null}, "name": "conv2d_179", "inbound_nodes": [[["mixed9", 0, 0, {}]]]}, {"class_name": "BatchNormalization", "config": {"name": "batch_normalization_183", "trainable": true, "dtype": "float32", "axis": [3], "momentum": 0.99, "epsilon": 0.001, "center": true, "scale": false, "beta_initializer": {"class_name": "Zeros", "config": {}}, "gamma_initializer": {"class_name": "Ones", "config": {}}, "moving_mean_initializer": {"class_name": "Zeros", "config": {}}, "moving_variance_initializer": {"class_name": "Ones", "config": {}}, "beta_regularizer": null, "gamma_regularizer": null, "beta_constraint": null, "gamma_constraint": null}, "name": "batch_normalization_183", "inbound_nodes": [[["conv2d_181", 0, 0, {}]]]}, {"class_name": "BatchNormalization", "config": {"name": "batch_normalization_184", "trainable": true, "dtype": "float32", "axis": [3], "momentum": 0.99, "epsilon": 0.001, "center": true, "scale": false, "beta_initializer": {"class_name": "Zeros", "config": {}}, "gamma_initializer": {"class_name": "Ones", "config": {}}, "moving_mean_initializer": {"class_name": "Zeros", "config": {}}, "moving_variance_initializer": {"class_name": "Ones", "config": {}}, "beta_regularizer": null, "gamma_regularizer": null, "beta_constraint": null, "gamma_constraint": null}, "name": "batch_normalization_184", "inbound_nodes": [[["conv2d_182", 0, 0, {}]]]}, {"class_name": "BatchNormalization", "config": {"name": "batch_normalization_187", "trainable": true, "dtype": "float32", "axis": [3], "momentum": 0.99, "epsilon": 0.001, "center": true, "scale": false, "beta_initializer": {"class_name": "Zeros", "config": {}}, "gamma_initializer": {"class_name": "Ones", "config": {}}, "moving_mean_initializer": {"class_name": "Zeros", "config": {}}, "moving_variance_initializer": {"class_name": "Ones", "config": {}}, "beta_regularizer": null, "gamma_regularizer": null, "beta_constraint": null, "gamma_constraint": null}, "name": "batch_normalization_187", "inbound_nodes": [[["conv2d_185", 0, 0, {}]]]}, {"class_name": "BatchNormalization", "config": {"name": "batch_normalization_188", "trainable": true, "dtype": "float32", "axis": [3], "momentum": 0.99, "epsilon": 0.001, "center": true, "scale": false, "beta_initializer": {"class_name": "Zeros", "config": {}}, "gamma_initializer": {"class_name": "Ones", "config": {}}, "moving_mean_initializer": {"class_name": "Zeros", "config": {}}, "moving_variance_initializer": {"class_name": "Ones", "config": {}}, "beta_regularizer": null, "gamma_regularizer": null, "beta_constraint": null, "gamma_constraint": null}, "name": "batch_normalization_188", "inbound_nodes": [[["conv2d_186", 0, 0, {}]]]}, {"class_name": "Conv2D", "config": {"name": "conv2d_187", "trainable": true, "dtype": "float32", "filters": 192, "kernel_size": [1, 1], "strides": [1, 1], "padding": "same", "data_format": "channels_last", "dilation_rate": [1, 1], "activation": "linear", "use_bias": false, "kernel_initializer": {"class_name": "GlorotUniform", "config": {"seed": null}}, "bias_initializer": {"class_name": "Zeros", "config": {}}, "kernel_regularizer": null, "bias_regularizer": null, "activity_regularizer": null, "kernel_constraint": null, "bias_constraint": null}, "name": "conv2d_187", "inbound_nodes": [[["average_pooling2d_17", 0, 0, {}]]]}, {"class_name": "BatchNormalization", "config": {"name": "batch_normalization_181", "trainable": true, "dtype": "float32", "axis": [3], "momentum": 0.99, "epsilon": 0.001, "center": true, "scale": false, "beta_initializer": {"class_name": "Zeros", "config": {}}, "gamma_initializer": {"class_name": "Ones", "config": {}}, "moving_mean_initializer": {"class_name": "Zeros", "config": {}}, "moving_variance_initializer": {"class_name": "Ones", "config": {}}, "beta_regularizer": null, "gamma_regularizer": null, "beta_constraint": null, "gamma_constraint": null}, "name": "batch_normalization_181", "inbound_nodes": [[["conv2d_179", 0, 0, {}]]]}, {"class_name": "Activation", "config": {"name": "activation_181", "trainable": true, "dtype": "float32", "activation": "relu"}, "name": "activation_181", "inbound_nodes": [[["batch_normalization_183", 0, 0, {}]]]}, {"class_name": "Activation", "config": {"name": "activation_182", "trainable": true, "dtype": "float32", "activation": "relu"}, "name": "activation_182", "inbound_nodes": [[["batch_normalization_184", 0, 0, {}]]]}, {"class_name": "Activation", "config": {"name": "activation_185", "trainable": true, "dtype": "float32", "activation": "relu"}, "name": "activation_185", "inbound_nodes": [[["batch_normalization_187", 0, 0, {}]]]}, {"class_name": "Activation", "config": {"name": "activation_186", "trainable": true, "dtype": "float32", "activation": "relu"}, "name": "activation_186", "inbound_nodes": [[["batch_normalization_188", 0, 0, {}]]]}, {"class_name": "BatchNormalization", "config": {"name": "batch_normalization_189", "trainable": true, "dtype": "float32", "axis": [3], "momentum": 0.99, "epsilon": 0.001, "center": true, "scale": false, "beta_initializer": {"class_name": "Zeros", "config": {}}, "gamma_initializer": {"class_name": "Ones", "config": {}}, "moving_mean_initializer": {"class_name": "Zeros", "config": {}}, "moving_variance_initializer": {"class_name": "Ones", "config": {}}, "beta_regularizer": null, "gamma_regularizer": null, "beta_constraint": null, "gamma_constraint": null}, "name": "batch_normalization_189", "inbound_nodes": [[["conv2d_187", 0, 0, {}]]]}, {"class_name": "Activation", "config": {"name": "activation_179", "trainable": true, "dtype": "float32", "activation": "relu"}, "name": "activation_179", "inbound_nodes": [[["batch_normalization_181", 0, 0, {}]]]}, {"class_name": "Concatenate", "config": {"name": "mixed9_1", "trainable": true, "dtype": "float32", "axis": 3}, "name": "mixed9_1", "inbound_nodes": [[["activation_181", 0, 0, {}], ["activation_182", 0, 0, {}]]]}, {"class_name": "Concatenate", "config": {"name": "concatenate_3", "trainable": true, "dtype": "float32", "axis": 3}, "name": "concatenate_3", "inbound_nodes": [[["activation_185", 0, 0, {}], ["activation_186", 0, 0, {}]]]}, {"class_name": "Activation", "config": {"name": "activation_187", "trainable": true, "dtype": "float32", "activation": "relu"}, "name": "activation_187", "inbound_nodes": [[["batch_normalization_189", 0, 0, {}]]]}, {"class_name": "Concatenate", "config": {"name": "mixed10", "trainable": true, "dtype": "float32", "axis": 3}, "name": "mixed10", "inbound_nodes": [[["activation_179", 0, 0, {}], ["mixed9_1", 0, 0, {}], ["concatenate_3", 0, 0, {}], ["activation_187", 0, 0, {}]]]}], "input_layers": [["input_2", 0, 0]], "output_layers": [["mixed10", 0, 0]]}}, {"class_name": "BatchNormalization", "config": {"name": "batch_normalization_191", "trainable": true, "dtype": "float32", "axis": [3], "momentum": 0.99, "epsilon": 0.001, "center": true, "scale": true, "beta_initializer": {"class_name": "Zeros", "config": {}}, "gamma_initializer": {"class_name": "Ones", "config": {}}, "moving_mean_initializer": {"class_name": "Zeros", "config": {}}, "moving_variance_initializer": {"class_name": "Ones", "config": {}}, "beta_regularizer": null, "gamma_regularizer": null, "beta_constraint": null, "gamma_constraint": null}}, {"class_name": "GlobalAveragePooling2D", "config": {"name": "global_average_pooling2d_1", "trainable": true, "dtype": "float32", "data_format": "channels_last"}}, {"class_name": "Dropout", "config": {"name": "dropout_1", "trainable": true, "dtype": "float32", "rate": 0.5, "noise_shape": null, "seed": null}}, {"class_name": "Dense", "config": {"name": "dense_1", "trainable": true, "dtype": "float32", "units": 1, "activation": "linear", "use_bias": true, "kernel_initializer": {"class_name": "GlorotUniform", "config": {"seed": null}}, "bias_initializer": {"class_name": "Zeros", "config": {}}, "kernel_regularizer": null, "bias_regularizer": null, "activity_regularizer": null, "kernel_constraint": null, "bias_constraint": null}}]}, "keras_version": "2.2.4-tf", "backend": "tensorflow"}