{"class_name": "Sequential", "config": {"name": "sequential_6", "layers": [{"class_name": "BatchNormalization", "config": {"name": "batch_normalization_403", "trainable": true, "batch_input_shape": [null, 128, 128, 1], "dtype": "float32", "axis": [3], "momentum": 0.99, "epsilon": 0.001, "center": true, "scale": true, "beta_initializer": {"class_name": "Zeros", "config": {}}, "gamma_initializer": {"class_name": "Ones", "config": {}}, "moving_mean_initializer": {"class_name": "Zeros", "config": {}}, "moving_variance_initializer": {"class_name": "Ones", "config": {}}, "beta_regularizer": null, "gamma_regularizer": null, "beta_constraint": null, "gamma_constraint": null}}, {"class_name": "Model", "config": {"name": "inception_v3", "layers": [{"class_name": "InputLayer", "config": {"batch_input_shape": [null, 128, 128, 1], "dtype": "float32", "sparse": false, "name": "input_7"}, "name": "input_7", "inbound_nodes": []}, {"class_name": "Conv2D", "config": {"name": "conv2d_297", "trainable": true, "dtype": "float32", "filters": 32, "kernel_size": [3, 3], "strides": [2, 2], "padding": "valid", "data_format": "channels_last", "dilation_rate": [1, 1], "activation": "linear", "use_bias": false, "kernel_initializer": {"class_name": "GlorotUniform", "config": {"seed": null}}, "bias_initializer": {"class_name": "Zeros", "config": {}}, "kernel_regularizer": null, "bias_regularizer": null, "activity_regularizer": null, "kernel_constraint": null, "bias_constraint": null}, "name": "conv2d_297", "inbound_nodes": [[["input_7", 0, 0, {}]]]}, {"class_name": "BatchNormalization", "config": {"name": "batch_normalization_309", "trainable": true, "dtype": "float32", "axis": [3], "momentum": 0.99, "epsilon": 0.001, "center": true, "scale": false, "beta_initializer": {"class_name": "Zeros", "config": {}}, "gamma_initializer": {"class_name": "Ones", "config": {}}, "moving_mean_initializer": {"class_name": "Zeros", "config": {}}, "moving_variance_initializer": {"class_name": "Ones", "config": {}}, "beta_regularizer": null, "gamma_regularizer": null, "beta_constraint": null, "gamma_constraint": null}, "name": "batch_normalization_309", "inbound_nodes": [[["conv2d_297", 0, 0, {}]]]}, {"class_name": "Activation", "config": {"name": "activation_297", "trainable": true, "dtype": "float32", "activation": "relu"}, "name": "activation_297", "inbound_nodes": [[["batch_normalization_309", 0, 0, {}]]]}, {"class_name": "Conv2D", "config": {"name": "conv2d_298", "trainable": true, "dtype": "float32", "filters": 32, "kernel_size": [3, 3], "strides": [1, 1], "padding": "valid", "data_format": "channels_last", "dilation_rate": [1, 1], "activation": "linear", "use_bias": false, "kernel_initializer": {"class_name": "GlorotUniform", "config": {"seed": null}}, "bias_initializer": {"class_name": "Zeros", "config": {}}, "kernel_regularizer": null, "bias_regularizer": null, "activity_regularizer": null, "kernel_constraint": null, "bias_constraint": null}, "name": "conv2d_298", "inbound_nodes": [[["activation_297", 0, 0, {}]]]}, {"class_name": "BatchNormalization", "config": {"name": "batch_normalization_310", "trainable": true, "dtype": "float32", "axis": [3], "momentum": 0.99, "epsilon": 0.001, "center": true, "scale": false, "beta_initializer": {"class_name": "Zeros", "config": {}}, "gamma_initializer": {"class_name": "Ones", "config": {}}, "moving_mean_initializer": {"class_name": "Zeros", "config": {}}, "moving_variance_initializer": {"class_name": "Ones", "config": {}}, "beta_regularizer": null, "gamma_regularizer": null, "beta_constraint": null, "gamma_constraint": null}, "name": "batch_normalization_310", "inbound_nodes": [[["conv2d_298", 0, 0, {}]]]}, {"class_name": "Activation", "config": {"name": "activation_298", "trainable": true, "dtype": "float32", "activation": "relu"}, "name": "activation_298", "inbound_nodes": [[["batch_normalization_310", 0, 0, {}]]]}, {"class_name": "Conv2D", "config": {"name": "conv2d_299", "trainable": true, "dtype": "float32", "filters": 64, "kernel_size": [3, 3], "strides": [1, 1], "padding": "same", "data_format": "channels_last", "dilation_rate": [1, 1], "activation": "linear", "use_bias": false, "kernel_initializer": {"class_name": "GlorotUniform", "config": {"seed": null}}, "bias_initializer": {"class_name": "Zeros", "config": {}}, "kernel_regularizer": null, "bias_regularizer": null, "activity_regularizer": null, "kernel_constraint": null, "bias_constraint": null}, "name": "conv2d_299", "inbound_nodes": [[["activation_298", 0, 0, {}]]]}, {"class_name": "BatchNormalization", "config": {"name": "batch_normalization_311", "trainable": true, "dtype": "float32", "axis": [3], "momentum": 0.99, "epsilon": 0.001, "center": true, "scale": false, "beta_initializer": {"class_name": "Zeros", "config": {}}, "gamma_initializer": {"class_name": "Ones", "config": {}}, "moving_mean_initializer": {"class_name": "Zeros", "config": {}}, "moving_variance_initializer": {"class_name": "Ones", "config": {}}, "beta_regularizer": null, "gamma_regularizer": null, "beta_constraint": null, "gamma_constraint": null}, "name": "batch_normalization_311", "inbound_nodes": [[["conv2d_299", 0, 0, {}]]]}, {"class_name": "Activation", "config": {"name": "activation_299", "trainable": true, "dtype": "float32", "activation": "relu"}, "name": "activation_299", "inbound_nodes": [[["batch_normalization_311", 0, 0, {}]]]}, {"class_name": "MaxPooling2D", "config": {"name": "max_pooling2d_8", "trainable": true, "dtype": "float32", "pool_size": [3, 3], "padding": "valid", "strides": [2, 2], "data_format": "channels_last"}, "name": "max_pooling2d_8", "inbound_nodes": [[["activation_299", 0, 0, {}]]]}, {"class_name": "Conv2D", "config": {"name": "conv2d_300", "trainable": true, "dtype": "float32", "filters": 80, "kernel_size": [1, 1], "strides": [1, 1], "padding": "valid", "data_format": "channels_last", "dilation_rate": [1, 1], "activation": "linear", "use_bias": false, "kernel_initializer": {"class_name": "GlorotUniform", "config": {"seed": null}}, "bias_initializer": {"class_name": "Zeros", "config": {}}, "kernel_regularizer": null, "bias_regularizer": null, "activity_regularizer": null, "kernel_constraint": null, "bias_constraint": null}, "name": "conv2d_300", "inbound_nodes": [[["max_pooling2d_8", 0, 0, {}]]]}, {"class_name": "BatchNormalization", "config": {"name": "batch_normalization_312", "trainable": true, "dtype": "float32", "axis": [3], "momentum": 0.99, "epsilon": 0.001, "center": true, "scale": false, "beta_initializer": {"class_name": "Zeros", "config": {}}, "gamma_initializer": {"class_name": "Ones", "config": {}}, "moving_mean_initializer": {"class_name": "Zeros", "config": {}}, "moving_variance_initializer": {"class_name": "Ones", "config": {}}, "beta_regularizer": null, "gamma_regularizer": null, "beta_constraint": null, "gamma_constraint": null}, "name": "batch_normalization_312", "inbound_nodes": [[["conv2d_300", 0, 0, {}]]]}, {"class_name": "Activation", "config": {"name": "activation_300", "trainable": true, "dtype": "float32", "activation": "relu"}, "name": "activation_300", "inbound_nodes": [[["batch_normalization_312", 0, 0, {}]]]}, {"class_name": "Conv2D", "config": {"name": "conv2d_301", "trainable": true, "dtype": "float32", "filters": 192, "kernel_size": [3, 3], "strides": [1, 1], "padding": "valid", "data_format": "channels_last", "dilation_rate": [1, 1], "activation": "linear", "use_bias": false, "kernel_initializer": {"class_name": "GlorotUniform", "config": {"seed": null}}, "bias_initializer": {"class_name": "Zeros", "config": {}}, "kernel_regularizer": null, "bias_regularizer": null, "activity_regularizer": null, "kernel_constraint": null, "bias_constraint": null}, "name": "conv2d_301", "inbound_nodes": [[["activation_300", 0, 0, {}]]]}, {"class_name": "BatchNormalization", "config": {"name": "batch_normalization_313", "trainable": true, "dtype": "float32", "axis": [3], "momentum": 0.99, "epsilon": 0.001, "center": true, "scale": false, "beta_initializer": {"class_name": "Zeros", "config": {}}, "gamma_initializer": {"class_name": "Ones", "config": {}}, "moving_mean_initializer": {"class_name": "Zeros", "config": {}}, "moving_variance_initializer": {"class_name": "Ones", "config": {}}, "beta_regularizer": null, "gamma_regularizer": null, "beta_constraint": null, "gamma_constraint": null}, "name": "batch_normalization_313", "inbound_nodes": [[["conv2d_301", 0, 0, {}]]]}, {"class_name": "Activation", "config": {"name": "activation_301", "trainable": true, "dtype": "float32", "activation": "relu"}, "name": "activation_301", "inbound_nodes": [[["batch_normalization_313", 0, 0, {}]]]}, {"class_name": "MaxPooling2D", "config": {"name": "max_pooling2d_9", "trainable": true, "dtype": "float32", "pool_size": [3, 3], "padding": "valid", "strides": [2, 2], "data_format": "channels_last"}, "name": "max_pooling2d_9", "inbound_nodes": [[["activation_301", 0, 0, {}]]]}, {"class_name": "Conv2D", "config": {"name": "conv2d_305", "trainable": true, "dtype": "float32", "filters": 64, "kernel_size": [1, 1], "strides": [1, 1], "padding": "same", "data_format": "channels_last", "dilation_rate": [1, 1], "activation": "linear", "use_bias": false, "kernel_initializer": {"class_name": "GlorotUniform", "config": {"seed": null}}, "bias_initializer": {"class_name": "Zeros", "config": {}}, "kernel_regularizer": null, "bias_regularizer": null, "activity_regularizer": null, "kernel_constraint": null, "bias_constraint": null}, "name": "conv2d_305", "inbound_nodes": [[["max_pooling2d_9", 0, 0, {}]]]}, {"class_name": "BatchNormalization", "config": {"name": "batch_normalization_317", "trainable": true, "dtype": "float32", "axis": [3], "momentum": 0.99, "epsilon": 0.001, "center": true, "scale": false, "beta_initializer": {"class_name": "Zeros", "config": {}}, "gamma_initializer": {"class_name": "Ones", "config": {}}, "moving_mean_initializer": {"class_name": "Zeros", "config": {}}, "moving_variance_initializer": {"class_name": "Ones", "config": {}}, "beta_regularizer": null, "gamma_regularizer": null, "beta_constraint": null, "gamma_constraint": null}, "name": "batch_normalization_317", "inbound_nodes": [[["conv2d_305", 0, 0, {}]]]}, {"class_name": "Activation", "config": {"name": "activation_305", "trainable": true, "dtype": "float32", "activation": "relu"}, "name": "activation_305", "inbound_nodes": [[["batch_normalization_317", 0, 0, {}]]]}, {"class_name": "Conv2D", "config": {"name": "conv2d_303", "trainable": true, "dtype": "float32", "filters": 48, "kernel_size": [1, 1], "strides": [1, 1], "padding": "same", "data_format": "channels_last", "dilation_rate": [1, 1], "activation": "linear", "use_bias": false, "kernel_initializer": {"class_name": "GlorotUniform", "config": {"seed": null}}, "bias_initializer": {"class_name": "Zeros", "config": {}}, "kernel_regularizer": null, "bias_regularizer": null, "activity_regularizer": null, "kernel_constraint": null, "bias_constraint": null}, "name": "conv2d_303", "inbound_nodes": [[["max_pooling2d_9", 0, 0, {}]]]}, {"class_name": "Conv2D", "config": {"name": "conv2d_306", "trainable": true, "dtype": "float32", "filters": 96, "kernel_size": [3, 3], "strides": [1, 1], "padding": "same", "data_format": "channels_last", "dilation_rate": [1, 1], "activation": "linear", "use_bias": false, "kernel_initializer": {"class_name": "GlorotUniform", "config": {"seed": null}}, "bias_initializer": {"class_name": "Zeros", "config": {}}, "kernel_regularizer": null, "bias_regularizer": null, "activity_regularizer": null, "kernel_constraint": null, "bias_constraint": null}, "name": "conv2d_306", "inbound_nodes": [[["activation_305", 0, 0, {}]]]}, {"class_name": "BatchNormalization", "config": {"name": "batch_normalization_315", "trainable": true, "dtype": "float32", "axis": [3], "momentum": 0.99, "epsilon": 0.001, "center": true, "scale": false, "beta_initializer": {"class_name": "Zeros", "config": {}}, "gamma_initializer": {"class_name": "Ones", "config": {}}, "moving_mean_initializer": {"class_name": "Zeros", "config": {}}, "moving_variance_initializer": {"class_name": "Ones", "config": {}}, "beta_regularizer": null, "gamma_regularizer": null, "beta_constraint": null, "gamma_constraint": null}, "name": "batch_normalization_315", "inbound_nodes": [[["conv2d_303", 0, 0, {}]]]}, {"class_name": "BatchNormalization", "config": {"name": "batch_normalization_318", "trainable": true, "dtype": "float32", "axis": [3], "momentum": 0.99, "epsilon": 0.001, "center": true, "scale": false, "beta_initializer": {"class_name": "Zeros", "config": {}}, "gamma_initializer": {"class_name": "Ones", "config": {}}, "moving_mean_initializer": {"class_name": "Zeros", "config": {}}, "moving_variance_initializer": {"class_name": "Ones", "config": {}}, "beta_regularizer": null, "gamma_regularizer": null, "beta_constraint": null, "gamma_constraint": null}, "name": "batch_normalization_318", "inbound_nodes": [[["conv2d_306", 0, 0, {}]]]}, {"class_name": "Activation", "config": {"name": "activation_303", "trainable": true, "dtype": "float32", "activation": "relu"}, "name": "activation_303", "inbound_nodes": [[["batch_normalization_315", 0, 0, {}]]]}, {"class_name": "Activation", "config": {"name": "activation_306", "trainable": true, "dtype": "float32", "activation": "relu"}, "name": "activation_306", "inbound_nodes": [[["batch_normalization_318", 0, 0, {}]]]}, {"class_name": "AveragePooling2D", "config": {"name": "average_pooling2d_10", "trainable": true, "dtype": "float32", "pool_size": [3, 3], "padding": "same", "strides": [1, 1], "data_format": "channels_last"}, "name": "average_pooling2d_10", "inbound_nodes": [[["max_pooling2d_9", 0, 0, {}]]]}, {"class_name": "Conv2D", "config": {"name": "conv2d_302", "trainable": true, "dtype": "float32", "filters": 64, "kernel_size": [1, 1], "strides": [1, 1], "padding": "same", "data_format": "channels_last", "dilation_rate": [1, 1], "activation": "linear", "use_bias": false, "kernel_initializer": {"class_name": "GlorotUniform", "config": {"seed": null}}, "bias_initializer": {"class_name": "Zeros", "config": {}}, "kernel_regularizer": null, "bias_regularizer": null, "activity_regularizer": null, "kernel_constraint": null, "bias_constraint": null}, "name": "conv2d_302", "inbound_nodes": [[["max_pooling2d_9", 0, 0, {}]]]}, {"class_name": "Conv2D", "config": {"name": "conv2d_304", "trainable": true, "dtype": "float32", "filters": 64, "kernel_size": [5, 5], "strides": [1, 1], "padding": "same", "data_format": "channels_last", "dilation_rate": [1, 1], "activation": "linear", "use_bias": false, "kernel_initializer": {"class_name": "GlorotUniform", "config": {"seed": null}}, "bias_initializer": {"class_name": "Zeros", "config": {}}, "kernel_regularizer": null, "bias_regularizer": null, "activity_regularizer": null, "kernel_constraint": null, "bias_constraint": null}, "name": "conv2d_304", "inbound_nodes": [[["activation_303", 0, 0, {}]]]}, {"class_name": "Conv2D", "config": {"name": "conv2d_307", "trainable": true, "dtype": "float32", "filters": 96, "kernel_size": [3, 3], "strides": [1, 1], "padding": "same", "data_format": "channels_last", "dilation_rate": [1, 1], "activation": "linear", "use_bias": false, "kernel_initializer": {"class_name": "GlorotUniform", "config": {"seed": null}}, "bias_initializer": {"class_name": "Zeros", "config": {}}, "kernel_regularizer": null, "bias_regularizer": null, "activity_regularizer": null, "kernel_constraint": null, "bias_constraint": null}, "name": "conv2d_307", "inbound_nodes": [[["activation_306", 0, 0, {}]]]}, {"class_name": "Conv2D", "config": {"name": "conv2d_308", "trainable": true, "dtype": "float32", "filters": 32, "kernel_size": [1, 1], "strides": [1, 1], "padding": "same", "data_format": "channels_last", "dilation_rate": [1, 1], "activation": "linear", "use_bias": false, "kernel_initializer": {"class_name": "GlorotUniform", "config": {"seed": null}}, "bias_initializer": {"class_name": "Zeros", "config": {}}, "kernel_regularizer": null, "bias_regularizer": null, "activity_regularizer": null, "kernel_constraint": null, "bias_constraint": null}, "name": "conv2d_308", "inbound_nodes": [[["average_pooling2d_10", 0, 0, {}]]]}, {"class_name": "BatchNormalization", "config": {"name": "batch_normalization_314", "trainable": true, "dtype": "float32", "axis": [3], "momentum": 0.99, "epsilon": 0.001, "center": true, "scale": false, "beta_initializer": {"class_name": "Zeros", "config": {}}, "gamma_initializer": {"class_name": "Ones", "config": {}}, "moving_mean_initializer": {"class_name": "Zeros", "config": {}}, "moving_variance_initializer": {"class_name": "Ones", "config": {}}, "beta_regularizer": null, "gamma_regularizer": null, "beta_constraint": null, "gamma_constraint": null}, "name": "batch_normalization_314", "inbound_nodes": [[["conv2d_302", 0, 0, {}]]]}, {"class_name": "BatchNormalization", "config": {"name": "batch_normalization_316", "trainable": true, "dtype": "float32", "axis": [3], "momentum": 0.99, "epsilon": 0.001, "center": true, "scale": false, "beta_initializer": {"class_name": "Zeros", "config": {}}, "gamma_initializer": {"class_name": "Ones", "config": {}}, "moving_mean_initializer": {"class_name": "Zeros", "config": {}}, "moving_variance_initializer": {"class_name": "Ones", "config": {}}, "beta_regularizer": null, "gamma_regularizer": null, "beta_constraint": null, "gamma_constraint": null}, "name": "batch_normalization_316", "inbound_nodes": [[["conv2d_304", 0, 0, {}]]]}, {"class_name": "BatchNormalization", "config": {"name": "batch_normalization_319", "trainable": true, "dtype": "float32", "axis": [3], "momentum": 0.99, "epsilon": 0.001, "center": true, "scale": false, "beta_initializer": {"class_name": "Zeros", "config": {}}, "gamma_initializer": {"class_name": "Ones", "config": {}}, "moving_mean_initializer": {"class_name": "Zeros", "config": {}}, "moving_variance_initializer": {"class_name": "Ones", "config": {}}, "beta_regularizer": null, "gamma_regularizer": null, "beta_constraint": null, "gamma_constraint": null}, "name": "batch_normalization_319", "inbound_nodes": [[["conv2d_307", 0, 0, {}]]]}, {"class_name": "BatchNormalization", "config": {"name": "batch_normalization_320", "trainable": true, "dtype": "float32", "axis": [3], "momentum": 0.99, "epsilon": 0.001, "center": true, "scale": false, "beta_initializer": {"class_name": "Zeros", "config": {}}, "gamma_initializer": {"class_name": "Ones", "config": {}}, "moving_mean_initializer": {"class_name": "Zeros", "config": {}}, "moving_variance_initializer": {"class_name": "Ones", "config": {}}, "beta_regularizer": null, "gamma_regularizer": null, "beta_constraint": null, "gamma_constraint": null}, "name": "batch_normalization_320", "inbound_nodes": [[["conv2d_308", 0, 0, {}]]]}, {"class_name": "Activation", "config": {"name": "activation_302", "trainable": true, "dtype": "float32", "activation": "relu"}, "name": "activation_302", "inbound_nodes": [[["batch_normalization_314", 0, 0, {}]]]}, {"class_name": "Activation", "config": {"name": "activation_304", "trainable": true, "dtype": "float32", "activation": "relu"}, "name": "activation_304", "inbound_nodes": [[["batch_normalization_316", 0, 0, {}]]]}, {"class_name": "Activation", "config": {"name": "activation_307", "trainable": true, "dtype": "float32", "activation": "relu"}, "name": "activation_307", "inbound_nodes": [[["batch_normalization_319", 0, 0, {}]]]}, {"class_name": "Activation", "config": {"name": "activation_308", "trainable": true, "dtype": "float32", "activation": "relu"}, "name": "activation_308", "inbound_nodes": [[["batch_normalization_320", 0, 0, {}]]]}, {"class_name": "Concatenate", "config": {"name": "mixed0", "trainable": true, "dtype": "float32", "axis": 3}, "name": "mixed0", "inbound_nodes": [[["activation_302", 0, 0, {}], ["activation_304", 0, 0, {}], ["activation_307", 0, 0, {}], ["activation_308", 0, 0, {}]]]}, {"class_name": "Conv2D", "config": {"name": "conv2d_312", "trainable": true, "dtype": "float32", "filters": 64, "kernel_size": [1, 1], "strides": [1, 1], "padding": "same", "data_format": "channels_last", "dilation_rate": [1, 1], "activation": "linear", "use_bias": false, "kernel_initializer": {"class_name": "GlorotUniform", "config": {"seed": null}}, "bias_initializer": {"class_name": "Zeros", "config": {}}, "kernel_regularizer": null, "bias_regularizer": null, "activity_regularizer": null, "kernel_constraint": null, "bias_constraint": null}, "name": "conv2d_312", "inbound_nodes": [[["mixed0", 0, 0, {}]]]}, {"class_name": "BatchNormalization", "config": {"name": "batch_normalization_324", "trainable": true, "dtype": "float32", "axis": [3], "momentum": 0.99, "epsilon": 0.001, "center": true, "scale": false, "beta_initializer": {"class_name": "Zeros", "config": {}}, "gamma_initializer": {"class_name": "Ones", "config": {}}, "moving_mean_initializer": {"class_name": "Zeros", "config": {}}, "moving_variance_initializer": {"class_name": "Ones", "config": {}}, "beta_regularizer": null, "gamma_regularizer": null, "beta_constraint": null, "gamma_constraint": null}, "name": "batch_normalization_324", "inbound_nodes": [[["conv2d_312", 0, 0, {}]]]}, {"class_name": "Activation", "config": {"name": "activation_312", "trainable": true, "dtype": "float32", "activation": "relu"}, "name": "activation_312", "inbound_nodes": [[["batch_normalization_324", 0, 0, {}]]]}, {"class_name": "Conv2D", "config": {"name": "conv2d_310", "trainable": true, "dtype": "float32", "filters": 48, "kernel_size": [1, 1], "strides": [1, 1], "padding": "same", "data_format": "channels_last", "dilation_rate": [1, 1], "activation": "linear", "use_bias": false, "kernel_initializer": {"class_name": "GlorotUniform", "config": {"seed": null}}, "bias_initializer": {"class_name": "Zeros", "config": {}}, "kernel_regularizer": null, "bias_regularizer": null, "activity_regularizer": null, "kernel_constraint": null, "bias_constraint": null}, "name": "conv2d_310", "inbound_nodes": [[["mixed0", 0, 0, {}]]]}, {"class_name": "Conv2D", "config": {"name": "conv2d_313", "trainable": true, "dtype": "float32", "filters": 96, "kernel_size": [3, 3], "strides": [1, 1], "padding": "same", "data_format": "channels_last", "dilation_rate": [1, 1], "activation": "linear", "use_bias": false, "kernel_initializer": {"class_name": "GlorotUniform", "config": {"seed": null}}, "bias_initializer": {"class_name": "Zeros", "config": {}}, "kernel_regularizer": null, "bias_regularizer": null, "activity_regularizer": null, "kernel_constraint": null, "bias_constraint": null}, "name": "conv2d_313", "inbound_nodes": [[["activation_312", 0, 0, {}]]]}, {"class_name": "BatchNormalization", "config": {"name": "batch_normalization_322", "trainable": true, "dtype": "float32", "axis": [3], "momentum": 0.99, "epsilon": 0.001, "center": true, "scale": false, "beta_initializer": {"class_name": "Zeros", "config": {}}, "gamma_initializer": {"class_name": "Ones", "config": {}}, "moving_mean_initializer": {"class_name": "Zeros", "config": {}}, "moving_variance_initializer": {"class_name": "Ones", "config": {}}, "beta_regularizer": null, "gamma_regularizer": null, "beta_constraint": null, "gamma_constraint": null}, "name": "batch_normalization_322", "inbound_nodes": [[["conv2d_310", 0, 0, {}]]]}, {"class_name": "BatchNormalization", "config": {"name": "batch_normalization_325", "trainable": true, "dtype": "float32", "axis": [3], "momentum": 0.99, "epsilon": 0.001, "center": true, "scale": false, "beta_initializer": {"class_name": "Zeros", "config": {}}, "gamma_initializer": {"class_name": "Ones", "config": {}}, "moving_mean_initializer": {"class_name": "Zeros", "config": {}}, "moving_variance_initializer": {"class_name": "Ones", "config": {}}, "beta_regularizer": null, "gamma_regularizer": null, "beta_constraint": null, "gamma_constraint": null}, "name": "batch_normalization_325", "inbound_nodes": [[["conv2d_313", 0, 0, {}]]]}, {"class_name": "Activation", "config": {"name": "activation_310", "trainable": true, "dtype": "float32", "activation": "relu"}, "name": "activation_310", "inbound_nodes": [[["batch_normalization_322", 0, 0, {}]]]}, {"class_name": "Activation", "config": {"name": "activation_313", "trainable": true, "dtype": "float32", "activation": "relu"}, "name": "activation_313", "inbound_nodes": [[["batch_normalization_325", 0, 0, {}]]]}, {"class_name": "AveragePooling2D", "config": {"name": "average_pooling2d_11", "trainable": true, "dtype": "float32", "pool_size": [3, 3], "padding": "same", "strides": [1, 1], "data_format": "channels_last"}, "name": "average_pooling2d_11", "inbound_nodes": [[["mixed0", 0, 0, {}]]]}, {"class_name": "Conv2D", "config": {"name": "conv2d_309", "trainable": true, "dtype": "float32", "filters": 64, "kernel_size": [1, 1], "strides": [1, 1], "padding": "same", "data_format": "channels_last", "dilation_rate": [1, 1], "activation": "linear", "use_bias": false, "kernel_initializer": {"class_name": "GlorotUniform", "config": {"seed": null}}, "bias_initializer": {"class_name": "Zeros", "config": {}}, "kernel_regularizer": null, "bias_regularizer": null, "activity_regularizer": null, "kernel_constraint": null, "bias_constraint": null}, "name": "conv2d_309", "inbound_nodes": [[["mixed0", 0, 0, {}]]]}, {"class_name": "Conv2D", "config": {"name": "conv2d_311", "trainable": true, "dtype": "float32", "filters": 64, "kernel_size": [5, 5], "strides": [1, 1], "padding": "same", "data_format": "channels_last", "dilation_rate": [1, 1], "activation": "linear", "use_bias": false, "kernel_initializer": {"class_name": "GlorotUniform", "config": {"seed": null}}, "bias_initializer": {"class_name": "Zeros", "config": {}}, "kernel_regularizer": null, "bias_regularizer": null, "activity_regularizer": null, "kernel_constraint": null, "bias_constraint": null}, "name": "conv2d_311", "inbound_nodes": [[["activation_310", 0, 0, {}]]]}, {"class_name": "Conv2D", "config": {"name": "conv2d_314", "trainable": true, "dtype": "float32", "filters": 96, "kernel_size": [3, 3], "strides": [1, 1], "padding": "same", "data_format": "channels_last", "dilation_rate": [1, 1], "activation": "linear", "use_bias": false, "kernel_initializer": {"class_name": "GlorotUniform", "config": {"seed": null}}, "bias_initializer": {"class_name": "Zeros", "config": {}}, "kernel_regularizer": null, "bias_regularizer": null, "activity_regularizer": null, "kernel_constraint": null, "bias_constraint": null}, "name": "conv2d_314", "inbound_nodes": [[["activation_313", 0, 0, {}]]]}, {"class_name": "Conv2D", "config": {"name": "conv2d_315", "trainable": true, "dtype": "float32", "filters": 64, "kernel_size": [1, 1], "strides": [1, 1], "padding": "same", "data_format": "channels_last", "dilation_rate": [1, 1], "activation": "linear", "use_bias": false, "kernel_initializer": {"class_name": "GlorotUniform", "config": {"seed": null}}, "bias_initializer": {"class_name": "Zeros", "config": {}}, "kernel_regularizer": null, "bias_regularizer": null, "activity_regularizer": null, "kernel_constraint": null, "bias_constraint": null}, "name": "conv2d_315", "inbound_nodes": [[["average_pooling2d_11", 0, 0, {}]]]}, {"class_name": "BatchNormalization", "config": {"name": "batch_normalization_321", "trainable": true, "dtype": "float32", "axis": [3], "momentum": 0.99, "epsilon": 0.001, "center": true, "scale": false, "beta_initializer": {"class_name": "Zeros", "config": {}}, "gamma_initializer": {"class_name": "Ones", "config": {}}, "moving_mean_initializer": {"class_name": "Zeros", "config": {}}, "moving_variance_initializer": {"class_name": "Ones", "config": {}}, "beta_regularizer": null, "gamma_regularizer": null, "beta_constraint": null, "gamma_constraint": null}, "name": "batch_normalization_321", "inbound_nodes": [[["conv2d_309", 0, 0, {}]]]}, {"class_name": "BatchNormalization", "config": {"name": "batch_normalization_323", "trainable": true, "dtype": "float32", "axis": [3], "momentum": 0.99, "epsilon": 0.001, "center": true, "scale": false, "beta_initializer": {"class_name": "Zeros", "config": {}}, "gamma_initializer": {"class_name": "Ones", "config": {}}, "moving_mean_initializer": {"class_name": "Zeros", "config": {}}, "moving_variance_initializer": {"class_name": "Ones", "config": {}}, "beta_regularizer": null, "gamma_regularizer": null, "beta_constraint": null, "gamma_constraint": null}, "name": "batch_normalization_323", "inbound_nodes": [[["conv2d_311", 0, 0, {}]]]}, {"class_name": "BatchNormalization", "config": {"name": "batch_normalization_326", "trainable": true, "dtype": "float32", "axis": [3], "momentum": 0.99, "epsilon": 0.001, "center": true, "scale": false, "beta_initializer": {"class_name": "Zeros", "config": {}}, "gamma_initializer": {"class_name": "Ones", "config": {}}, "moving_mean_initializer": {"class_name": "Zeros", "config": {}}, "moving_variance_initializer": {"class_name": "Ones", "config": {}}, "beta_regularizer": null, "gamma_regularizer": null, "beta_constraint": null, "gamma_constraint": null}, "name": "batch_normalization_326", "inbound_nodes": [[["conv2d_314", 0, 0, {}]]]}, {"class_name": "BatchNormalization", "config": {"name": "batch_normalization_327", "trainable": true, "dtype": "float32", "axis": [3], "momentum": 0.99, "epsilon": 0.001, "center": true, "scale": false, "beta_initializer": {"class_name": "Zeros", "config": {}}, "gamma_initializer": {"class_name": "Ones", "config": {}}, "moving_mean_initializer": {"class_name": "Zeros", "config": {}}, "moving_variance_initializer": {"class_name": "Ones", "config": {}}, "beta_regularizer": null, "gamma_regularizer": null, "beta_constraint": null, "gamma_constraint": null}, "name": "batch_normalization_327", "inbound_nodes": [[["conv2d_315", 0, 0, {}]]]}, {"class_name": "Activation", "config": {"name": "activation_309", "trainable": true, "dtype": "float32", "activation": "relu"}, "name": "activation_309", "inbound_nodes": [[["batch_normalization_321", 0, 0, {}]]]}, {"class_name": "Activation", "config": {"name": "activation_311", "trainable": true, "dtype": "float32", "activation": "relu"}, "name": "activation_311", "inbound_nodes": [[["batch_normalization_323", 0, 0, {}]]]}, {"class_name": "Activation", "config": {"name": "activation_314", "trainable": true, "dtype": "float32", "activation": "relu"}, "name": "activation_314", "inbound_nodes": [[["batch_normalization_326", 0, 0, {}]]]}, {"class_name": "Activation", "config": {"name": "activation_315", "trainable": true, "dtype": "float32", "activation": "relu"}, "name": "activation_315", "inbound_nodes": [[["batch_normalization_327", 0, 0, {}]]]}, {"class_name": "Concatenate", "config": {"name": "mixed1", "trainable": true, "dtype": "float32", "axis": 3}, "name": "mixed1", "inbound_nodes": [[["activation_309", 0, 0, {}], ["activation_311", 0, 0, {}], ["activation_314", 0, 0, {}], ["activation_315", 0, 0, {}]]]}, {"class_name": "Conv2D", "config": {"name": "conv2d_319", "trainable": true, "dtype": "float32", "filters": 64, "kernel_size": [1, 1], "strides": [1, 1], "padding": "same", "data_format": "channels_last", "dilation_rate": [1, 1], "activation": "linear", "use_bias": false, "kernel_initializer": {"class_name": "GlorotUniform", "config": {"seed": null}}, "bias_initializer": {"class_name": "Zeros", "config": {}}, "kernel_regularizer": null, "bias_regularizer": null, "activity_regularizer": null, "kernel_constraint": null, "bias_constraint": null}, "name": "conv2d_319", "inbound_nodes": [[["mixed1", 0, 0, {}]]]}, {"class_name": "BatchNormalization", "config": {"name": "batch_normalization_331", "trainable": true, "dtype": "float32", "axis": [3], "momentum": 0.99, "epsilon": 0.001, "center": true, "scale": false, "beta_initializer": {"class_name": "Zeros", "config": {}}, "gamma_initializer": {"class_name": "Ones", "config": {}}, "moving_mean_initializer": {"class_name": "Zeros", "config": {}}, "moving_variance_initializer": {"class_name": "Ones", "config": {}}, "beta_regularizer": null, "gamma_regularizer": null, "beta_constraint": null, "gamma_constraint": null}, "name": "batch_normalization_331", "inbound_nodes": [[["conv2d_319", 0, 0, {}]]]}, {"class_name": "Activation", "config": {"name": "activation_319", "trainable": true, "dtype": "float32", "activation": "relu"}, "name": "activation_319", "inbound_nodes": [[["batch_normalization_331", 0, 0, {}]]]}, {"class_name": "Conv2D", "config": {"name": "conv2d_317", "trainable": true, "dtype": "float32", "filters": 48, "kernel_size": [1, 1], "strides": [1, 1], "padding": "same", "data_format": "channels_last", "dilation_rate": [1, 1], "activation": "linear", "use_bias": false, "kernel_initializer": {"class_name": "GlorotUniform", "config": {"seed": null}}, "bias_initializer": {"class_name": "Zeros", "config": {}}, "kernel_regularizer": null, "bias_regularizer": null, "activity_regularizer": null, "kernel_constraint": null, "bias_constraint": null}, "name": "conv2d_317", "inbound_nodes": [[["mixed1", 0, 0, {}]]]}, {"class_name": "Conv2D", "config": {"name": "conv2d_320", "trainable": true, "dtype": "float32", "filters": 96, "kernel_size": [3, 3], "strides": [1, 1], "padding": "same", "data_format": "channels_last", "dilation_rate": [1, 1], "activation": "linear", "use_bias": false, "kernel_initializer": {"class_name": "GlorotUniform", "config": {"seed": null}}, "bias_initializer": {"class_name": "Zeros", "config": {}}, "kernel_regularizer": null, "bias_regularizer": null, "activity_regularizer": null, "kernel_constraint": null, "bias_constraint": null}, "name": "conv2d_320", "inbound_nodes": [[["activation_319", 0, 0, {}]]]}, {"class_name": "BatchNormalization", "config": {"name": "batch_normalization_329", "trainable": true, "dtype": "float32", "axis": [3], "momentum": 0.99, "epsilon": 0.001, "center": true, "scale": false, "beta_initializer": {"class_name": "Zeros", "config": {}}, "gamma_initializer": {"class_name": "Ones", "config": {}}, "moving_mean_initializer": {"class_name": "Zeros", "config": {}}, "moving_variance_initializer": {"class_name": "Ones", "config": {}}, "beta_regularizer": null, "gamma_regularizer": null, "beta_constraint": null, "gamma_constraint": null}, "name": "batch_normalization_329", "inbound_nodes": [[["conv2d_317", 0, 0, {}]]]}, {"class_name": "BatchNormalization", "config": {"name": "batch_normalization_332", "trainable": true, "dtype": "float32", "axis": [3], "momentum": 0.99, "epsilon": 0.001, "center": true, "scale": false, "beta_initializer": {"class_name": "Zeros", "config": {}}, "gamma_initializer": {"class_name": "Ones", "config": {}}, "moving_mean_initializer": {"class_name": "Zeros", "config": {}}, "moving_variance_initializer": {"class_name": "Ones", "config": {}}, "beta_regularizer": null, "gamma_regularizer": null, "beta_constraint": null, "gamma_constraint": null}, "name": "batch_normalization_332", "inbound_nodes": [[["conv2d_320", 0, 0, {}]]]}, {"class_name": "Activation", "config": {"name": "activation_317", "trainable": true, "dtype": "float32", "activation": "relu"}, "name": "activation_317", "inbound_nodes": [[["batch_normalization_329", 0, 0, {}]]]}, {"class_name": "Activation", "config": {"name": "activation_320", "trainable": true, "dtype": "float32", "activation": "relu"}, "name": "activation_320", "inbound_nodes": [[["batch_normalization_332", 0, 0, {}]]]}, {"class_name": "AveragePooling2D", "config": {"name": "average_pooling2d_12", "trainable": true, "dtype": "float32", "pool_size": [3, 3], "padding": "same", "strides": [1, 1], "data_format": "channels_last"}, "name": "average_pooling2d_12", "inbound_nodes": [[["mixed1", 0, 0, {}]]]}, {"class_name": "Conv2D", "config": {"name": "conv2d_316", "trainable": true, "dtype": "float32", "filters": 64, "kernel_size": [1, 1], "strides": [1, 1], "padding": "same", "data_format": "channels_last", "dilation_rate": [1, 1], "activation": "linear", "use_bias": false, "kernel_initializer": {"class_name": "GlorotUniform", "config": {"seed": null}}, "bias_initializer": {"class_name": "Zeros", "config": {}}, "kernel_regularizer": null, "bias_regularizer": null, "activity_regularizer": null, "kernel_constraint": null, "bias_constraint": null}, "name": "conv2d_316", "inbound_nodes": [[["mixed1", 0, 0, {}]]]}, {"class_name": "Conv2D", "config": {"name": "conv2d_318", "trainable": true, "dtype": "float32", "filters": 64, "kernel_size": [5, 5], "strides": [1, 1], "padding": "same", "data_format": "channels_last", "dilation_rate": [1, 1], "activation": "linear", "use_bias": false, "kernel_initializer": {"class_name": "GlorotUniform", "config": {"seed": null}}, "bias_initializer": {"class_name": "Zeros", "config": {}}, "kernel_regularizer": null, "bias_regularizer": null, "activity_regularizer": null, "kernel_constraint": null, "bias_constraint": null}, "name": "conv2d_318", "inbound_nodes": [[["activation_317", 0, 0, {}]]]}, {"class_name": "Conv2D", "config": {"name": "conv2d_321", "trainable": true, "dtype": "float32", "filters": 96, "kernel_size": [3, 3], "strides": [1, 1], "padding": "same", "data_format": "channels_last", "dilation_rate": [1, 1], "activation": "linear", "use_bias": false, "kernel_initializer": {"class_name": "GlorotUniform", "config": {"seed": null}}, "bias_initializer": {"class_name": "Zeros", "config": {}}, "kernel_regularizer": null, "bias_regularizer": null, "activity_regularizer": null, "kernel_constraint": null, "bias_constraint": null}, "name": "conv2d_321", "inbound_nodes": [[["activation_320", 0, 0, {}]]]}, {"class_name": "Conv2D", "config": {"name": "conv2d_322", "trainable": true, "dtype": "float32", "filters": 64, "kernel_size": [1, 1], "strides": [1, 1], "padding": "same", "data_format": "channels_last", "dilation_rate": [1, 1], "activation": "linear", "use_bias": false, "kernel_initializer": {"class_name": "GlorotUniform", "config": {"seed": null}}, "bias_initializer": {"class_name": "Zeros", "config": {}}, "kernel_regularizer": null, "bias_regularizer": null, "activity_regularizer": null, "kernel_constraint": null, "bias_constraint": null}, "name": "conv2d_322", "inbound_nodes": [[["average_pooling2d_12", 0, 0, {}]]]}, {"class_name": "BatchNormalization", "config": {"name": "batch_normalization_328", "trainable": true, "dtype": "float32", "axis": [3], "momentum": 0.99, "epsilon": 0.001, "center": true, "scale": false, "beta_initializer": {"class_name": "Zeros", "config": {}}, "gamma_initializer": {"class_name": "Ones", "config": {}}, "moving_mean_initializer": {"class_name": "Zeros", "config": {}}, "moving_variance_initializer": {"class_name": "Ones", "config": {}}, "beta_regularizer": null, "gamma_regularizer": null, "beta_constraint": null, "gamma_constraint": null}, "name": "batch_normalization_328", "inbound_nodes": [[["conv2d_316", 0, 0, {}]]]}, {"class_name": "BatchNormalization", "config": {"name": "batch_normalization_330", "trainable": true, "dtype": "float32", "axis": [3], "momentum": 0.99, "epsilon": 0.001, "center": true, "scale": false, "beta_initializer": {"class_name": "Zeros", "config": {}}, "gamma_initializer": {"class_name": "Ones", "config": {}}, "moving_mean_initializer": {"class_name": "Zeros", "config": {}}, "moving_variance_initializer": {"class_name": "Ones", "config": {}}, "beta_regularizer": null, "gamma_regularizer": null, "beta_constraint": null, "gamma_constraint": null}, "name": "batch_normalization_330", "inbound_nodes": [[["conv2d_318", 0, 0, {}]]]}, {"class_name": "BatchNormalization", "config": {"name": "batch_normalization_333", "trainable": true, "dtype": "float32", "axis": [3], "momentum": 0.99, "epsilon": 0.001, "center": true, "scale": false, "beta_initializer": {"class_name": "Zeros", "config": {}}, "gamma_initializer": {"class_name": "Ones", "config": {}}, "moving_mean_initializer": {"class_name": "Zeros", "config": {}}, "moving_variance_initializer": {"class_name": "Ones", "config": {}}, "beta_regularizer": null, "gamma_regularizer": null, "beta_constraint": null, "gamma_constraint": null}, "name": "batch_normalization_333", "inbound_nodes": [[["conv2d_321", 0, 0, {}]]]}, {"class_name": "BatchNormalization", "config": {"name": "batch_normalization_334", "trainable": true, "dtype": "float32", "axis": [3], "momentum": 0.99, "epsilon": 0.001, "center": true, "scale": false, "beta_initializer": {"class_name": "Zeros", "config": {}}, "gamma_initializer": {"class_name": "Ones", "config": {}}, "moving_mean_initializer": {"class_name": "Zeros", "config": {}}, "moving_variance_initializer": {"class_name": "Ones", "config": {}}, "beta_regularizer": null, "gamma_regularizer": null, "beta_constraint": null, "gamma_constraint": null}, "name": "batch_normalization_334", "inbound_nodes": [[["conv2d_322", 0, 0, {}]]]}, {"class_name": "Activation", "config": {"name": "activation_316", "trainable": true, "dtype": "float32", "activation": "relu"}, "name": "activation_316", "inbound_nodes": [[["batch_normalization_328", 0, 0, {}]]]}, {"class_name": "Activation", "config": {"name": "activation_318", "trainable": true, "dtype": "float32", "activation": "relu"}, "name": "activation_318", "inbound_nodes": [[["batch_normalization_330", 0, 0, {}]]]}, {"class_name": "Activation", "config": {"name": "activation_321", "trainable": true, "dtype": "float32", "activation": "relu"}, "name": "activation_321", "inbound_nodes": [[["batch_normalization_333", 0, 0, {}]]]}, {"class_name": "Activation", "config": {"name": "activation_322", "trainable": true, "dtype": "float32", "activation": "relu"}, "name": "activation_322", "inbound_nodes": [[["batch_normalization_334", 0, 0, {}]]]}, {"class_name": "Concatenate", "config": {"name": "mixed2", "trainable": true, "dtype": "float32", "axis": 3}, "name": "mixed2", "inbound_nodes": [[["activation_316", 0, 0, {}], ["activation_318", 0, 0, {}], ["activation_321", 0, 0, {}], ["activation_322", 0, 0, {}]]]}, {"class_name": "Conv2D", "config": {"name": "conv2d_324", "trainable": true, "dtype": "float32", "filters": 64, "kernel_size": [1, 1], "strides": [1, 1], "padding": "same", "data_format": "channels_last", "dilation_rate": [1, 1], "activation": "linear", "use_bias": false, "kernel_initializer": {"class_name": "GlorotUniform", "config": {"seed": null}}, "bias_initializer": {"class_name": "Zeros", "config": {}}, "kernel_regularizer": null, "bias_regularizer": null, "activity_regularizer": null, "kernel_constraint": null, "bias_constraint": null}, "name": "conv2d_324", "inbound_nodes": [[["mixed2", 0, 0, {}]]]}, {"class_name": "BatchNormalization", "config": {"name": "batch_normalization_336", "trainable": true, "dtype": "float32", "axis": [3], "momentum": 0.99, "epsilon": 0.001, "center": true, "scale": false, "beta_initializer": {"class_name": "Zeros", "config": {}}, "gamma_initializer": {"class_name": "Ones", "config": {}}, "moving_mean_initializer": {"class_name": "Zeros", "config": {}}, "moving_variance_initializer": {"class_name": "Ones", "config": {}}, "beta_regularizer": null, "gamma_regularizer": null, "beta_constraint": null, "gamma_constraint": null}, "name": "batch_normalization_336", "inbound_nodes": [[["conv2d_324", 0, 0, {}]]]}, {"class_name": "Activation", "config": {"name": "activation_324", "trainable": true, "dtype": "float32", "activation": "relu"}, "name": "activation_324", "inbound_nodes": [[["batch_normalization_336", 0, 0, {}]]]}, {"class_name": "Conv2D", "config": {"name": "conv2d_325", "trainable": true, "dtype": "float32", "filters": 96, "kernel_size": [3, 3], "strides": [1, 1], "padding": "same", "data_format": "channels_last", "dilation_rate": [1, 1], "activation": "linear", "use_bias": false, "kernel_initializer": {"class_name": "GlorotUniform", "config": {"seed": null}}, "bias_initializer": {"class_name": "Zeros", "config": {}}, "kernel_regularizer": null, "bias_regularizer": null, "activity_regularizer": null, "kernel_constraint": null, "bias_constraint": null}, "name": "conv2d_325", "inbound_nodes": [[["activation_324", 0, 0, {}]]]}, {"class_name": "BatchNormalization", "config": {"name": "batch_normalization_337", "trainable": true, "dtype": "float32", "axis": [3], "momentum": 0.99, "epsilon": 0.001, "center": true, "scale": false, "beta_initializer": {"class_name": "Zeros", "config": {}}, "gamma_initializer": {"class_name": "Ones", "config": {}}, "moving_mean_initializer": {"class_name": "Zeros", "config": {}}, "moving_variance_initializer": {"class_name": "Ones", "config": {}}, "beta_regularizer": null, "gamma_regularizer": null, "beta_constraint": null, "gamma_constraint": null}, "name": "batch_normalization_337", "inbound_nodes": [[["conv2d_325", 0, 0, {}]]]}, {"class_name": "Activation", "config": {"name": "activation_325", "trainable": true, "dtype": "float32", "activation": "relu"}, "name": "activation_325", "inbound_nodes": [[["batch_normalization_337", 0, 0, {}]]]}, {"class_name": "Conv2D", "config": {"name": "conv2d_323", "trainable": true, "dtype": "float32", "filters": 384, "kernel_size": [3, 3], "strides": [2, 2], "padding": "valid", "data_format": "channels_last", "dilation_rate": [1, 1], "activation": "linear", "use_bias": false, "kernel_initializer": {"class_name": "GlorotUniform", "config": {"seed": null}}, "bias_initializer": {"class_name": "Zeros", "config": {}}, "kernel_regularizer": null, "bias_regularizer": null, "activity_regularizer": null, "kernel_constraint": null, "bias_constraint": null}, "name": "conv2d_323", "inbound_nodes": [[["mixed2", 0, 0, {}]]]}, {"class_name": "Conv2D", "config": {"name": "conv2d_326", "trainable": true, "dtype": "float32", "filters": 96, "kernel_size": [3, 3], "strides": [2, 2], "padding": "valid", "data_format": "channels_last", "dilation_rate": [1, 1], "activation": "linear", "use_bias": false, "kernel_initializer": {"class_name": "GlorotUniform", "config": {"seed": null}}, "bias_initializer": {"class_name": "Zeros", "config": {}}, "kernel_regularizer": null, "bias_regularizer": null, "activity_regularizer": null, "kernel_constraint": null, "bias_constraint": null}, "name": "conv2d_326", "inbound_nodes": [[["activation_325", 0, 0, {}]]]}, {"class_name": "BatchNormalization", "config": {"name": "batch_normalization_335", "trainable": true, "dtype": "float32", "axis": [3], "momentum": 0.99, "epsilon": 0.001, "center": true, "scale": false, "beta_initializer": {"class_name": "Zeros", "config": {}}, "gamma_initializer": {"class_name": "Ones", "config": {}}, "moving_mean_initializer": {"class_name": "Zeros", "config": {}}, "moving_variance_initializer": {"class_name": "Ones", "config": {}}, "beta_regularizer": null, "gamma_regularizer": null, "beta_constraint": null, "gamma_constraint": null}, "name": "batch_normalization_335", "inbound_nodes": [[["conv2d_323", 0, 0, {}]]]}, {"class_name": "BatchNormalization", "config": {"name": "batch_normalization_338", "trainable": true, "dtype": "float32", "axis": [3], "momentum": 0.99, "epsilon": 0.001, "center": true, "scale": false, "beta_initializer": {"class_name": "Zeros", "config": {}}, "gamma_initializer": {"class_name": "Ones", "config": {}}, "moving_mean_initializer": {"class_name": "Zeros", "config": {}}, "moving_variance_initializer": {"class_name": "Ones", "config": {}}, "beta_regularizer": null, "gamma_regularizer": null, "beta_constraint": null, "gamma_constraint": null}, "name": "batch_normalization_338", "inbound_nodes": [[["conv2d_326", 0, 0, {}]]]}, {"class_name": "Activation", "config": {"name": "activation_323", "trainable": true, "dtype": "float32", "activation": "relu"}, "name": "activation_323", "inbound_nodes": [[["batch_normalization_335", 0, 0, {}]]]}, {"class_name": "Activation", "config": {"name": "activation_326", "trainable": true, "dtype": "float32", "activation": "relu"}, "name": "activation_326", "inbound_nodes": [[["batch_normalization_338", 0, 0, {}]]]}, {"class_name": "MaxPooling2D", "config": {"name": "max_pooling2d_10", "trainable": true, "dtype": "float32", "pool_size": [3, 3], "padding": "valid", "strides": [2, 2], "data_format": "channels_last"}, "name": "max_pooling2d_10", "inbound_nodes": [[["mixed2", 0, 0, {}]]]}, {"class_name": "Concatenate", "config": {"name": "mixed3", "trainable": true, "dtype": "float32", "axis": 3}, "name": "mixed3", "inbound_nodes": [[["activation_323", 0, 0, {}], ["activation_326", 0, 0, {}], ["max_pooling2d_10", 0, 0, {}]]]}, {"class_name": "Conv2D", "config": {"name": "conv2d_331", "trainable": true, "dtype": "float32", "filters": 128, "kernel_size": [1, 1], "strides": [1, 1], "padding": "same", "data_format": "channels_last", "dilation_rate": [1, 1], "activation": "linear", "use_bias": false, "kernel_initializer": {"class_name": "GlorotUniform", "config": {"seed": null}}, "bias_initializer": {"class_name": "Zeros", "config": {}}, "kernel_regularizer": null, "bias_regularizer": null, "activity_regularizer": null, "kernel_constraint": null, "bias_constraint": null}, "name": "conv2d_331", "inbound_nodes": [[["mixed3", 0, 0, {}]]]}, {"class_name": "BatchNormalization", "config": {"name": "batch_normalization_343", "trainable": true, "dtype": "float32", "axis": [3], "momentum": 0.99, "epsilon": 0.001, "center": true, "scale": false, "beta_initializer": {"class_name": "Zeros", "config": {}}, "gamma_initializer": {"class_name": "Ones", "config": {}}, "moving_mean_initializer": {"class_name": "Zeros", "config": {}}, "moving_variance_initializer": {"class_name": "Ones", "config": {}}, "beta_regularizer": null, "gamma_regularizer": null, "beta_constraint": null, "gamma_constraint": null}, "name": "batch_normalization_343", "inbound_nodes": [[["conv2d_331", 0, 0, {}]]]}, {"class_name": "Activation", "config": {"name": "activation_331", "trainable": true, "dtype": "float32", "activation": "relu"}, "name": "activation_331", "inbound_nodes": [[["batch_normalization_343", 0, 0, {}]]]}, {"class_name": "Conv2D", "config": {"name": "conv2d_332", "trainable": true, "dtype": "float32", "filters": 128, "kernel_size": [7, 1], "strides": [1, 1], "padding": "same", "data_format": "channels_last", "dilation_rate": [1, 1], "activation": "linear", "use_bias": false, "kernel_initializer": {"class_name": "GlorotUniform", "config": {"seed": null}}, "bias_initializer": {"class_name": "Zeros", "config": {}}, "kernel_regularizer": null, "bias_regularizer": null, "activity_regularizer": null, "kernel_constraint": null, "bias_constraint": null}, "name": "conv2d_332", "inbound_nodes": [[["activation_331", 0, 0, {}]]]}, {"class_name": "BatchNormalization", "config": {"name": "batch_normalization_344", "trainable": true, "dtype": "float32", "axis": [3], "momentum": 0.99, "epsilon": 0.001, "center": true, "scale": false, "beta_initializer": {"class_name": "Zeros", "config": {}}, "gamma_initializer": {"class_name": "Ones", "config": {}}, "moving_mean_initializer": {"class_name": "Zeros", "config": {}}, "moving_variance_initializer": {"class_name": "Ones", "config": {}}, "beta_regularizer": null, "gamma_regularizer": null, "beta_constraint": null, "gamma_constraint": null}, "name": "batch_normalization_344", "inbound_nodes": [[["conv2d_332", 0, 0, {}]]]}, {"class_name": "Activation", "config": {"name": "activation_332", "trainable": true, "dtype": "float32", "activation": "relu"}, "name": "activation_332", "inbound_nodes": [[["batch_normalization_344", 0, 0, {}]]]}, {"class_name": "Conv2D", "config": {"name": "conv2d_328", "trainable": true, "dtype": "float32", "filters": 128, "kernel_size": [1, 1], "strides": [1, 1], "padding": "same", "data_format": "channels_last", "dilation_rate": [1, 1], "activation": "linear", "use_bias": false, "kernel_initializer": {"class_name": "GlorotUniform", "config": {"seed": null}}, "bias_initializer": {"class_name": "Zeros", "config": {}}, "kernel_regularizer": null, "bias_regularizer": null, "activity_regularizer": null, "kernel_constraint": null, "bias_constraint": null}, "name": "conv2d_328", "inbound_nodes": [[["mixed3", 0, 0, {}]]]}, {"class_name": "Conv2D", "config": {"name": "conv2d_333", "trainable": true, "dtype": "float32", "filters": 128, "kernel_size": [1, 7], "strides": [1, 1], "padding": "same", "data_format": "channels_last", "dilation_rate": [1, 1], "activation": "linear", "use_bias": false, "kernel_initializer": {"class_name": "GlorotUniform", "config": {"seed": null}}, "bias_initializer": {"class_name": "Zeros", "config": {}}, "kernel_regularizer": null, "bias_regularizer": null, "activity_regularizer": null, "kernel_constraint": null, "bias_constraint": null}, "name": "conv2d_333", "inbound_nodes": [[["activation_332", 0, 0, {}]]]}, {"class_name": "BatchNormalization", "config": {"name": "batch_normalization_340", "trainable": true, "dtype": "float32", "axis": [3], "momentum": 0.99, "epsilon": 0.001, "center": true, "scale": false, "beta_initializer": {"class_name": "Zeros", "config": {}}, "gamma_initializer": {"class_name": "Ones", "config": {}}, "moving_mean_initializer": {"class_name": "Zeros", "config": {}}, "moving_variance_initializer": {"class_name": "Ones", "config": {}}, "beta_regularizer": null, "gamma_regularizer": null, "beta_constraint": null, "gamma_constraint": null}, "name": "batch_normalization_340", "inbound_nodes": [[["conv2d_328", 0, 0, {}]]]}, {"class_name": "BatchNormalization", "config": {"name": "batch_normalization_345", "trainable": true, "dtype": "float32", "axis": [3], "momentum": 0.99, "epsilon": 0.001, "center": true, "scale": false, "beta_initializer": {"class_name": "Zeros", "config": {}}, "gamma_initializer": {"class_name": "Ones", "config": {}}, "moving_mean_initializer": {"class_name": "Zeros", "config": {}}, "moving_variance_initializer": {"class_name": "Ones", "config": {}}, "beta_regularizer": null, "gamma_regularizer": null, "beta_constraint": null, "gamma_constraint": null}, "name": "batch_normalization_345", "inbound_nodes": [[["conv2d_333", 0, 0, {}]]]}, {"class_name": "Activation", "config": {"name": "activation_328", "trainable": true, "dtype": "float32", "activation": "relu"}, "name": "activation_328", "inbound_nodes": [[["batch_normalization_340", 0, 0, {}]]]}, {"class_name": "Activation", "config": {"name": "activation_333", "trainable": true, "dtype": "float32", "activation": "relu"}, "name": "activation_333", "inbound_nodes": [[["batch_normalization_345", 0, 0, {}]]]}, {"class_name": "Conv2D", "config": {"name": "conv2d_329", "trainable": true, "dtype": "float32", "filters": 128, "kernel_size": [1, 7], "strides": [1, 1], "padding": "same", "data_format": "channels_last", "dilation_rate": [1, 1], "activation": "linear", "use_bias": false, "kernel_initializer": {"class_name": "GlorotUniform", "config": {"seed": null}}, "bias_initializer": {"class_name": "Zeros", "config": {}}, "kernel_regularizer": null, "bias_regularizer": null, "activity_regularizer": null, "kernel_constraint": null, "bias_constraint": null}, "name": "conv2d_329", "inbound_nodes": [[["activation_328", 0, 0, {}]]]}, {"class_name": "Conv2D", "config": {"name": "conv2d_334", "trainable": true, "dtype": "float32", "filters": 128, "kernel_size": [7, 1], "strides": [1, 1], "padding": "same", "data_format": "channels_last", "dilation_rate": [1, 1], "activation": "linear", "use_bias": false, "kernel_initializer": {"class_name": "GlorotUniform", "config": {"seed": null}}, "bias_initializer": {"class_name": "Zeros", "config": {}}, "kernel_regularizer": null, "bias_regularizer": null, "activity_regularizer": null, "kernel_constraint": null, "bias_constraint": null}, "name": "conv2d_334", "inbound_nodes": [[["activation_333", 0, 0, {}]]]}, {"class_name": "BatchNormalization", "config": {"name": "batch_normalization_341", "trainable": true, "dtype": "float32", "axis": [3], "momentum": 0.99, "epsilon": 0.001, "center": true, "scale": false, "beta_initializer": {"class_name": "Zeros", "config": {}}, "gamma_initializer": {"class_name": "Ones", "config": {}}, "moving_mean_initializer": {"class_name": "Zeros", "config": {}}, "moving_variance_initializer": {"class_name": "Ones", "config": {}}, "beta_regularizer": null, "gamma_regularizer": null, "beta_constraint": null, "gamma_constraint": null}, "name": "batch_normalization_341", "inbound_nodes": [[["conv2d_329", 0, 0, {}]]]}, {"class_name": "BatchNormalization", "config": {"name": "batch_normalization_346", "trainable": true, "dtype": "float32", "axis": [3], "momentum": 0.99, "epsilon": 0.001, "center": true, "scale": false, "beta_initializer": {"class_name": "Zeros", "config": {}}, "gamma_initializer": {"class_name": "Ones", "config": {}}, "moving_mean_initializer": {"class_name": "Zeros", "config": {}}, "moving_variance_initializer": {"class_name": "Ones", "config": {}}, "beta_regularizer": null, "gamma_regularizer": null, "beta_constraint": null, "gamma_constraint": null}, "name": "batch_normalization_346", "inbound_nodes": [[["conv2d_334", 0, 0, {}]]]}, {"class_name": "Activation", "config": {"name": "activation_329", "trainable": true, "dtype": "float32", "activation": "relu"}, "name": "activation_329", "inbound_nodes": [[["batch_normalization_341", 0, 0, {}]]]}, {"class_name": "Activation", "config": {"name": "activation_334", "trainable": true, "dtype": "float32", "activation": "relu"}, "name": "activation_334", "inbound_nodes": [[["batch_normalization_346", 0, 0, {}]]]}, {"class_name": "AveragePooling2D", "config": {"name": "average_pooling2d_13", "trainable": true, "dtype": "float32", "pool_size": [3, 3], "padding": "same", "strides": [1, 1], "data_format": "channels_last"}, "name": "average_pooling2d_13", "inbound_nodes": [[["mixed3", 0, 0, {}]]]}, {"class_name": "Conv2D", "config": {"name": "conv2d_327", "trainable": true, "dtype": "float32", "filters": 192, "kernel_size": [1, 1], "strides": [1, 1], "padding": "same", "data_format": "channels_last", "dilation_rate": [1, 1], "activation": "linear", "use_bias": false, "kernel_initializer": {"class_name": "GlorotUniform", "config": {"seed": null}}, "bias_initializer": {"class_name": "Zeros", "config": {}}, "kernel_regularizer": null, "bias_regularizer": null, "activity_regularizer": null, "kernel_constraint": null, "bias_constraint": null}, "name": "conv2d_327", "inbound_nodes": [[["mixed3", 0, 0, {}]]]}, {"class_name": "Conv2D", "config": {"name": "conv2d_330", "trainable": true, "dtype": "float32", "filters": 192, "kernel_size": [7, 1], "strides": [1, 1], "padding": "same", "data_format": "channels_last", "dilation_rate": [1, 1], "activation": "linear", "use_bias": false, "kernel_initializer": {"class_name": "GlorotUniform", "config": {"seed": null}}, "bias_initializer": {"class_name": "Zeros", "config": {}}, "kernel_regularizer": null, "bias_regularizer": null, "activity_regularizer": null, "kernel_constraint": null, "bias_constraint": null}, "name": "conv2d_330", "inbound_nodes": [[["activation_329", 0, 0, {}]]]}, {"class_name": "Conv2D", "config": {"name": "conv2d_335", "trainable": true, "dtype": "float32", "filters": 192, "kernel_size": [1, 7], "strides": [1, 1], "padding": "same", "data_format": "channels_last", "dilation_rate": [1, 1], "activation": "linear", "use_bias": false, "kernel_initializer": {"class_name": "GlorotUniform", "config": {"seed": null}}, "bias_initializer": {"class_name": "Zeros", "config": {}}, "kernel_regularizer": null, "bias_regularizer": null, "activity_regularizer": null, "kernel_constraint": null, "bias_constraint": null}, "name": "conv2d_335", "inbound_nodes": [[["activation_334", 0, 0, {}]]]}, {"class_name": "Conv2D", "config": {"name": "conv2d_336", "trainable": true, "dtype": "float32", "filters": 192, "kernel_size": [1, 1], "strides": [1, 1], "padding": "same", "data_format": "channels_last", "dilation_rate": [1, 1], "activation": "linear", "use_bias": false, "kernel_initializer": {"class_name": "GlorotUniform", "config": {"seed": null}}, "bias_initializer": {"class_name": "Zeros", "config": {}}, "kernel_regularizer": null, "bias_regularizer": null, "activity_regularizer": null, "kernel_constraint": null, "bias_constraint": null}, "name": "conv2d_336", "inbound_nodes": [[["average_pooling2d_13", 0, 0, {}]]]}, {"class_name": "BatchNormalization", "config": {"name": "batch_normalization_339", "trainable": true, "dtype": "float32", "axis": [3], "momentum": 0.99, "epsilon": 0.001, "center": true, "scale": false, "beta_initializer": {"class_name": "Zeros", "config": {}}, "gamma_initializer": {"class_name": "Ones", "config": {}}, "moving_mean_initializer": {"class_name": "Zeros", "config": {}}, "moving_variance_initializer": {"class_name": "Ones", "config": {}}, "beta_regularizer": null, "gamma_regularizer": null, "beta_constraint": null, "gamma_constraint": null}, "name": "batch_normalization_339", "inbound_nodes": [[["conv2d_327", 0, 0, {}]]]}, {"class_name": "BatchNormalization", "config": {"name": "batch_normalization_342", "trainable": true, "dtype": "float32", "axis": [3], "momentum": 0.99, "epsilon": 0.001, "center": true, "scale": false, "beta_initializer": {"class_name": "Zeros", "config": {}}, "gamma_initializer": {"class_name": "Ones", "config": {}}, "moving_mean_initializer": {"class_name": "Zeros", "config": {}}, "moving_variance_initializer": {"class_name": "Ones", "config": {}}, "beta_regularizer": null, "gamma_regularizer": null, "beta_constraint": null, "gamma_constraint": null}, "name": "batch_normalization_342", "inbound_nodes": [[["conv2d_330", 0, 0, {}]]]}, {"class_name": "BatchNormalization", "config": {"name": "batch_normalization_347", "trainable": true, "dtype": "float32", "axis": [3], "momentum": 0.99, "epsilon": 0.001, "center": true, "scale": false, "beta_initializer": {"class_name": "Zeros", "config": {}}, "gamma_initializer": {"class_name": "Ones", "config": {}}, "moving_mean_initializer": {"class_name": "Zeros", "config": {}}, "moving_variance_initializer": {"class_name": "Ones", "config": {}}, "beta_regularizer": null, "gamma_regularizer": null, "beta_constraint": null, "gamma_constraint": null}, "name": "batch_normalization_347", "inbound_nodes": [[["conv2d_335", 0, 0, {}]]]}, {"class_name": "BatchNormalization", "config": {"name": "batch_normalization_348", "trainable": true, "dtype": "float32", "axis": [3], "momentum": 0.99, "epsilon": 0.001, "center": true, "scale": false, "beta_initializer": {"class_name": "Zeros", "config": {}}, "gamma_initializer": {"class_name": "Ones", "config": {}}, "moving_mean_initializer": {"class_name": "Zeros", "config": {}}, "moving_variance_initializer": {"class_name": "Ones", "config": {}}, "beta_regularizer": null, "gamma_regularizer": null, "beta_constraint": null, "gamma_constraint": null}, "name": "batch_normalization_348", "inbound_nodes": [[["conv2d_336", 0, 0, {}]]]}, {"class_name": "Activation", "config": {"name": "activation_327", "trainable": true, "dtype": "float32", "activation": "relu"}, "name": "activation_327", "inbound_nodes": [[["batch_normalization_339", 0, 0, {}]]]}, {"class_name": "Activation", "config": {"name": "activation_330", "trainable": true, "dtype": "float32", "activation": "relu"}, "name": "activation_330", "inbound_nodes": [[["batch_normalization_342", 0, 0, {}]]]}, {"class_name": "Activation", "config": {"name": "activation_335", "trainable": true, "dtype": "float32", "activation": "relu"}, "name": "activation_335", "inbound_nodes": [[["batch_normalization_347", 0, 0, {}]]]}, {"class_name": "Activation", "config": {"name": "activation_336", "trainable": true, "dtype": "float32", "activation": "relu"}, "name": "activation_336", "inbound_nodes": [[["batch_normalization_348", 0, 0, {}]]]}, {"class_name": "Concatenate", "config": {"name": "mixed4", "trainable": true, "dtype": "float32", "axis": 3}, "name": "mixed4", "inbound_nodes": [[["activation_327", 0, 0, {}], ["activation_330", 0, 0, {}], ["activation_335", 0, 0, {}], ["activation_336", 0, 0, {}]]]}, {"class_name": "Conv2D", "config": {"name": "conv2d_341", "trainable": true, "dtype": "float32", "filters": 160, "kernel_size": [1, 1], "strides": [1, 1], "padding": "same", "data_format": "channels_last", "dilation_rate": [1, 1], "activation": "linear", "use_bias": false, "kernel_initializer": {"class_name": "GlorotUniform", "config": {"seed": null}}, "bias_initializer": {"class_name": "Zeros", "config": {}}, "kernel_regularizer": null, "bias_regularizer": null, "activity_regularizer": null, "kernel_constraint": null, "bias_constraint": null}, "name": "conv2d_341", "inbound_nodes": [[["mixed4", 0, 0, {}]]]}, {"class_name": "BatchNormalization", "config": {"name": "batch_normalization_353", "trainable": true, "dtype": "float32", "axis": [3], "momentum": 0.99, "epsilon": 0.001, "center": true, "scale": false, "beta_initializer": {"class_name": "Zeros", "config": {}}, "gamma_initializer": {"class_name": "Ones", "config": {}}, "moving_mean_initializer": {"class_name": "Zeros", "config": {}}, "moving_variance_initializer": {"class_name": "Ones", "config": {}}, "beta_regularizer": null, "gamma_regularizer": null, "beta_constraint": null, "gamma_constraint": null}, "name": "batch_normalization_353", "inbound_nodes": [[["conv2d_341", 0, 0, {}]]]}, {"class_name": "Activation", "config": {"name": "activation_341", "trainable": true, "dtype": "float32", "activation": "relu"}, "name": "activation_341", "inbound_nodes": [[["batch_normalization_353", 0, 0, {}]]]}, {"class_name": "Conv2D", "config": {"name": "conv2d_342", "trainable": true, "dtype": "float32", "filters": 160, "kernel_size": [7, 1], "strides": [1, 1], "padding": "same", "data_format": "channels_last", "dilation_rate": [1, 1], "activation": "linear", "use_bias": false, "kernel_initializer": {"class_name": "GlorotUniform", "config": {"seed": null}}, "bias_initializer": {"class_name": "Zeros", "config": {}}, "kernel_regularizer": null, "bias_regularizer": null, "activity_regularizer": null, "kernel_constraint": null, "bias_constraint": null}, "name": "conv2d_342", "inbound_nodes": [[["activation_341", 0, 0, {}]]]}, {"class_name": "BatchNormalization", "config": {"name": "batch_normalization_354", "trainable": true, "dtype": "float32", "axis": [3], "momentum": 0.99, "epsilon": 0.001, "center": true, "scale": false, "beta_initializer": {"class_name": "Zeros", "config": {}}, "gamma_initializer": {"class_name": "Ones", "config": {}}, "moving_mean_initializer": {"class_name": "Zeros", "config": {}}, "moving_variance_initializer": {"class_name": "Ones", "config": {}}, "beta_regularizer": null, "gamma_regularizer": null, "beta_constraint": null, "gamma_constraint": null}, "name": "batch_normalization_354", "inbound_nodes": [[["conv2d_342", 0, 0, {}]]]}, {"class_name": "Activation", "config": {"name": "activation_342", "trainable": true, "dtype": "float32", "activation": "relu"}, "name": "activation_342", "inbound_nodes": [[["batch_normalization_354", 0, 0, {}]]]}, {"class_name": "Conv2D", "config": {"name": "conv2d_338", "trainable": true, "dtype": "float32", "filters": 160, "kernel_size": [1, 1], "strides": [1, 1], "padding": "same", "data_format": "channels_last", "dilation_rate": [1, 1], "activation": "linear", "use_bias": false, "kernel_initializer": {"class_name": "GlorotUniform", "config": {"seed": null}}, "bias_initializer": {"class_name": "Zeros", "config": {}}, "kernel_regularizer": null, "bias_regularizer": null, "activity_regularizer": null, "kernel_constraint": null, "bias_constraint": null}, "name": "conv2d_338", "inbound_nodes": [[["mixed4", 0, 0, {}]]]}, {"class_name": "Conv2D", "config": {"name": "conv2d_343", "trainable": true, "dtype": "float32", "filters": 160, "kernel_size": [1, 7], "strides": [1, 1], "padding": "same", "data_format": "channels_last", "dilation_rate": [1, 1], "activation": "linear", "use_bias": false, "kernel_initializer": {"class_name": "GlorotUniform", "config": {"seed": null}}, "bias_initializer": {"class_name": "Zeros", "config": {}}, "kernel_regularizer": null, "bias_regularizer": null, "activity_regularizer": null, "kernel_constraint": null, "bias_constraint": null}, "name": "conv2d_343", "inbound_nodes": [[["activation_342", 0, 0, {}]]]}, {"class_name": "BatchNormalization", "config": {"name": "batch_normalization_350", "trainable": true, "dtype": "float32", "axis": [3], "momentum": 0.99, "epsilon": 0.001, "center": true, "scale": false, "beta_initializer": {"class_name": "Zeros", "config": {}}, "gamma_initializer": {"class_name": "Ones", "config": {}}, "moving_mean_initializer": {"class_name": "Zeros", "config": {}}, "moving_variance_initializer": {"class_name": "Ones", "config": {}}, "beta_regularizer": null, "gamma_regularizer": null, "beta_constraint": null, "gamma_constraint": null}, "name": "batch_normalization_350", "inbound_nodes": [[["conv2d_338", 0, 0, {}]]]}, {"class_name": "BatchNormalization", "config": {"name": "batch_normalization_355", "trainable": true, "dtype": "float32", "axis": [3], "momentum": 0.99, "epsilon": 0.001, "center": true, "scale": false, "beta_initializer": {"class_name": "Zeros", "config": {}}, "gamma_initializer": {"class_name": "Ones", "config": {}}, "moving_mean_initializer": {"class_name": "Zeros", "config": {}}, "moving_variance_initializer": {"class_name": "Ones", "config": {}}, "beta_regularizer": null, "gamma_regularizer": null, "beta_constraint": null, "gamma_constraint": null}, "name": "batch_normalization_355", "inbound_nodes": [[["conv2d_343", 0, 0, {}]]]}, {"class_name": "Activation", "config": {"name": "activation_338", "trainable": true, "dtype": "float32", "activation": "relu"}, "name": "activation_338", "inbound_nodes": [[["batch_normalization_350", 0, 0, {}]]]}, {"class_name": "Activation", "config": {"name": "activation_343", "trainable": true, "dtype": "float32", "activation": "relu"}, "name": "activation_343", "inbound_nodes": [[["batch_normalization_355", 0, 0, {}]]]}, {"class_name": "Conv2D", "config": {"name": "conv2d_339", "trainable": true, "dtype": "float32", "filters": 160, "kernel_size": [1, 7], "strides": [1, 1], "padding": "same", "data_format": "channels_last", "dilation_rate": [1, 1], "activation": "linear", "use_bias": false, "kernel_initializer": {"class_name": "GlorotUniform", "config": {"seed": null}}, "bias_initializer": {"class_name": "Zeros", "config": {}}, "kernel_regularizer": null, "bias_regularizer": null, "activity_regularizer": null, "kernel_constraint": null, "bias_constraint": null}, "name": "conv2d_339", "inbound_nodes": [[["activation_338", 0, 0, {}]]]}, {"class_name": "Conv2D", "config": {"name": "conv2d_344", "trainable": true, "dtype": "float32", "filters": 160, "kernel_size": [7, 1], "strides": [1, 1], "padding": "same", "data_format": "channels_last", "dilation_rate": [1, 1], "activation": "linear", "use_bias": false, "kernel_initializer": {"class_name": "GlorotUniform", "config": {"seed": null}}, "bias_initializer": {"class_name": "Zeros", "config": {}}, "kernel_regularizer": null, "bias_regularizer": null, "activity_regularizer": null, "kernel_constraint": null, "bias_constraint": null}, "name": "conv2d_344", "inbound_nodes": [[["activation_343", 0, 0, {}]]]}, {"class_name": "BatchNormalization", "config": {"name": "batch_normalization_351", "trainable": true, "dtype": "float32", "axis": [3], "momentum": 0.99, "epsilon": 0.001, "center": true, "scale": false, "beta_initializer": {"class_name": "Zeros", "config": {}}, "gamma_initializer": {"class_name": "Ones", "config": {}}, "moving_mean_initializer": {"class_name": "Zeros", "config": {}}, "moving_variance_initializer": {"class_name": "Ones", "config": {}}, "beta_regularizer": null, "gamma_regularizer": null, "beta_constraint": null, "gamma_constraint": null}, "name": "batch_normalization_351", "inbound_nodes": [[["conv2d_339", 0, 0, {}]]]}, {"class_name": "BatchNormalization", "config": {"name": "batch_normalization_356", "trainable": true, "dtype": "float32", "axis": [3], "momentum": 0.99, "epsilon": 0.001, "center": true, "scale": false, "beta_initializer": {"class_name": "Zeros", "config": {}}, "gamma_initializer": {"class_name": "Ones", "config": {}}, "moving_mean_initializer": {"class_name": "Zeros", "config": {}}, "moving_variance_initializer": {"class_name": "Ones", "config": {}}, "beta_regularizer": null, "gamma_regularizer": null, "beta_constraint": null, "gamma_constraint": null}, "name": "batch_normalization_356", "inbound_nodes": [[["conv2d_344", 0, 0, {}]]]}, {"class_name": "Activation", "config": {"name": "activation_339", "trainable": true, "dtype": "float32", "activation": "relu"}, "name": "activation_339", "inbound_nodes": [[["batch_normalization_351", 0, 0, {}]]]}, {"class_name": "Activation", "config": {"name": "activation_344", "trainable": true, "dtype": "float32", "activation": "relu"}, "name": "activation_344", "inbound_nodes": [[["batch_normalization_356", 0, 0, {}]]]}, {"class_name": "AveragePooling2D", "config": {"name": "average_pooling2d_14", "trainable": true, "dtype": "float32", "pool_size": [3, 3], "padding": "same", "strides": [1, 1], "data_format": "channels_last"}, "name": "average_pooling2d_14", "inbound_nodes": [[["mixed4", 0, 0, {}]]]}, {"class_name": "Conv2D", "config": {"name": "conv2d_337", "trainable": true, "dtype": "float32", "filters": 192, "kernel_size": [1, 1], "strides": [1, 1], "padding": "same", "data_format": "channels_last", "dilation_rate": [1, 1], "activation": "linear", "use_bias": false, "kernel_initializer": {"class_name": "GlorotUniform", "config": {"seed": null}}, "bias_initializer": {"class_name": "Zeros", "config": {}}, "kernel_regularizer": null, "bias_regularizer": null, "activity_regularizer": null, "kernel_constraint": null, "bias_constraint": null}, "name": "conv2d_337", "inbound_nodes": [[["mixed4", 0, 0, {}]]]}, {"class_name": "Conv2D", "config": {"name": "conv2d_340", "trainable": true, "dtype": "float32", "filters": 192, "kernel_size": [7, 1], "strides": [1, 1], "padding": "same", "data_format": "channels_last", "dilation_rate": [1, 1], "activation": "linear", "use_bias": false, "kernel_initializer": {"class_name": "GlorotUniform", "config": {"seed": null}}, "bias_initializer": {"class_name": "Zeros", "config": {}}, "kernel_regularizer": null, "bias_regularizer": null, "activity_regularizer": null, "kernel_constraint": null, "bias_constraint": null}, "name": "conv2d_340", "inbound_nodes": [[["activation_339", 0, 0, {}]]]}, {"class_name": "Conv2D", "config": {"name": "conv2d_345", "trainable": true, "dtype": "float32", "filters": 192, "kernel_size": [1, 7], "strides": [1, 1], "padding": "same", "data_format": "channels_last", "dilation_rate": [1, 1], "activation": "linear", "use_bias": false, "kernel_initializer": {"class_name": "GlorotUniform", "config": {"seed": null}}, "bias_initializer": {"class_name": "Zeros", "config": {}}, "kernel_regularizer": null, "bias_regularizer": null, "activity_regularizer": null, "kernel_constraint": null, "bias_constraint": null}, "name": "conv2d_345", "inbound_nodes": [[["activation_344", 0, 0, {}]]]}, {"class_name": "Conv2D", "config": {"name": "conv2d_346", "trainable": true, "dtype": "float32", "filters": 192, "kernel_size": [1, 1], "strides": [1, 1], "padding": "same", "data_format": "channels_last", "dilation_rate": [1, 1], "activation": "linear", "use_bias": false, "kernel_initializer": {"class_name": "GlorotUniform", "config": {"seed": null}}, "bias_initializer": {"class_name": "Zeros", "config": {}}, "kernel_regularizer": null, "bias_regularizer": null, "activity_regularizer": null, "kernel_constraint": null, "bias_constraint": null}, "name": "conv2d_346", "inbound_nodes": [[["average_pooling2d_14", 0, 0, {}]]]}, {"class_name": "BatchNormalization", "config": {"name": "batch_normalization_349", "trainable": true, "dtype": "float32", "axis": [3], "momentum": 0.99, "epsilon": 0.001, "center": true, "scale": false, "beta_initializer": {"class_name": "Zeros", "config": {}}, "gamma_initializer": {"class_name": "Ones", "config": {}}, "moving_mean_initializer": {"class_name": "Zeros", "config": {}}, "moving_variance_initializer": {"class_name": "Ones", "config": {}}, "beta_regularizer": null, "gamma_regularizer": null, "beta_constraint": null, "gamma_constraint": null}, "name": "batch_normalization_349", "inbound_nodes": [[["conv2d_337", 0, 0, {}]]]}, {"class_name": "BatchNormalization", "config": {"name": "batch_normalization_352", "trainable": true, "dtype": "float32", "axis": [3], "momentum": 0.99, "epsilon": 0.001, "center": true, "scale": false, "beta_initializer": {"class_name": "Zeros", "config": {}}, "gamma_initializer": {"class_name": "Ones", "config": {}}, "moving_mean_initializer": {"class_name": "Zeros", "config": {}}, "moving_variance_initializer": {"class_name": "Ones", "config": {}}, "beta_regularizer": null, "gamma_regularizer": null, "beta_constraint": null, "gamma_constraint": null}, "name": "batch_normalization_352", "inbound_nodes": [[["conv2d_340", 0, 0, {}]]]}, {"class_name": "BatchNormalization", "config": {"name": "batch_normalization_357", "trainable": true, "dtype": "float32", "axis": [3], "momentum": 0.99, "epsilon": 0.001, "center": true, "scale": false, "beta_initializer": {"class_name": "Zeros", "config": {}}, "gamma_initializer": {"class_name": "Ones", "config": {}}, "moving_mean_initializer": {"class_name": "Zeros", "config": {}}, "moving_variance_initializer": {"class_name": "Ones", "config": {}}, "beta_regularizer": null, "gamma_regularizer": null, "beta_constraint": null, "gamma_constraint": null}, "name": "batch_normalization_357", "inbound_nodes": [[["conv2d_345", 0, 0, {}]]]}, {"class_name": "BatchNormalization", "config": {"name": "batch_normalization_358", "trainable": true, "dtype": "float32", "axis": [3], "momentum": 0.99, "epsilon": 0.001, "center": true, "scale": false, "beta_initializer": {"class_name": "Zeros", "config": {}}, "gamma_initializer": {"class_name": "Ones", "config": {}}, "moving_mean_initializer": {"class_name": "Zeros", "config": {}}, "moving_variance_initializer": {"class_name": "Ones", "config": {}}, "beta_regularizer": null, "gamma_regularizer": null, "beta_constraint": null, "gamma_constraint": null}, "name": "batch_normalization_358", "inbound_nodes": [[["conv2d_346", 0, 0, {}]]]}, {"class_name": "Activation", "config": {"name": "activation_337", "trainable": true, "dtype": "float32", "activation": "relu"}, "name": "activation_337", "inbound_nodes": [[["batch_normalization_349", 0, 0, {}]]]}, {"class_name": "Activation", "config": {"name": "activation_340", "trainable": true, "dtype": "float32", "activation": "relu"}, "name": "activation_340", "inbound_nodes": [[["batch_normalization_352", 0, 0, {}]]]}, {"class_name": "Activation", "config": {"name": "activation_345", "trainable": true, "dtype": "float32", "activation": "relu"}, "name": "activation_345", "inbound_nodes": [[["batch_normalization_357", 0, 0, {}]]]}, {"class_name": "Activation", "config": {"name": "activation_346", "trainable": true, "dtype": "float32", "activation": "relu"}, "name": "activation_346", "inbound_nodes": [[["batch_normalization_358", 0, 0, {}]]]}, {"class_name": "Concatenate", "config": {"name": "mixed5", "trainable": true, "dtype": "float32", "axis": 3}, "name": "mixed5", "inbound_nodes": [[["activation_337", 0, 0, {}], ["activation_340", 0, 0, {}], ["activation_345", 0, 0, {}], ["activation_346", 0, 0, {}]]]}, {"class_name": "Conv2D", "config": {"name": "conv2d_351", "trainable": true, "dtype": "float32", "filters": 160, "kernel_size": [1, 1], "strides": [1, 1], "padding": "same", "data_format": "channels_last", "dilation_rate": [1, 1], "activation": "linear", "use_bias": false, "kernel_initializer": {"class_name": "GlorotUniform", "config": {"seed": null}}, "bias_initializer": {"class_name": "Zeros", "config": {}}, "kernel_regularizer": null, "bias_regularizer": null, "activity_regularizer": null, "kernel_constraint": null, "bias_constraint": null}, "name": "conv2d_351", "inbound_nodes": [[["mixed5", 0, 0, {}]]]}, {"class_name": "BatchNormalization", "config": {"name": "batch_normalization_363", "trainable": true, "dtype": "float32", "axis": [3], "momentum": 0.99, "epsilon": 0.001, "center": true, "scale": false, "beta_initializer": {"class_name": "Zeros", "config": {}}, "gamma_initializer": {"class_name": "Ones", "config": {}}, "moving_mean_initializer": {"class_name": "Zeros", "config": {}}, "moving_variance_initializer": {"class_name": "Ones", "config": {}}, "beta_regularizer": null, "gamma_regularizer": null, "beta_constraint": null, "gamma_constraint": null}, "name": "batch_normalization_363", "inbound_nodes": [[["conv2d_351", 0, 0, {}]]]}, {"class_name": "Activation", "config": {"name": "activation_351", "trainable": true, "dtype": "float32", "activation": "relu"}, "name": "activation_351", "inbound_nodes": [[["batch_normalization_363", 0, 0, {}]]]}, {"class_name": "Conv2D", "config": {"name": "conv2d_352", "trainable": true, "dtype": "float32", "filters": 160, "kernel_size": [7, 1], "strides": [1, 1], "padding": "same", "data_format": "channels_last", "dilation_rate": [1, 1], "activation": "linear", "use_bias": false, "kernel_initializer": {"class_name": "GlorotUniform", "config": {"seed": null}}, "bias_initializer": {"class_name": "Zeros", "config": {}}, "kernel_regularizer": null, "bias_regularizer": null, "activity_regularizer": null, "kernel_constraint": null, "bias_constraint": null}, "name": "conv2d_352", "inbound_nodes": [[["activation_351", 0, 0, {}]]]}, {"class_name": "BatchNormalization", "config": {"name": "batch_normalization_364", "trainable": true, "dtype": "float32", "axis": [3], "momentum": 0.99, "epsilon": 0.001, "center": true, "scale": false, "beta_initializer": {"class_name": "Zeros", "config": {}}, "gamma_initializer": {"class_name": "Ones", "config": {}}, "moving_mean_initializer": {"class_name": "Zeros", "config": {}}, "moving_variance_initializer": {"class_name": "Ones", "config": {}}, "beta_regularizer": null, "gamma_regularizer": null, "beta_constraint": null, "gamma_constraint": null}, "name": "batch_normalization_364", "inbound_nodes": [[["conv2d_352", 0, 0, {}]]]}, {"class_name": "Activation", "config": {"name": "activation_352", "trainable": true, "dtype": "float32", "activation": "relu"}, "name": "activation_352", "inbound_nodes": [[["batch_normalization_364", 0, 0, {}]]]}, {"class_name": "Conv2D", "config": {"name": "conv2d_348", "trainable": true, "dtype": "float32", "filters": 160, "kernel_size": [1, 1], "strides": [1, 1], "padding": "same", "data_format": "channels_last", "dilation_rate": [1, 1], "activation": "linear", "use_bias": false, "kernel_initializer": {"class_name": "GlorotUniform", "config": {"seed": null}}, "bias_initializer": {"class_name": "Zeros", "config": {}}, "kernel_regularizer": null, "bias_regularizer": null, "activity_regularizer": null, "kernel_constraint": null, "bias_constraint": null}, "name": "conv2d_348", "inbound_nodes": [[["mixed5", 0, 0, {}]]]}, {"class_name": "Conv2D", "config": {"name": "conv2d_353", "trainable": true, "dtype": "float32", "filters": 160, "kernel_size": [1, 7], "strides": [1, 1], "padding": "same", "data_format": "channels_last", "dilation_rate": [1, 1], "activation": "linear", "use_bias": false, "kernel_initializer": {"class_name": "GlorotUniform", "config": {"seed": null}}, "bias_initializer": {"class_name": "Zeros", "config": {}}, "kernel_regularizer": null, "bias_regularizer": null, "activity_regularizer": null, "kernel_constraint": null, "bias_constraint": null}, "name": "conv2d_353", "inbound_nodes": [[["activation_352", 0, 0, {}]]]}, {"class_name": "BatchNormalization", "config": {"name": "batch_normalization_360", "trainable": true, "dtype": "float32", "axis": [3], "momentum": 0.99, "epsilon": 0.001, "center": true, "scale": false, "beta_initializer": {"class_name": "Zeros", "config": {}}, "gamma_initializer": {"class_name": "Ones", "config": {}}, "moving_mean_initializer": {"class_name": "Zeros", "config": {}}, "moving_variance_initializer": {"class_name": "Ones", "config": {}}, "beta_regularizer": null, "gamma_regularizer": null, "beta_constraint": null, "gamma_constraint": null}, "name": "batch_normalization_360", "inbound_nodes": [[["conv2d_348", 0, 0, {}]]]}, {"class_name": "BatchNormalization", "config": {"name": "batch_normalization_365", "trainable": true, "dtype": "float32", "axis": [3], "momentum": 0.99, "epsilon": 0.001, "center": true, "scale": false, "beta_initializer": {"class_name": "Zeros", "config": {}}, "gamma_initializer": {"class_name": "Ones", "config": {}}, "moving_mean_initializer": {"class_name": "Zeros", "config": {}}, "moving_variance_initializer": {"class_name": "Ones", "config": {}}, "beta_regularizer": null, "gamma_regularizer": null, "beta_constraint": null, "gamma_constraint": null}, "name": "batch_normalization_365", "inbound_nodes": [[["conv2d_353", 0, 0, {}]]]}, {"class_name": "Activation", "config": {"name": "activation_348", "trainable": true, "dtype": "float32", "activation": "relu"}, "name": "activation_348", "inbound_nodes": [[["batch_normalization_360", 0, 0, {}]]]}, {"class_name": "Activation", "config": {"name": "activation_353", "trainable": true, "dtype": "float32", "activation": "relu"}, "name": "activation_353", "inbound_nodes": [[["batch_normalization_365", 0, 0, {}]]]}, {"class_name": "Conv2D", "config": {"name": "conv2d_349", "trainable": true, "dtype": "float32", "filters": 160, "kernel_size": [1, 7], "strides": [1, 1], "padding": "same", "data_format": "channels_last", "dilation_rate": [1, 1], "activation": "linear", "use_bias": false, "kernel_initializer": {"class_name": "GlorotUniform", "config": {"seed": null}}, "bias_initializer": {"class_name": "Zeros", "config": {}}, "kernel_regularizer": null, "bias_regularizer": null, "activity_regularizer": null, "kernel_constraint": null, "bias_constraint": null}, "name": "conv2d_349", "inbound_nodes": [[["activation_348", 0, 0, {}]]]}, {"class_name": "Conv2D", "config": {"name": "conv2d_354", "trainable": true, "dtype": "float32", "filters": 160, "kernel_size": [7, 1], "strides": [1, 1], "padding": "same", "data_format": "channels_last", "dilation_rate": [1, 1], "activation": "linear", "use_bias": false, "kernel_initializer": {"class_name": "GlorotUniform", "config": {"seed": null}}, "bias_initializer": {"class_name": "Zeros", "config": {}}, "kernel_regularizer": null, "bias_regularizer": null, "activity_regularizer": null, "kernel_constraint": null, "bias_constraint": null}, "name": "conv2d_354", "inbound_nodes": [[["activation_353", 0, 0, {}]]]}, {"class_name": "BatchNormalization", "config": {"name": "batch_normalization_361", "trainable": true, "dtype": "float32", "axis": [3], "momentum": 0.99, "epsilon": 0.001, "center": true, "scale": false, "beta_initializer": {"class_name": "Zeros", "config": {}}, "gamma_initializer": {"class_name": "Ones", "config": {}}, "moving_mean_initializer": {"class_name": "Zeros", "config": {}}, "moving_variance_initializer": {"class_name": "Ones", "config": {}}, "beta_regularizer": null, "gamma_regularizer": null, "beta_constraint": null, "gamma_constraint": null}, "name": "batch_normalization_361", "inbound_nodes": [[["conv2d_349", 0, 0, {}]]]}, {"class_name": "BatchNormalization", "config": {"name": "batch_normalization_366", "trainable": true, "dtype": "float32", "axis": [3], "momentum": 0.99, "epsilon": 0.001, "center": true, "scale": false, "beta_initializer": {"class_name": "Zeros", "config": {}}, "gamma_initializer": {"class_name": "Ones", "config": {}}, "moving_mean_initializer": {"class_name": "Zeros", "config": {}}, "moving_variance_initializer": {"class_name": "Ones", "config": {}}, "beta_regularizer": null, "gamma_regularizer": null, "beta_constraint": null, "gamma_constraint": null}, "name": "batch_normalization_366", "inbound_nodes": [[["conv2d_354", 0, 0, {}]]]}, {"class_name": "Activation", "config": {"name": "activation_349", "trainable": true, "dtype": "float32", "activation": "relu"}, "name": "activation_349", "inbound_nodes": [[["batch_normalization_361", 0, 0, {}]]]}, {"class_name": "Activation", "config": {"name": "activation_354", "trainable": true, "dtype": "float32", "activation": "relu"}, "name": "activation_354", "inbound_nodes": [[["batch_normalization_366", 0, 0, {}]]]}, {"class_name": "AveragePooling2D", "config": {"name": "average_pooling2d_15", "trainable": true, "dtype": "float32", "pool_size": [3, 3], "padding": "same", "strides": [1, 1], "data_format": "channels_last"}, "name": "average_pooling2d_15", "inbound_nodes": [[["mixed5", 0, 0, {}]]]}, {"class_name": "Conv2D", "config": {"name": "conv2d_347", "trainable": true, "dtype": "float32", "filters": 192, "kernel_size": [1, 1], "strides": [1, 1], "padding": "same", "data_format": "channels_last", "dilation_rate": [1, 1], "activation": "linear", "use_bias": false, "kernel_initializer": {"class_name": "GlorotUniform", "config": {"seed": null}}, "bias_initializer": {"class_name": "Zeros", "config": {}}, "kernel_regularizer": null, "bias_regularizer": null, "activity_regularizer": null, "kernel_constraint": null, "bias_constraint": null}, "name": "conv2d_347", "inbound_nodes": [[["mixed5", 0, 0, {}]]]}, {"class_name": "Conv2D", "config": {"name": "conv2d_350", "trainable": true, "dtype": "float32", "filters": 192, "kernel_size": [7, 1], "strides": [1, 1], "padding": "same", "data_format": "channels_last", "dilation_rate": [1, 1], "activation": "linear", "use_bias": false, "kernel_initializer": {"class_name": "GlorotUniform", "config": {"seed": null}}, "bias_initializer": {"class_name": "Zeros", "config": {}}, "kernel_regularizer": null, "bias_regularizer": null, "activity_regularizer": null, "kernel_constraint": null, "bias_constraint": null}, "name": "conv2d_350", "inbound_nodes": [[["activation_349", 0, 0, {}]]]}, {"class_name": "Conv2D", "config": {"name": "conv2d_355", "trainable": true, "dtype": "float32", "filters": 192, "kernel_size": [1, 7], "strides": [1, 1], "padding": "same", "data_format": "channels_last", "dilation_rate": [1, 1], "activation": "linear", "use_bias": false, "kernel_initializer": {"class_name": "GlorotUniform", "config": {"seed": null}}, "bias_initializer": {"class_name": "Zeros", "config": {}}, "kernel_regularizer": null, "bias_regularizer": null, "activity_regularizer": null, "kernel_constraint": null, "bias_constraint": null}, "name": "conv2d_355", "inbound_nodes": [[["activation_354", 0, 0, {}]]]}, {"class_name": "Conv2D", "config": {"name": "conv2d_356", "trainable": true, "dtype": "float32", "filters": 192, "kernel_size": [1, 1], "strides": [1, 1], "padding": "same", "data_format": "channels_last", "dilation_rate": [1, 1], "activation": "linear", "use_bias": false, "kernel_initializer": {"class_name": "GlorotUniform", "config": {"seed": null}}, "bias_initializer": {"class_name": "Zeros", "config": {}}, "kernel_regularizer": null, "bias_regularizer": null, "activity_regularizer": null, "kernel_constraint": null, "bias_constraint": null}, "name": "conv2d_356", "inbound_nodes": [[["average_pooling2d_15", 0, 0, {}]]]}, {"class_name": "BatchNormalization", "config": {"name": "batch_normalization_359", "trainable": true, "dtype": "float32", "axis": [3], "momentum": 0.99, "epsilon": 0.001, "center": true, "scale": false, "beta_initializer": {"class_name": "Zeros", "config": {}}, "gamma_initializer": {"class_name": "Ones", "config": {}}, "moving_mean_initializer": {"class_name": "Zeros", "config": {}}, "moving_variance_initializer": {"class_name": "Ones", "config": {}}, "beta_regularizer": null, "gamma_regularizer": null, "beta_constraint": null, "gamma_constraint": null}, "name": "batch_normalization_359", "inbound_nodes": [[["conv2d_347", 0, 0, {}]]]}, {"class_name": "BatchNormalization", "config": {"name": "batch_normalization_362", "trainable": true, "dtype": "float32", "axis": [3], "momentum": 0.99, "epsilon": 0.001, "center": true, "scale": false, "beta_initializer": {"class_name": "Zeros", "config": {}}, "gamma_initializer": {"class_name": "Ones", "config": {}}, "moving_mean_initializer": {"class_name": "Zeros", "config": {}}, "moving_variance_initializer": {"class_name": "Ones", "config": {}}, "beta_regularizer": null, "gamma_regularizer": null, "beta_constraint": null, "gamma_constraint": null}, "name": "batch_normalization_362", "inbound_nodes": [[["conv2d_350", 0, 0, {}]]]}, {"class_name": "BatchNormalization", "config": {"name": "batch_normalization_367", "trainable": true, "dtype": "float32", "axis": [3], "momentum": 0.99, "epsilon": 0.001, "center": true, "scale": false, "beta_initializer": {"class_name": "Zeros", "config": {}}, "gamma_initializer": {"class_name": "Ones", "config": {}}, "moving_mean_initializer": {"class_name": "Zeros", "config": {}}, "moving_variance_initializer": {"class_name": "Ones", "config": {}}, "beta_regularizer": null, "gamma_regularizer": null, "beta_constraint": null, "gamma_constraint": null}, "name": "batch_normalization_367", "inbound_nodes": [[["conv2d_355", 0, 0, {}]]]}, {"class_name": "BatchNormalization", "config": {"name": "batch_normalization_368", "trainable": true, "dtype": "float32", "axis": [3], "momentum": 0.99, "epsilon": 0.001, "center": true, "scale": false, "beta_initializer": {"class_name": "Zeros", "config": {}}, "gamma_initializer": {"class_name": "Ones", "config": {}}, "moving_mean_initializer": {"class_name": "Zeros", "config": {}}, "moving_variance_initializer": {"class_name": "Ones", "config": {}}, "beta_regularizer": null, "gamma_regularizer": null, "beta_constraint": null, "gamma_constraint": null}, "name": "batch_normalization_368", "inbound_nodes": [[["conv2d_356", 0, 0, {}]]]}, {"class_name": "Activation", "config": {"name": "activation_347", "trainable": true, "dtype": "float32", "activation": "relu"}, "name": "activation_347", "inbound_nodes": [[["batch_normalization_359", 0, 0, {}]]]}, {"class_name": "Activation", "config": {"name": "activation_350", "trainable": true, "dtype": "float32", "activation": "relu"}, "name": "activation_350", "inbound_nodes": [[["batch_normalization_362", 0, 0, {}]]]}, {"class_name": "Activation", "config": {"name": "activation_355", "trainable": true, "dtype": "float32", "activation": "relu"}, "name": "activation_355", "inbound_nodes": [[["batch_normalization_367", 0, 0, {}]]]}, {"class_name": "Activation", "config": {"name": "activation_356", "trainable": true, "dtype": "float32", "activation": "relu"}, "name": "activation_356", "inbound_nodes": [[["batch_normalization_368", 0, 0, {}]]]}, {"class_name": "Concatenate", "config": {"name": "mixed6", "trainable": true, "dtype": "float32", "axis": 3}, "name": "mixed6", "inbound_nodes": [[["activation_347", 0, 0, {}], ["activation_350", 0, 0, {}], ["activation_355", 0, 0, {}], ["activation_356", 0, 0, {}]]]}, {"class_name": "Conv2D", "config": {"name": "conv2d_361", "trainable": true, "dtype": "float32", "filters": 192, "kernel_size": [1, 1], "strides": [1, 1], "padding": "same", "data_format": "channels_last", "dilation_rate": [1, 1], "activation": "linear", "use_bias": false, "kernel_initializer": {"class_name": "GlorotUniform", "config": {"seed": null}}, "bias_initializer": {"class_name": "Zeros", "config": {}}, "kernel_regularizer": null, "bias_regularizer": null, "activity_regularizer": null, "kernel_constraint": null, "bias_constraint": null}, "name": "conv2d_361", "inbound_nodes": [[["mixed6", 0, 0, {}]]]}, {"class_name": "BatchNormalization", "config": {"name": "batch_normalization_373", "trainable": true, "dtype": "float32", "axis": [3], "momentum": 0.99, "epsilon": 0.001, "center": true, "scale": false, "beta_initializer": {"class_name": "Zeros", "config": {}}, "gamma_initializer": {"class_name": "Ones", "config": {}}, "moving_mean_initializer": {"class_name": "Zeros", "config": {}}, "moving_variance_initializer": {"class_name": "Ones", "config": {}}, "beta_regularizer": null, "gamma_regularizer": null, "beta_constraint": null, "gamma_constraint": null}, "name": "batch_normalization_373", "inbound_nodes": [[["conv2d_361", 0, 0, {}]]]}, {"class_name": "Activation", "config": {"name": "activation_361", "trainable": true, "dtype": "float32", "activation": "relu"}, "name": "activation_361", "inbound_nodes": [[["batch_normalization_373", 0, 0, {}]]]}, {"class_name": "Conv2D", "config": {"name": "conv2d_362", "trainable": true, "dtype": "float32", "filters": 192, "kernel_size": [7, 1], "strides": [1, 1], "padding": "same", "data_format": "channels_last", "dilation_rate": [1, 1], "activation": "linear", "use_bias": false, "kernel_initializer": {"class_name": "GlorotUniform", "config": {"seed": null}}, "bias_initializer": {"class_name": "Zeros", "config": {}}, "kernel_regularizer": null, "bias_regularizer": null, "activity_regularizer": null, "kernel_constraint": null, "bias_constraint": null}, "name": "conv2d_362", "inbound_nodes": [[["activation_361", 0, 0, {}]]]}, {"class_name": "BatchNormalization", "config": {"name": "batch_normalization_374", "trainable": true, "dtype": "float32", "axis": [3], "momentum": 0.99, "epsilon": 0.001, "center": true, "scale": false, "beta_initializer": {"class_name": "Zeros", "config": {}}, "gamma_initializer": {"class_name": "Ones", "config": {}}, "moving_mean_initializer": {"class_name": "Zeros", "config": {}}, "moving_variance_initializer": {"class_name": "Ones", "config": {}}, "beta_regularizer": null, "gamma_regularizer": null, "beta_constraint": null, "gamma_constraint": null}, "name": "batch_normalization_374", "inbound_nodes": [[["conv2d_362", 0, 0, {}]]]}, {"class_name": "Activation", "config": {"name": "activation_362", "trainable": true, "dtype": "float32", "activation": "relu"}, "name": "activation_362", "inbound_nodes": [[["batch_normalization_374", 0, 0, {}]]]}, {"class_name": "Conv2D", "config": {"name": "conv2d_358", "trainable": true, "dtype": "float32", "filters": 192, "kernel_size": [1, 1], "strides": [1, 1], "padding": "same", "data_format": "channels_last", "dilation_rate": [1, 1], "activation": "linear", "use_bias": false, "kernel_initializer": {"class_name": "GlorotUniform", "config": {"seed": null}}, "bias_initializer": {"class_name": "Zeros", "config": {}}, "kernel_regularizer": null, "bias_regularizer": null, "activity_regularizer": null, "kernel_constraint": null, "bias_constraint": null}, "name": "conv2d_358", "inbound_nodes": [[["mixed6", 0, 0, {}]]]}, {"class_name": "Conv2D", "config": {"name": "conv2d_363", "trainable": true, "dtype": "float32", "filters": 192, "kernel_size": [1, 7], "strides": [1, 1], "padding": "same", "data_format": "channels_last", "dilation_rate": [1, 1], "activation": "linear", "use_bias": false, "kernel_initializer": {"class_name": "GlorotUniform", "config": {"seed": null}}, "bias_initializer": {"class_name": "Zeros", "config": {}}, "kernel_regularizer": null, "bias_regularizer": null, "activity_regularizer": null, "kernel_constraint": null, "bias_constraint": null}, "name": "conv2d_363", "inbound_nodes": [[["activation_362", 0, 0, {}]]]}, {"class_name": "BatchNormalization", "config": {"name": "batch_normalization_370", "trainable": true, "dtype": "float32", "axis": [3], "momentum": 0.99, "epsilon": 0.001, "center": true, "scale": false, "beta_initializer": {"class_name": "Zeros", "config": {}}, "gamma_initializer": {"class_name": "Ones", "config": {}}, "moving_mean_initializer": {"class_name": "Zeros", "config": {}}, "moving_variance_initializer": {"class_name": "Ones", "config": {}}, "beta_regularizer": null, "gamma_regularizer": null, "beta_constraint": null, "gamma_constraint": null}, "name": "batch_normalization_370", "inbound_nodes": [[["conv2d_358", 0, 0, {}]]]}, {"class_name": "BatchNormalization", "config": {"name": "batch_normalization_375", "trainable": true, "dtype": "float32", "axis": [3], "momentum": 0.99, "epsilon": 0.001, "center": true, "scale": false, "beta_initializer": {"class_name": "Zeros", "config": {}}, "gamma_initializer": {"class_name": "Ones", "config": {}}, "moving_mean_initializer": {"class_name": "Zeros", "config": {}}, "moving_variance_initializer": {"class_name": "Ones", "config": {}}, "beta_regularizer": null, "gamma_regularizer": null, "beta_constraint": null, "gamma_constraint": null}, "name": "batch_normalization_375", "inbound_nodes": [[["conv2d_363", 0, 0, {}]]]}, {"class_name": "Activation", "config": {"name": "activation_358", "trainable": true, "dtype": "float32", "activation": "relu"}, "name": "activation_358", "inbound_nodes": [[["batch_normalization_370", 0, 0, {}]]]}, {"class_name": "Activation", "config": {"name": "activation_363", "trainable": true, "dtype": "float32", "activation": "relu"}, "name": "activation_363", "inbound_nodes": [[["batch_normalization_375", 0, 0, {}]]]}, {"class_name": "Conv2D", "config": {"name": "conv2d_359", "trainable": true, "dtype": "float32", "filters": 192, "kernel_size": [1, 7], "strides": [1, 1], "padding": "same", "data_format": "channels_last", "dilation_rate": [1, 1], "activation": "linear", "use_bias": false, "kernel_initializer": {"class_name": "GlorotUniform", "config": {"seed": null}}, "bias_initializer": {"class_name": "Zeros", "config": {}}, "kernel_regularizer": null, "bias_regularizer": null, "activity_regularizer": null, "kernel_constraint": null, "bias_constraint": null}, "name": "conv2d_359", "inbound_nodes": [[["activation_358", 0, 0, {}]]]}, {"class_name": "Conv2D", "config": {"name": "conv2d_364", "trainable": true, "dtype": "float32", "filters": 192, "kernel_size": [7, 1], "strides": [1, 1], "padding": "same", "data_format": "channels_last", "dilation_rate": [1, 1], "activation": "linear", "use_bias": false, "kernel_initializer": {"class_name": "GlorotUniform", "config": {"seed": null}}, "bias_initializer": {"class_name": "Zeros", "config": {}}, "kernel_regularizer": null, "bias_regularizer": null, "activity_regularizer": null, "kernel_constraint": null, "bias_constraint": null}, "name": "conv2d_364", "inbound_nodes": [[["activation_363", 0, 0, {}]]]}, {"class_name": "BatchNormalization", "config": {"name": "batch_normalization_371", "trainable": true, "dtype": "float32", "axis": [3], "momentum": 0.99, "epsilon": 0.001, "center": true, "scale": false, "beta_initializer": {"class_name": "Zeros", "config": {}}, "gamma_initializer": {"class_name": "Ones", "config": {}}, "moving_mean_initializer": {"class_name": "Zeros", "config": {}}, "moving_variance_initializer": {"class_name": "Ones", "config": {}}, "beta_regularizer": null, "gamma_regularizer": null, "beta_constraint": null, "gamma_constraint": null}, "name": "batch_normalization_371", "inbound_nodes": [[["conv2d_359", 0, 0, {}]]]}, {"class_name": "BatchNormalization", "config": {"name": "batch_normalization_376", "trainable": true, "dtype": "float32", "axis": [3], "momentum": 0.99, "epsilon": 0.001, "center": true, "scale": false, "beta_initializer": {"class_name": "Zeros", "config": {}}, "gamma_initializer": {"class_name": "Ones", "config": {}}, "moving_mean_initializer": {"class_name": "Zeros", "config": {}}, "moving_variance_initializer": {"class_name": "Ones", "config": {}}, "beta_regularizer": null, "gamma_regularizer": null, "beta_constraint": null, "gamma_constraint": null}, "name": "batch_normalization_376", "inbound_nodes": [[["conv2d_364", 0, 0, {}]]]}, {"class_name": "Activation", "config": {"name": "activation_359", "trainable": true, "dtype": "float32", "activation": "relu"}, "name": "activation_359", "inbound_nodes": [[["batch_normalization_371", 0, 0, {}]]]}, {"class_name": "Activation", "config": {"name": "activation_364", "trainable": true, "dtype": "float32", "activation": "relu"}, "name": "activation_364", "inbound_nodes": [[["batch_normalization_376", 0, 0, {}]]]}, {"class_name": "AveragePooling2D", "config": {"name": "average_pooling2d_16", "trainable": true, "dtype": "float32", "pool_size": [3, 3], "padding": "same", "strides": [1, 1], "data_format": "channels_last"}, "name": "average_pooling2d_16", "inbound_nodes": [[["mixed6", 0, 0, {}]]]}, {"class_name": "Conv2D", "config": {"name": "conv2d_357", "trainable": true, "dtype": "float32", "filters": 192, "kernel_size": [1, 1], "strides": [1, 1], "padding": "same", "data_format": "channels_last", "dilation_rate": [1, 1], "activation": "linear", "use_bias": false, "kernel_initializer": {"class_name": "GlorotUniform", "config": {"seed": null}}, "bias_initializer": {"class_name": "Zeros", "config": {}}, "kernel_regularizer": null, "bias_regularizer": null, "activity_regularizer": null, "kernel_constraint": null, "bias_constraint": null}, "name": "conv2d_357", "inbound_nodes": [[["mixed6", 0, 0, {}]]]}, {"class_name": "Conv2D", "config": {"name": "conv2d_360", "trainable": true, "dtype": "float32", "filters": 192, "kernel_size": [7, 1], "strides": [1, 1], "padding": "same", "data_format": "channels_last", "dilation_rate": [1, 1], "activation": "linear", "use_bias": false, "kernel_initializer": {"class_name": "GlorotUniform", "config": {"seed": null}}, "bias_initializer": {"class_name": "Zeros", "config": {}}, "kernel_regularizer": null, "bias_regularizer": null, "activity_regularizer": null, "kernel_constraint": null, "bias_constraint": null}, "name": "conv2d_360", "inbound_nodes": [[["activation_359", 0, 0, {}]]]}, {"class_name": "Conv2D", "config": {"name": "conv2d_365", "trainable": true, "dtype": "float32", "filters": 192, "kernel_size": [1, 7], "strides": [1, 1], "padding": "same", "data_format": "channels_last", "dilation_rate": [1, 1], "activation": "linear", "use_bias": false, "kernel_initializer": {"class_name": "GlorotUniform", "config": {"seed": null}}, "bias_initializer": {"class_name": "Zeros", "config": {}}, "kernel_regularizer": null, "bias_regularizer": null, "activity_regularizer": null, "kernel_constraint": null, "bias_constraint": null}, "name": "conv2d_365", "inbound_nodes": [[["activation_364", 0, 0, {}]]]}, {"class_name": "Conv2D", "config": {"name": "conv2d_366", "trainable": true, "dtype": "float32", "filters": 192, "kernel_size": [1, 1], "strides": [1, 1], "padding": "same", "data_format": "channels_last", "dilation_rate": [1, 1], "activation": "linear", "use_bias": false, "kernel_initializer": {"class_name": "GlorotUniform", "config": {"seed": null}}, "bias_initializer": {"class_name": "Zeros", "config": {}}, "kernel_regularizer": null, "bias_regularizer": null, "activity_regularizer": null, "kernel_constraint": null, "bias_constraint": null}, "name": "conv2d_366", "inbound_nodes": [[["average_pooling2d_16", 0, 0, {}]]]}, {"class_name": "BatchNormalization", "config": {"name": "batch_normalization_369", "trainable": true, "dtype": "float32", "axis": [3], "momentum": 0.99, "epsilon": 0.001, "center": true, "scale": false, "beta_initializer": {"class_name": "Zeros", "config": {}}, "gamma_initializer": {"class_name": "Ones", "config": {}}, "moving_mean_initializer": {"class_name": "Zeros", "config": {}}, "moving_variance_initializer": {"class_name": "Ones", "config": {}}, "beta_regularizer": null, "gamma_regularizer": null, "beta_constraint": null, "gamma_constraint": null}, "name": "batch_normalization_369", "inbound_nodes": [[["conv2d_357", 0, 0, {}]]]}, {"class_name": "BatchNormalization", "config": {"name": "batch_normalization_372", "trainable": true, "dtype": "float32", "axis": [3], "momentum": 0.99, "epsilon": 0.001, "center": true, "scale": false, "beta_initializer": {"class_name": "Zeros", "config": {}}, "gamma_initializer": {"class_name": "Ones", "config": {}}, "moving_mean_initializer": {"class_name": "Zeros", "config": {}}, "moving_variance_initializer": {"class_name": "Ones", "config": {}}, "beta_regularizer": null, "gamma_regularizer": null, "beta_constraint": null, "gamma_constraint": null}, "name": "batch_normalization_372", "inbound_nodes": [[["conv2d_360", 0, 0, {}]]]}, {"class_name": "BatchNormalization", "config": {"name": "batch_normalization_377", "trainable": true, "dtype": "float32", "axis": [3], "momentum": 0.99, "epsilon": 0.001, "center": true, "scale": false, "beta_initializer": {"class_name": "Zeros", "config": {}}, "gamma_initializer": {"class_name": "Ones", "config": {}}, "moving_mean_initializer": {"class_name": "Zeros", "config": {}}, "moving_variance_initializer": {"class_name": "Ones", "config": {}}, "beta_regularizer": null, "gamma_regularizer": null, "beta_constraint": null, "gamma_constraint": null}, "name": "batch_normalization_377", "inbound_nodes": [[["conv2d_365", 0, 0, {}]]]}, {"class_name": "BatchNormalization", "config": {"name": "batch_normalization_378", "trainable": true, "dtype": "float32", "axis": [3], "momentum": 0.99, "epsilon": 0.001, "center": true, "scale": false, "beta_initializer": {"class_name": "Zeros", "config": {}}, "gamma_initializer": {"class_name": "Ones", "config": {}}, "moving_mean_initializer": {"class_name": "Zeros", "config": {}}, "moving_variance_initializer": {"class_name": "Ones", "config": {}}, "beta_regularizer": null, "gamma_regularizer": null, "beta_constraint": null, "gamma_constraint": null}, "name": "batch_normalization_378", "inbound_nodes": [[["conv2d_366", 0, 0, {}]]]}, {"class_name": "Activation", "config": {"name": "activation_357", "trainable": true, "dtype": "float32", "activation": "relu"}, "name": "activation_357", "inbound_nodes": [[["batch_normalization_369", 0, 0, {}]]]}, {"class_name": "Activation", "config": {"name": "activation_360", "trainable": true, "dtype": "float32", "activation": "relu"}, "name": "activation_360", "inbound_nodes": [[["batch_normalization_372", 0, 0, {}]]]}, {"class_name": "Activation", "config": {"name": "activation_365", "trainable": true, "dtype": "float32", "activation": "relu"}, "name": "activation_365", "inbound_nodes": [[["batch_normalization_377", 0, 0, {}]]]}, {"class_name": "Activation", "config": {"name": "activation_366", "trainable": true, "dtype": "float32", "activation": "relu"}, "name": "activation_366", "inbound_nodes": [[["batch_normalization_378", 0, 0, {}]]]}, {"class_name": "Concatenate", "config": {"name": "mixed7", "trainable": true, "dtype": "float32", "axis": 3}, "name": "mixed7", "inbound_nodes": [[["activation_357", 0, 0, {}], ["activation_360", 0, 0, {}], ["activation_365", 0, 0, {}], ["activation_366", 0, 0, {}]]]}, {"class_name": "Conv2D", "config": {"name": "conv2d_369", "trainable": true, "dtype": "float32", "filters": 192, "kernel_size": [1, 1], "strides": [1, 1], "padding": "same", "data_format": "channels_last", "dilation_rate": [1, 1], "activation": "linear", "use_bias": false, "kernel_initializer": {"class_name": "GlorotUniform", "config": {"seed": null}}, "bias_initializer": {"class_name": "Zeros", "config": {}}, "kernel_regularizer": null, "bias_regularizer": null, "activity_regularizer": null, "kernel_constraint": null, "bias_constraint": null}, "name": "conv2d_369", "inbound_nodes": [[["mixed7", 0, 0, {}]]]}, {"class_name": "BatchNormalization", "config": {"name": "batch_normalization_381", "trainable": true, "dtype": "float32", "axis": [3], "momentum": 0.99, "epsilon": 0.001, "center": true, "scale": false, "beta_initializer": {"class_name": "Zeros", "config": {}}, "gamma_initializer": {"class_name": "Ones", "config": {}}, "moving_mean_initializer": {"class_name": "Zeros", "config": {}}, "moving_variance_initializer": {"class_name": "Ones", "config": {}}, "beta_regularizer": null, "gamma_regularizer": null, "beta_constraint": null, "gamma_constraint": null}, "name": "batch_normalization_381", "inbound_nodes": [[["conv2d_369", 0, 0, {}]]]}, {"class_name": "Activation", "config": {"name": "activation_369", "trainable": true, "dtype": "float32", "activation": "relu"}, "name": "activation_369", "inbound_nodes": [[["batch_normalization_381", 0, 0, {}]]]}, {"class_name": "Conv2D", "config": {"name": "conv2d_370", "trainable": true, "dtype": "float32", "filters": 192, "kernel_size": [1, 7], "strides": [1, 1], "padding": "same", "data_format": "channels_last", "dilation_rate": [1, 1], "activation": "linear", "use_bias": false, "kernel_initializer": {"class_name": "GlorotUniform", "config": {"seed": null}}, "bias_initializer": {"class_name": "Zeros", "config": {}}, "kernel_regularizer": null, "bias_regularizer": null, "activity_regularizer": null, "kernel_constraint": null, "bias_constraint": null}, "name": "conv2d_370", "inbound_nodes": [[["activation_369", 0, 0, {}]]]}, {"class_name": "BatchNormalization", "config": {"name": "batch_normalization_382", "trainable": true, "dtype": "float32", "axis": [3], "momentum": 0.99, "epsilon": 0.001, "center": true, "scale": false, "beta_initializer": {"class_name": "Zeros", "config": {}}, "gamma_initializer": {"class_name": "Ones", "config": {}}, "moving_mean_initializer": {"class_name": "Zeros", "config": {}}, "moving_variance_initializer": {"class_name": "Ones", "config": {}}, "beta_regularizer": null, "gamma_regularizer": null, "beta_constraint": null, "gamma_constraint": null}, "name": "batch_normalization_382", "inbound_nodes": [[["conv2d_370", 0, 0, {}]]]}, {"class_name": "Activation", "config": {"name": "activation_370", "trainable": true, "dtype": "float32", "activation": "relu"}, "name": "activation_370", "inbound_nodes": [[["batch_normalization_382", 0, 0, {}]]]}, {"class_name": "Conv2D", "config": {"name": "conv2d_367", "trainable": true, "dtype": "float32", "filters": 192, "kernel_size": [1, 1], "strides": [1, 1], "padding": "same", "data_format": "channels_last", "dilation_rate": [1, 1], "activation": "linear", "use_bias": false, "kernel_initializer": {"class_name": "GlorotUniform", "config": {"seed": null}}, "bias_initializer": {"class_name": "Zeros", "config": {}}, "kernel_regularizer": null, "bias_regularizer": null, "activity_regularizer": null, "kernel_constraint": null, "bias_constraint": null}, "name": "conv2d_367", "inbound_nodes": [[["mixed7", 0, 0, {}]]]}, {"class_name": "Conv2D", "config": {"name": "conv2d_371", "trainable": true, "dtype": "float32", "filters": 192, "kernel_size": [7, 1], "strides": [1, 1], "padding": "same", "data_format": "channels_last", "dilation_rate": [1, 1], "activation": "linear", "use_bias": false, "kernel_initializer": {"class_name": "GlorotUniform", "config": {"seed": null}}, "bias_initializer": {"class_name": "Zeros", "config": {}}, "kernel_regularizer": null, "bias_regularizer": null, "activity_regularizer": null, "kernel_constraint": null, "bias_constraint": null}, "name": "conv2d_371", "inbound_nodes": [[["activation_370", 0, 0, {}]]]}, {"class_name": "BatchNormalization", "config": {"name": "batch_normalization_379", "trainable": true, "dtype": "float32", "axis": [3], "momentum": 0.99, "epsilon": 0.001, "center": true, "scale": false, "beta_initializer": {"class_name": "Zeros", "config": {}}, "gamma_initializer": {"class_name": "Ones", "config": {}}, "moving_mean_initializer": {"class_name": "Zeros", "config": {}}, "moving_variance_initializer": {"class_name": "Ones", "config": {}}, "beta_regularizer": null, "gamma_regularizer": null, "beta_constraint": null, "gamma_constraint": null}, "name": "batch_normalization_379", "inbound_nodes": [[["conv2d_367", 0, 0, {}]]]}, {"class_name": "BatchNormalization", "config": {"name": "batch_normalization_383", "trainable": true, "dtype": "float32", "axis": [3], "momentum": 0.99, "epsilon": 0.001, "center": true, "scale": false, "beta_initializer": {"class_name": "Zeros", "config": {}}, "gamma_initializer": {"class_name": "Ones", "config": {}}, "moving_mean_initializer": {"class_name": "Zeros", "config": {}}, "moving_variance_initializer": {"class_name": "Ones", "config": {}}, "beta_regularizer": null, "gamma_regularizer": null, "beta_constraint": null, "gamma_constraint": null}, "name": "batch_normalization_383", "inbound_nodes": [[["conv2d_371", 0, 0, {}]]]}, {"class_name": "Activation", "config": {"name": "activation_367", "trainable": true, "dtype": "float32", "activation": "relu"}, "name": "activation_367", "inbound_nodes": [[["batch_normalization_379", 0, 0, {}]]]}, {"class_name": "Activation", "config": {"name": "activation_371", "trainable": true, "dtype": "float32", "activation": "relu"}, "name": "activation_371", "inbound_nodes": [[["batch_normalization_383", 0, 0, {}]]]}, {"class_name": "Conv2D", "config": {"name": "conv2d_368", "trainable": true, "dtype": "float32", "filters": 320, "kernel_size": [3, 3], "strides": [2, 2], "padding": "valid", "data_format": "channels_last", "dilation_rate": [1, 1], "activation": "linear", "use_bias": false, "kernel_initializer": {"class_name": "GlorotUniform", "config": {"seed": null}}, "bias_initializer": {"class_name": "Zeros", "config": {}}, "kernel_regularizer": null, "bias_regularizer": null, "activity_regularizer": null, "kernel_constraint": null, "bias_constraint": null}, "name": "conv2d_368", "inbound_nodes": [[["activation_367", 0, 0, {}]]]}, {"class_name": "Conv2D", "config": {"name": "conv2d_372", "trainable": true, "dtype": "float32", "filters": 192, "kernel_size": [3, 3], "strides": [2, 2], "padding": "valid", "data_format": "channels_last", "dilation_rate": [1, 1], "activation": "linear", "use_bias": false, "kernel_initializer": {"class_name": "GlorotUniform", "config": {"seed": null}}, "bias_initializer": {"class_name": "Zeros", "config": {}}, "kernel_regularizer": null, "bias_regularizer": null, "activity_regularizer": null, "kernel_constraint": null, "bias_constraint": null}, "name": "conv2d_372", "inbound_nodes": [[["activation_371", 0, 0, {}]]]}, {"class_name": "BatchNormalization", "config": {"name": "batch_normalization_380", "trainable": true, "dtype": "float32", "axis": [3], "momentum": 0.99, "epsilon": 0.001, "center": true, "scale": false, "beta_initializer": {"class_name": "Zeros", "config": {}}, "gamma_initializer": {"class_name": "Ones", "config": {}}, "moving_mean_initializer": {"class_name": "Zeros", "config": {}}, "moving_variance_initializer": {"class_name": "Ones", "config": {}}, "beta_regularizer": null, "gamma_regularizer": null, "beta_constraint": null, "gamma_constraint": null}, "name": "batch_normalization_380", "inbound_nodes": [[["conv2d_368", 0, 0, {}]]]}, {"class_name": "BatchNormalization", "config": {"name": "batch_normalization_384", "trainable": true, "dtype": "float32", "axis": [3], "momentum": 0.99, "epsilon": 0.001, "center": true, "scale": false, "beta_initializer": {"class_name": "Zeros", "config": {}}, "gamma_initializer": {"class_name": "Ones", "config": {}}, "moving_mean_initializer": {"class_name": "Zeros", "config": {}}, "moving_variance_initializer": {"class_name": "Ones", "config": {}}, "beta_regularizer": null, "gamma_regularizer": null, "beta_constraint": null, "gamma_constraint": null}, "name": "batch_normalization_384", "inbound_nodes": [[["conv2d_372", 0, 0, {}]]]}, {"class_name": "Activation", "config": {"name": "activation_368", "trainable": true, "dtype": "float32", "activation": "relu"}, "name": "activation_368", "inbound_nodes": [[["batch_normalization_380", 0, 0, {}]]]}, {"class_name": "Activation", "config": {"name": "activation_372", "trainable": true, "dtype": "float32", "activation": "relu"}, "name": "activation_372", "inbound_nodes": [[["batch_normalization_384", 0, 0, {}]]]}, {"class_name": "MaxPooling2D", "config": {"name": "max_pooling2d_11", "trainable": true, "dtype": "float32", "pool_size": [3, 3], "padding": "valid", "strides": [2, 2], "data_format": "channels_last"}, "name": "max_pooling2d_11", "inbound_nodes": [[["mixed7", 0, 0, {}]]]}, {"class_name": "Concatenate", "config": {"name": "mixed8", "trainable": true, "dtype": "float32", "axis": 3}, "name": "mixed8", "inbound_nodes": [[["activation_368", 0, 0, {}], ["activation_372", 0, 0, {}], ["max_pooling2d_11", 0, 0, {}]]]}, {"class_name": "Conv2D", "config": {"name": "conv2d_377", "trainable": true, "dtype": "float32", "filters": 448, "kernel_size": [1, 1], "strides": [1, 1], "padding": "same", "data_format": "channels_last", "dilation_rate": [1, 1], "activation": "linear", "use_bias": false, "kernel_initializer": {"class_name": "GlorotUniform", "config": {"seed": null}}, "bias_initializer": {"class_name": "Zeros", "config": {}}, "kernel_regularizer": null, "bias_regularizer": null, "activity_regularizer": null, "kernel_constraint": null, "bias_constraint": null}, "name": "conv2d_377", "inbound_nodes": [[["mixed8", 0, 0, {}]]]}, {"class_name": "BatchNormalization", "config": {"name": "batch_normalization_389", "trainable": true, "dtype": "float32", "axis": [3], "momentum": 0.99, "epsilon": 0.001, "center": true, "scale": false, "beta_initializer": {"class_name": "Zeros", "config": {}}, "gamma_initializer": {"class_name": "Ones", "config": {}}, "moving_mean_initializer": {"class_name": "Zeros", "config": {}}, "moving_variance_initializer": {"class_name": "Ones", "config": {}}, "beta_regularizer": null, "gamma_regularizer": null, "beta_constraint": null, "gamma_constraint": null}, "name": "batch_normalization_389", "inbound_nodes": [[["conv2d_377", 0, 0, {}]]]}, {"class_name": "Activation", "config": {"name": "activation_377", "trainable": true, "dtype": "float32", "activation": "relu"}, "name": "activation_377", "inbound_nodes": [[["batch_normalization_389", 0, 0, {}]]]}, {"class_name": "Conv2D", "config": {"name": "conv2d_374", "trainable": true, "dtype": "float32", "filters": 384, "kernel_size": [1, 1], "strides": [1, 1], "padding": "same", "data_format": "channels_last", "dilation_rate": [1, 1], "activation": "linear", "use_bias": false, "kernel_initializer": {"class_name": "GlorotUniform", "config": {"seed": null}}, "bias_initializer": {"class_name": "Zeros", "config": {}}, "kernel_regularizer": null, "bias_regularizer": null, "activity_regularizer": null, "kernel_constraint": null, "bias_constraint": null}, "name": "conv2d_374", "inbound_nodes": [[["mixed8", 0, 0, {}]]]}, {"class_name": "Conv2D", "config": {"name": "conv2d_378", "trainable": true, "dtype": "float32", "filters": 384, "kernel_size": [3, 3], "strides": [1, 1], "padding": "same", "data_format": "channels_last", "dilation_rate": [1, 1], "activation": "linear", "use_bias": false, "kernel_initializer": {"class_name": "GlorotUniform", "config": {"seed": null}}, "bias_initializer": {"class_name": "Zeros", "config": {}}, "kernel_regularizer": null, "bias_regularizer": null, "activity_regularizer": null, "kernel_constraint": null, "bias_constraint": null}, "name": "conv2d_378", "inbound_nodes": [[["activation_377", 0, 0, {}]]]}, {"class_name": "BatchNormalization", "config": {"name": "batch_normalization_386", "trainable": true, "dtype": "float32", "axis": [3], "momentum": 0.99, "epsilon": 0.001, "center": true, "scale": false, "beta_initializer": {"class_name": "Zeros", "config": {}}, "gamma_initializer": {"class_name": "Ones", "config": {}}, "moving_mean_initializer": {"class_name": "Zeros", "config": {}}, "moving_variance_initializer": {"class_name": "Ones", "config": {}}, "beta_regularizer": null, "gamma_regularizer": null, "beta_constraint": null, "gamma_constraint": null}, "name": "batch_normalization_386", "inbound_nodes": [[["conv2d_374", 0, 0, {}]]]}, {"class_name": "BatchNormalization", "config": {"name": "batch_normalization_390", "trainable": true, "dtype": "float32", "axis": [3], "momentum": 0.99, "epsilon": 0.001, "center": true, "scale": false, "beta_initializer": {"class_name": "Zeros", "config": {}}, "gamma_initializer": {"class_name": "Ones", "config": {}}, "moving_mean_initializer": {"class_name": "Zeros", "config": {}}, "moving_variance_initializer": {"class_name": "Ones", "config": {}}, "beta_regularizer": null, "gamma_regularizer": null, "beta_constraint": null, "gamma_constraint": null}, "name": "batch_normalization_390", "inbound_nodes": [[["conv2d_378", 0, 0, {}]]]}, {"class_name": "Activation", "config": {"name": "activation_374", "trainable": true, "dtype": "float32", "activation": "relu"}, "name": "activation_374", "inbound_nodes": [[["batch_normalization_386", 0, 0, {}]]]}, {"class_name": "Activation", "config": {"name": "activation_378", "trainable": true, "dtype": "float32", "activation": "relu"}, "name": "activation_378", "inbound_nodes": [[["batch_normalization_390", 0, 0, {}]]]}, {"class_name": "Conv2D", "config": {"name": "conv2d_375", "trainable": true, "dtype": "float32", "filters": 384, "kernel_size": [1, 3], "strides": [1, 1], "padding": "same", "data_format": "channels_last", "dilation_rate": [1, 1], "activation": "linear", "use_bias": false, "kernel_initializer": {"class_name": "GlorotUniform", "config": {"seed": null}}, "bias_initializer": {"class_name": "Zeros", "config": {}}, "kernel_regularizer": null, "bias_regularizer": null, "activity_regularizer": null, "kernel_constraint": null, "bias_constraint": null}, "name": "conv2d_375", "inbound_nodes": [[["activation_374", 0, 0, {}]]]}, {"class_name": "Conv2D", "config": {"name": "conv2d_376", "trainable": true, "dtype": "float32", "filters": 384, "kernel_size": [3, 1], "strides": [1, 1], "padding": "same", "data_format": "channels_last", "dilation_rate": [1, 1], "activation": "linear", "use_bias": false, "kernel_initializer": {"class_name": "GlorotUniform", "config": {"seed": null}}, "bias_initializer": {"class_name": "Zeros", "config": {}}, "kernel_regularizer": null, "bias_regularizer": null, "activity_regularizer": null, "kernel_constraint": null, "bias_constraint": null}, "name": "conv2d_376", "inbound_nodes": [[["activation_374", 0, 0, {}]]]}, {"class_name": "Conv2D", "config": {"name": "conv2d_379", "trainable": true, "dtype": "float32", "filters": 384, "kernel_size": [1, 3], "strides": [1, 1], "padding": "same", "data_format": "channels_last", "dilation_rate": [1, 1], "activation": "linear", "use_bias": false, "kernel_initializer": {"class_name": "GlorotUniform", "config": {"seed": null}}, "bias_initializer": {"class_name": "Zeros", "config": {}}, "kernel_regularizer": null, "bias_regularizer": null, "activity_regularizer": null, "kernel_constraint": null, "bias_constraint": null}, "name": "conv2d_379", "inbound_nodes": [[["activation_378", 0, 0, {}]]]}, {"class_name": "Conv2D", "config": {"name": "conv2d_380", "trainable": true, "dtype": "float32", "filters": 384, "kernel_size": [3, 1], "strides": [1, 1], "padding": "same", "data_format": "channels_last", "dilation_rate": [1, 1], "activation": "linear", "use_bias": false, "kernel_initializer": {"class_name": "GlorotUniform", "config": {"seed": null}}, "bias_initializer": {"class_name": "Zeros", "config": {}}, "kernel_regularizer": null, "bias_regularizer": null, "activity_regularizer": null, "kernel_constraint": null, "bias_constraint": null}, "name": "conv2d_380", "inbound_nodes": [[["activation_378", 0, 0, {}]]]}, {"class_name": "AveragePooling2D", "config": {"name": "average_pooling2d_17", "trainable": true, "dtype": "float32", "pool_size": [3, 3], "padding": "same", "strides": [1, 1], "data_format": "channels_last"}, "name": "average_pooling2d_17", "inbound_nodes": [[["mixed8", 0, 0, {}]]]}, {"class_name": "Conv2D", "config": {"name": "conv2d_373", "trainable": true, "dtype": "float32", "filters": 320, "kernel_size": [1, 1], "strides": [1, 1], "padding": "same", "data_format": "channels_last", "dilation_rate": [1, 1], "activation": "linear", "use_bias": false, "kernel_initializer": {"class_name": "GlorotUniform", "config": {"seed": null}}, "bias_initializer": {"class_name": "Zeros", "config": {}}, "kernel_regularizer": null, "bias_regularizer": null, "activity_regularizer": null, "kernel_constraint": null, "bias_constraint": null}, "name": "conv2d_373", "inbound_nodes": [[["mixed8", 0, 0, {}]]]}, {"class_name": "BatchNormalization", "config": {"name": "batch_normalization_387", "trainable": true, "dtype": "float32", "axis": [3], "momentum": 0.99, "epsilon": 0.001, "center": true, "scale": false, "beta_initializer": {"class_name": "Zeros", "config": {}}, "gamma_initializer": {"class_name": "Ones", "config": {}}, "moving_mean_initializer": {"class_name": "Zeros", "config": {}}, "moving_variance_initializer": {"class_name": "Ones", "config": {}}, "beta_regularizer": null, "gamma_regularizer": null, "beta_constraint": null, "gamma_constraint": null}, "name": "batch_normalization_387", "inbound_nodes": [[["conv2d_375", 0, 0, {}]]]}, {"class_name": "BatchNormalization", "config": {"name": "batch_normalization_388", "trainable": true, "dtype": "float32", "axis": [3], "momentum": 0.99, "epsilon": 0.001, "center": true, "scale": false, "beta_initializer": {"class_name": "Zeros", "config": {}}, "gamma_initializer": {"class_name": "Ones", "config": {}}, "moving_mean_initializer": {"class_name": "Zeros", "config": {}}, "moving_variance_initializer": {"class_name": "Ones", "config": {}}, "beta_regularizer": null, "gamma_regularizer": null, "beta_constraint": null, "gamma_constraint": null}, "name": "batch_normalization_388", "inbound_nodes": [[["conv2d_376", 0, 0, {}]]]}, {"class_name": "BatchNormalization", "config": {"name": "batch_normalization_391", "trainable": true, "dtype": "float32", "axis": [3], "momentum": 0.99, "epsilon": 0.001, "center": true, "scale": false, "beta_initializer": {"class_name": "Zeros", "config": {}}, "gamma_initializer": {"class_name": "Ones", "config": {}}, "moving_mean_initializer": {"class_name": "Zeros", "config": {}}, "moving_variance_initializer": {"class_name": "Ones", "config": {}}, "beta_regularizer": null, "gamma_regularizer": null, "beta_constraint": null, "gamma_constraint": null}, "name": "batch_normalization_391", "inbound_nodes": [[["conv2d_379", 0, 0, {}]]]}, {"class_name": "BatchNormalization", "config": {"name": "batch_normalization_392", "trainable": true, "dtype": "float32", "axis": [3], "momentum": 0.99, "epsilon": 0.001, "center": true, "scale": false, "beta_initializer": {"class_name": "Zeros", "config": {}}, "gamma_initializer": {"class_name": "Ones", "config": {}}, "moving_mean_initializer": {"class_name": "Zeros", "config": {}}, "moving_variance_initializer": {"class_name": "Ones", "config": {}}, "beta_regularizer": null, "gamma_regularizer": null, "beta_constraint": null, "gamma_constraint": null}, "name": "batch_normalization_392", "inbound_nodes": [[["conv2d_380", 0, 0, {}]]]}, {"class_name": "Conv2D", "config": {"name": "conv2d_381", "trainable": true, "dtype": "float32", "filters": 192, "kernel_size": [1, 1], "strides": [1, 1], "padding": "same", "data_format": "channels_last", "dilation_rate": [1, 1], "activation": "linear", "use_bias": false, "kernel_initializer": {"class_name": "GlorotUniform", "config": {"seed": null}}, "bias_initializer": {"class_name": "Zeros", "config": {}}, "kernel_regularizer": null, "bias_regularizer": null, "activity_regularizer": null, "kernel_constraint": null, "bias_constraint": null}, "name": "conv2d_381", "inbound_nodes": [[["average_pooling2d_17", 0, 0, {}]]]}, {"class_name": "BatchNormalization", "config": {"name": "batch_normalization_385", "trainable": true, "dtype": "float32", "axis": [3], "momentum": 0.99, "epsilon": 0.001, "center": true, "scale": false, "beta_initializer": {"class_name": "Zeros", "config": {}}, "gamma_initializer": {"class_name": "Ones", "config": {}}, "moving_mean_initializer": {"class_name": "Zeros", "config": {}}, "moving_variance_initializer": {"class_name": "Ones", "config": {}}, "beta_regularizer": null, "gamma_regularizer": null, "beta_constraint": null, "gamma_constraint": null}, "name": "batch_normalization_385", "inbound_nodes": [[["conv2d_373", 0, 0, {}]]]}, {"class_name": "Activation", "config": {"name": "activation_375", "trainable": true, "dtype": "float32", "activation": "relu"}, "name": "activation_375", "inbound_nodes": [[["batch_normalization_387", 0, 0, {}]]]}, {"class_name": "Activation", "config": {"name": "activation_376", "trainable": true, "dtype": "float32", "activation": "relu"}, "name": "activation_376", "inbound_nodes": [[["batch_normalization_388", 0, 0, {}]]]}, {"class_name": "Activation", "config": {"name": "activation_379", "trainable": true, "dtype": "float32", "activation": "relu"}, "name": "activation_379", "inbound_nodes": [[["batch_normalization_391", 0, 0, {}]]]}, {"class_name": "Activation", "config": {"name": "activation_380", "trainable": true, "dtype": "float32", "activation": "relu"}, "name": "activation_380", "inbound_nodes": [[["batch_normalization_392", 0, 0, {}]]]}, {"class_name": "BatchNormalization", "config": {"name": "batch_normalization_393", "trainable": true, "dtype": "float32", "axis": [3], "momentum": 0.99, "epsilon": 0.001, "center": true, "scale": false, "beta_initializer": {"class_name": "Zeros", "config": {}}, "gamma_initializer": {"class_name": "Ones", "config": {}}, "moving_mean_initializer": {"class_name": "Zeros", "config": {}}, "moving_variance_initializer": {"class_name": "Ones", "config": {}}, "beta_regularizer": null, "gamma_regularizer": null, "beta_constraint": null, "gamma_constraint": null}, "name": "batch_normalization_393", "inbound_nodes": [[["conv2d_381", 0, 0, {}]]]}, {"class_name": "Activation", "config": {"name": "activation_373", "trainable": true, "dtype": "float32", "activation": "relu"}, "name": "activation_373", "inbound_nodes": [[["batch_normalization_385", 0, 0, {}]]]}, {"class_name": "Concatenate", "config": {"name": "mixed9_0", "trainable": true, "dtype": "float32", "axis": 3}, "name": "mixed9_0", "inbound_nodes": [[["activation_375", 0, 0, {}], ["activation_376", 0, 0, {}]]]}, {"class_name": "Concatenate", "config": {"name": "concatenate_2", "trainable": true, "dtype": "float32", "axis": 3}, "name": "concatenate_2", "inbound_nodes": [[["activation_379", 0, 0, {}], ["activation_380", 0, 0, {}]]]}, {"class_name": "Activation", "config": {"name": "activation_381", "trainable": true, "dtype": "float32", "activation": "relu"}, "name": "activation_381", "inbound_nodes": [[["batch_normalization_393", 0, 0, {}]]]}, {"class_name": "Concatenate", "config": {"name": "mixed9", "trainable": true, "dtype": "float32", "axis": 3}, "name": "mixed9", "inbound_nodes": [[["activation_373", 0, 0, {}], ["mixed9_0", 0, 0, {}], ["concatenate_2", 0, 0, {}], ["activation_381", 0, 0, {}]]]}, {"class_name": "Conv2D", "config": {"name": "conv2d_386", "trainable": true, "dtype": "float32", "filters": 448, "kernel_size": [1, 1], "strides": [1, 1], "padding": "same", "data_format": "channels_last", "dilation_rate": [1, 1], "activation": "linear", "use_bias": false, "kernel_initializer": {"class_name": "GlorotUniform", "config": {"seed": null}}, "bias_initializer": {"class_name": "Zeros", "config": {}}, "kernel_regularizer": null, "bias_regularizer": null, "activity_regularizer": null, "kernel_constraint": null, "bias_constraint": null}, "name": "conv2d_386", "inbound_nodes": [[["mixed9", 0, 0, {}]]]}, {"class_name": "BatchNormalization", "config": {"name": "batch_normalization_398", "trainable": true, "dtype": "float32", "axis": [3], "momentum": 0.99, "epsilon": 0.001, "center": true, "scale": false, "beta_initializer": {"class_name": "Zeros", "config": {}}, "gamma_initializer": {"class_name": "Ones", "config": {}}, "moving_mean_initializer": {"class_name": "Zeros", "config": {}}, "moving_variance_initializer": {"class_name": "Ones", "config": {}}, "beta_regularizer": null, "gamma_regularizer": null, "beta_constraint": null, "gamma_constraint": null}, "name": "batch_normalization_398", "inbound_nodes": [[["conv2d_386", 0, 0, {}]]]}, {"class_name": "Activation", "config": {"name": "activation_386", "trainable": true, "dtype": "float32", "activation": "relu"}, "name": "activation_386", "inbound_nodes": [[["batch_normalization_398", 0, 0, {}]]]}, {"class_name": "Conv2D", "config": {"name": "conv2d_383", "trainable": true, "dtype": "float32", "filters": 384, "kernel_size": [1, 1], "strides": [1, 1], "padding": "same", "data_format": "channels_last", "dilation_rate": [1, 1], "activation": "linear", "use_bias": false, "kernel_initializer": {"class_name": "GlorotUniform", "config": {"seed": null}}, "bias_initializer": {"class_name": "Zeros", "config": {}}, "kernel_regularizer": null, "bias_regularizer": null, "activity_regularizer": null, "kernel_constraint": null, "bias_constraint": null}, "name": "conv2d_383", "inbound_nodes": [[["mixed9", 0, 0, {}]]]}, {"class_name": "Conv2D", "config": {"name": "conv2d_387", "trainable": true, "dtype": "float32", "filters": 384, "kernel_size": [3, 3], "strides": [1, 1], "padding": "same", "data_format": "channels_last", "dilation_rate": [1, 1], "activation": "linear", "use_bias": false, "kernel_initializer": {"class_name": "GlorotUniform", "config": {"seed": null}}, "bias_initializer": {"class_name": "Zeros", "config": {}}, "kernel_regularizer": null, "bias_regularizer": null, "activity_regularizer": null, "kernel_constraint": null, "bias_constraint": null}, "name": "conv2d_387", "inbound_nodes": [[["activation_386", 0, 0, {}]]]}, {"class_name": "BatchNormalization", "config": {"name": "batch_normalization_395", "trainable": true, "dtype": "float32", "axis": [3], "momentum": 0.99, "epsilon": 0.001, "center": true, "scale": false, "beta_initializer": {"class_name": "Zeros", "config": {}}, "gamma_initializer": {"class_name": "Ones", "config": {}}, "moving_mean_initializer": {"class_name": "Zeros", "config": {}}, "moving_variance_initializer": {"class_name": "Ones", "config": {}}, "beta_regularizer": null, "gamma_regularizer": null, "beta_constraint": null, "gamma_constraint": null}, "name": "batch_normalization_395", "inbound_nodes": [[["conv2d_383", 0, 0, {}]]]}, {"class_name": "BatchNormalization", "config": {"name": "batch_normalization_399", "trainable": true, "dtype": "float32", "axis": [3], "momentum": 0.99, "epsilon": 0.001, "center": true, "scale": false, "beta_initializer": {"class_name": "Zeros", "config": {}}, "gamma_initializer": {"class_name": "Ones", "config": {}}, "moving_mean_initializer": {"class_name": "Zeros", "config": {}}, "moving_variance_initializer": {"class_name": "Ones", "config": {}}, "beta_regularizer": null, "gamma_regularizer": null, "beta_constraint": null, "gamma_constraint": null}, "name": "batch_normalization_399", "inbound_nodes": [[["conv2d_387", 0, 0, {}]]]}, {"class_name": "Activation", "config": {"name": "activation_383", "trainable": true, "dtype": "float32", "activation": "relu"}, "name": "activation_383", "inbound_nodes": [[["batch_normalization_395", 0, 0, {}]]]}, {"class_name": "Activation", "config": {"name": "activation_387", "trainable": true, "dtype": "float32", "activation": "relu"}, "name": "activation_387", "inbound_nodes": [[["batch_normalization_399", 0, 0, {}]]]}, {"class_name": "Conv2D", "config": {"name": "conv2d_384", "trainable": true, "dtype": "float32", "filters": 384, "kernel_size": [1, 3], "strides": [1, 1], "padding": "same", "data_format": "channels_last", "dilation_rate": [1, 1], "activation": "linear", "use_bias": false, "kernel_initializer": {"class_name": "GlorotUniform", "config": {"seed": null}}, "bias_initializer": {"class_name": "Zeros", "config": {}}, "kernel_regularizer": null, "bias_regularizer": null, "activity_regularizer": null, "kernel_constraint": null, "bias_constraint": null}, "name": "conv2d_384", "inbound_nodes": [[["activation_383", 0, 0, {}]]]}, {"class_name": "Conv2D", "config": {"name": "conv2d_385", "trainable": true, "dtype": "float32", "filters": 384, "kernel_size": [3, 1], "strides": [1, 1], "padding": "same", "data_format": "channels_last", "dilation_rate": [1, 1], "activation": "linear", "use_bias": false, "kernel_initializer": {"class_name": "GlorotUniform", "config": {"seed": null}}, "bias_initializer": {"class_name": "Zeros", "config": {}}, "kernel_regularizer": null, "bias_regularizer": null, "activity_regularizer": null, "kernel_constraint": null, "bias_constraint": null}, "name": "conv2d_385", "inbound_nodes": [[["activation_383", 0, 0, {}]]]}, {"class_name": "Conv2D", "config": {"name": "conv2d_388", "trainable": true, "dtype": "float32", "filters": 384, "kernel_size": [1, 3], "strides": [1, 1], "padding": "same", "data_format": "channels_last", "dilation_rate": [1, 1], "activation": "linear", "use_bias": false, "kernel_initializer": {"class_name": "GlorotUniform", "config": {"seed": null}}, "bias_initializer": {"class_name": "Zeros", "config": {}}, "kernel_regularizer": null, "bias_regularizer": null, "activity_regularizer": null, "kernel_constraint": null, "bias_constraint": null}, "name": "conv2d_388", "inbound_nodes": [[["activation_387", 0, 0, {}]]]}, {"class_name": "Conv2D", "config": {"name": "conv2d_389", "trainable": true, "dtype": "float32", "filters": 384, "kernel_size": [3, 1], "strides": [1, 1], "padding": "same", "data_format": "channels_last", "dilation_rate": [1, 1], "activation": "linear", "use_bias": false, "kernel_initializer": {"class_name": "GlorotUniform", "config": {"seed": null}}, "bias_initializer": {"class_name": "Zeros", "config": {}}, "kernel_regularizer": null, "bias_regularizer": null, "activity_regularizer": null, "kernel_constraint": null, "bias_constraint": null}, "name": "conv2d_389", "inbound_nodes": [[["activation_387", 0, 0, {}]]]}, {"class_name": "AveragePooling2D", "config": {"name": "average_pooling2d_18", "trainable": true, "dtype": "float32", "pool_size": [3, 3], "padding": "same", "strides": [1, 1], "data_format": "channels_last"}, "name": "average_pooling2d_18", "inbound_nodes": [[["mixed9", 0, 0, {}]]]}, {"class_name": "Conv2D", "config": {"name": "conv2d_382", "trainable": true, "dtype": "float32", "filters": 320, "kernel_size": [1, 1], "strides": [1, 1], "padding": "same", "data_format": "channels_last", "dilation_rate": [1, 1], "activation": "linear", "use_bias": false, "kernel_initializer": {"class_name": "GlorotUniform", "config": {"seed": null}}, "bias_initializer": {"class_name": "Zeros", "config": {}}, "kernel_regularizer": null, "bias_regularizer": null, "activity_regularizer": null, "kernel_constraint": null, "bias_constraint": null}, "name": "conv2d_382", "inbound_nodes": [[["mixed9", 0, 0, {}]]]}, {"class_name": "BatchNormalization", "config": {"name": "batch_normalization_396", "trainable": true, "dtype": "float32", "axis": [3], "momentum": 0.99, "epsilon": 0.001, "center": true, "scale": false, "beta_initializer": {"class_name": "Zeros", "config": {}}, "gamma_initializer": {"class_name": "Ones", "config": {}}, "moving_mean_initializer": {"class_name": "Zeros", "config": {}}, "moving_variance_initializer": {"class_name": "Ones", "config": {}}, "beta_regularizer": null, "gamma_regularizer": null, "beta_constraint": null, "gamma_constraint": null}, "name": "batch_normalization_396", "inbound_nodes": [[["conv2d_384", 0, 0, {}]]]}, {"class_name": "BatchNormalization", "config": {"name": "batch_normalization_397", "trainable": true, "dtype": "float32", "axis": [3], "momentum": 0.99, "epsilon": 0.001, "center": true, "scale": false, "beta_initializer": {"class_name": "Zeros", "config": {}}, "gamma_initializer": {"class_name": "Ones", "config": {}}, "moving_mean_initializer": {"class_name": "Zeros", "config": {}}, "moving_variance_initializer": {"class_name": "Ones", "config": {}}, "beta_regularizer": null, "gamma_regularizer": null, "beta_constraint": null, "gamma_constraint": null}, "name": "batch_normalization_397", "inbound_nodes": [[["conv2d_385", 0, 0, {}]]]}, {"class_name": "BatchNormalization", "config": {"name": "batch_normalization_400", "trainable": true, "dtype": "float32", "axis": [3], "momentum": 0.99, "epsilon": 0.001, "center": true, "scale": false, "beta_initializer": {"class_name": "Zeros", "config": {}}, "gamma_initializer": {"class_name": "Ones", "config": {}}, "moving_mean_initializer": {"class_name": "Zeros", "config": {}}, "moving_variance_initializer": {"class_name": "Ones", "config": {}}, "beta_regularizer": null, "gamma_regularizer": null, "beta_constraint": null, "gamma_constraint": null}, "name": "batch_normalization_400", "inbound_nodes": [[["conv2d_388", 0, 0, {}]]]}, {"class_name": "BatchNormalization", "config": {"name": "batch_normalization_401", "trainable": true, "dtype": "float32", "axis": [3], "momentum": 0.99, "epsilon": 0.001, "center": true, "scale": false, "beta_initializer": {"class_name": "Zeros", "config": {}}, "gamma_initializer": {"class_name": "Ones", "config": {}}, "moving_mean_initializer": {"class_name": "Zeros", "config": {}}, "moving_variance_initializer": {"class_name": "Ones", "config": {}}, "beta_regularizer": null, "gamma_regularizer": null, "beta_constraint": null, "gamma_constraint": null}, "name": "batch_normalization_401", "inbound_nodes": [[["conv2d_389", 0, 0, {}]]]}, {"class_name": "Conv2D", "config": {"name": "conv2d_390", "trainable": true, "dtype": "float32", "filters": 192, "kernel_size": [1, 1], "strides": [1, 1], "padding": "same", "data_format": "channels_last", "dilation_rate": [1, 1], "activation": "linear", "use_bias": false, "kernel_initializer": {"class_name": "GlorotUniform", "config": {"seed": null}}, "bias_initializer": {"class_name": "Zeros", "config": {}}, "kernel_regularizer": null, "bias_regularizer": null, "activity_regularizer": null, "kernel_constraint": null, "bias_constraint": null}, "name": "conv2d_390", "inbound_nodes": [[["average_pooling2d_18", 0, 0, {}]]]}, {"class_name": "BatchNormalization", "config": {"name": "batch_normalization_394", "trainable": true, "dtype": "float32", "axis": [3], "momentum": 0.99, "epsilon": 0.001, "center": true, "scale": false, "beta_initializer": {"class_name": "Zeros", "config": {}}, "gamma_initializer": {"class_name": "Ones", "config": {}}, "moving_mean_initializer": {"class_name": "Zeros", "config": {}}, "moving_variance_initializer": {"class_name": "Ones", "config": {}}, "beta_regularizer": null, "gamma_regularizer": null, "beta_constraint": null, "gamma_constraint": null}, "name": "batch_normalization_394", "inbound_nodes": [[["conv2d_382", 0, 0, {}]]]}, {"class_name": "Activation", "config": {"name": "activation_384", "trainable": true, "dtype": "float32", "activation": "relu"}, "name": "activation_384", "inbound_nodes": [[["batch_normalization_396", 0, 0, {}]]]}, {"class_name": "Activation", "config": {"name": "activation_385", "trainable": true, "dtype": "float32", "activation": "relu"}, "name": "activation_385", "inbound_nodes": [[["batch_normalization_397", 0, 0, {}]]]}, {"class_name": "Activation", "config": {"name": "activation_388", "trainable": true, "dtype": "float32", "activation": "relu"}, "name": "activation_388", "inbound_nodes": [[["batch_normalization_400", 0, 0, {}]]]}, {"class_name": "Activation", "config": {"name": "activation_389", "trainable": true, "dtype": "float32", "activation": "relu"}, "name": "activation_389", "inbound_nodes": [[["batch_normalization_401", 0, 0, {}]]]}, {"class_name": "BatchNormalization", "config": {"name": "batch_normalization_402", "trainable": true, "dtype": "float32", "axis": [3], "momentum": 0.99, "epsilon": 0.001, "center": true, "scale": false, "beta_initializer": {"class_name": "Zeros", "config": {}}, "gamma_initializer": {"class_name": "Ones", "config": {}}, "moving_mean_initializer": {"class_name": "Zeros", "config": {}}, "moving_variance_initializer": {"class_name": "Ones", "config": {}}, "beta_regularizer": null, "gamma_regularizer": null, "beta_constraint": null, "gamma_constraint": null}, "name": "batch_normalization_402", "inbound_nodes": [[["conv2d_390", 0, 0, {}]]]}, {"class_name": "Activation", "config": {"name": "activation_382", "trainable": true, "dtype": "float32", "activation": "relu"}, "name": "activation_382", "inbound_nodes": [[["batch_normalization_394", 0, 0, {}]]]}, {"class_name": "Concatenate", "config": {"name": "mixed9_1", "trainable": true, "dtype": "float32", "axis": 3}, "name": "mixed9_1", "inbound_nodes": [[["activation_384", 0, 0, {}], ["activation_385", 0, 0, {}]]]}, {"class_name": "Concatenate", "config": {"name": "concatenate_3", "trainable": true, "dtype": "float32", "axis": 3}, "name": "concatenate_3", "inbound_nodes": [[["activation_388", 0, 0, {}], ["activation_389", 0, 0, {}]]]}, {"class_name": "Activation", "config": {"name": "activation_390", "trainable": true, "dtype": "float32", "activation": "relu"}, "name": "activation_390", "inbound_nodes": [[["batch_normalization_402", 0, 0, {}]]]}, {"class_name": "Concatenate", "config": {"name": "mixed10", "trainable": true, "dtype": "float32", "axis": 3}, "name": "mixed10", "inbound_nodes": [[["activation_382", 0, 0, {}], ["mixed9_1", 0, 0, {}], ["concatenate_3", 0, 0, {}], ["activation_390", 0, 0, {}]]]}], "input_layers": [["input_7", 0, 0]], "output_layers": [["mixed10", 0, 0]]}}, {"class_name": "BatchNormalization", "config": {"name": "batch_normalization_404", "trainable": true, "dtype": "float32", "axis": [3], "momentum": 0.99, "epsilon": 0.001, "center": true, "scale": true, "beta_initializer": {"class_name": "Zeros", "config": {}}, "gamma_initializer": {"class_name": "Ones", "config": {}}, "moving_mean_initializer": {"class_name": "Zeros", "config": {}}, "moving_variance_initializer": {"class_name": "Ones", "config": {}}, "beta_regularizer": null, "gamma_regularizer": null, "beta_constraint": null, "gamma_constraint": null}}, {"class_name": "GlobalAveragePooling2D", "config": {"name": "global_average_pooling2d_6", "trainable": true, "dtype": "float32", "data_format": "channels_last"}}, {"class_name": "Dropout", "config": {"name": "dropout_6", "trainable": true, "dtype": "float32", "rate": 0.5, "noise_shape": null, "seed": null}}, {"class_name": "Dense", "config": {"name": "dense_6", "trainable": true, "dtype": "float32", "units": 1, "activation": "linear", "use_bias": true, "kernel_initializer": {"class_name": "GlorotUniform", "config": {"seed": null}}, "bias_initializer": {"class_name": "Zeros", "config": {}}, "kernel_regularizer": null, "bias_regularizer": null, "activity_regularizer": null, "kernel_constraint": null, "bias_constraint": null}}]}, "keras_version": "2.2.4-tf", "backend": "tensorflow"}