{"class_name": "Sequential", "config": {"name": "sequential_7", "layers": [{"class_name": "BatchNormalization", "config": {"name": "batch_normalization_608", "trainable": true, "batch_input_shape": [null, 128, 128, 1], "dtype": "float32", "axis": [3], "momentum": 0.99, "epsilon": 0.001, "center": true, "scale": true, "beta_initializer": {"class_name": "Zeros", "config": {}}, "gamma_initializer": {"class_name": "Ones", "config": {}}, "moving_mean_initializer": {"class_name": "Zeros", "config": {}}, "moving_variance_initializer": {"class_name": "Ones", "config": {}}, "beta_regularizer": null, "gamma_regularizer": null, "beta_constraint": null, "gamma_constraint": null}}, {"class_name": "Model", "config": {"name": "inception_resnet_v2", "layers": [{"class_name": "InputLayer", "config": {"batch_input_shape": [null, 128, 128, 1], "dtype": "float32", "sparse": false, "name": "input_8"}, "name": "input_8", "inbound_nodes": []}, {"class_name": "Conv2D", "config": {"name": "conv2d_391", "trainable": true, "dtype": "float32", "filters": 32, "kernel_size": [3, 3], "strides": [2, 2], "padding": "valid", "data_format": "channels_last", "dilation_rate": [1, 1], "activation": "linear", "use_bias": false, "kernel_initializer": {"class_name": "GlorotUniform", "config": {"seed": null}}, "bias_initializer": {"class_name": "Zeros", "config": {}}, "kernel_regularizer": null, "bias_regularizer": null, "activity_regularizer": null, "kernel_constraint": null, "bias_constraint": null}, "name": "conv2d_391", "inbound_nodes": [[["input_8", 0, 0, {}]]]}, {"class_name": "BatchNormalization", "config": {"name": "batch_normalization_405", "trainable": true, "dtype": "float32", "axis": [3], "momentum": 0.99, "epsilon": 0.001, "center": true, "scale": false, "beta_initializer": {"class_name": "Zeros", "config": {}}, "gamma_initializer": {"class_name": "Ones", "config": {}}, "moving_mean_initializer": {"class_name": "Zeros", "config": {}}, "moving_variance_initializer": {"class_name": "Ones", "config": {}}, "beta_regularizer": null, "gamma_regularizer": null, "beta_constraint": null, "gamma_constraint": null}, "name": "batch_normalization_405", "inbound_nodes": [[["conv2d_391", 0, 0, {}]]]}, {"class_name": "Activation", "config": {"name": "activation_391", "trainable": true, "dtype": "float32", "activation": "relu"}, "name": "activation_391", "inbound_nodes": [[["batch_normalization_405", 0, 0, {}]]]}, {"class_name": "Conv2D", "config": {"name": "conv2d_392", "trainable": true, "dtype": "float32", "filters": 32, "kernel_size": [3, 3], "strides": [1, 1], "padding": "valid", "data_format": "channels_last", "dilation_rate": [1, 1], "activation": "linear", "use_bias": false, "kernel_initializer": {"class_name": "GlorotUniform", "config": {"seed": null}}, "bias_initializer": {"class_name": "Zeros", "config": {}}, "kernel_regularizer": null, "bias_regularizer": null, "activity_regularizer": null, "kernel_constraint": null, "bias_constraint": null}, "name": "conv2d_392", "inbound_nodes": [[["activation_391", 0, 0, {}]]]}, {"class_name": "BatchNormalization", "config": {"name": "batch_normalization_406", "trainable": true, "dtype": "float32", "axis": [3], "momentum": 0.99, "epsilon": 0.001, "center": true, "scale": false, "beta_initializer": {"class_name": "Zeros", "config": {}}, "gamma_initializer": {"class_name": "Ones", "config": {}}, "moving_mean_initializer": {"class_name": "Zeros", "config": {}}, "moving_variance_initializer": {"class_name": "Ones", "config": {}}, "beta_regularizer": null, "gamma_regularizer": null, "beta_constraint": null, "gamma_constraint": null}, "name": "batch_normalization_406", "inbound_nodes": [[["conv2d_392", 0, 0, {}]]]}, {"class_name": "Activation", "config": {"name": "activation_392", "trainable": true, "dtype": "float32", "activation": "relu"}, "name": "activation_392", "inbound_nodes": [[["batch_normalization_406", 0, 0, {}]]]}, {"class_name": "Conv2D", "config": {"name": "conv2d_393", "trainable": true, "dtype": "float32", "filters": 64, "kernel_size": [3, 3], "strides": [1, 1], "padding": "same", "data_format": "channels_last", "dilation_rate": [1, 1], "activation": "linear", "use_bias": false, "kernel_initializer": {"class_name": "GlorotUniform", "config": {"seed": null}}, "bias_initializer": {"class_name": "Zeros", "config": {}}, "kernel_regularizer": null, "bias_regularizer": null, "activity_regularizer": null, "kernel_constraint": null, "bias_constraint": null}, "name": "conv2d_393", "inbound_nodes": [[["activation_392", 0, 0, {}]]]}, {"class_name": "BatchNormalization", "config": {"name": "batch_normalization_407", "trainable": true, "dtype": "float32", "axis": [3], "momentum": 0.99, "epsilon": 0.001, "center": true, "scale": false, "beta_initializer": {"class_name": "Zeros", "config": {}}, "gamma_initializer": {"class_name": "Ones", "config": {}}, "moving_mean_initializer": {"class_name": "Zeros", "config": {}}, "moving_variance_initializer": {"class_name": "Ones", "config": {}}, "beta_regularizer": null, "gamma_regularizer": null, "beta_constraint": null, "gamma_constraint": null}, "name": "batch_normalization_407", "inbound_nodes": [[["conv2d_393", 0, 0, {}]]]}, {"class_name": "Activation", "config": {"name": "activation_393", "trainable": true, "dtype": "float32", "activation": "relu"}, "name": "activation_393", "inbound_nodes": [[["batch_normalization_407", 0, 0, {}]]]}, {"class_name": "MaxPooling2D", "config": {"name": "max_pooling2d_12", "trainable": true, "dtype": "float32", "pool_size": [3, 3], "padding": "valid", "strides": [2, 2], "data_format": "channels_last"}, "name": "max_pooling2d_12", "inbound_nodes": [[["activation_393", 0, 0, {}]]]}, {"class_name": "Conv2D", "config": {"name": "conv2d_394", "trainable": true, "dtype": "float32", "filters": 80, "kernel_size": [1, 1], "strides": [1, 1], "padding": "valid", "data_format": "channels_last", "dilation_rate": [1, 1], "activation": "linear", "use_bias": false, "kernel_initializer": {"class_name": "GlorotUniform", "config": {"seed": null}}, "bias_initializer": {"class_name": "Zeros", "config": {}}, "kernel_regularizer": null, "bias_regularizer": null, "activity_regularizer": null, "kernel_constraint": null, "bias_constraint": null}, "name": "conv2d_394", "inbound_nodes": [[["max_pooling2d_12", 0, 0, {}]]]}, {"class_name": "BatchNormalization", "config": {"name": "batch_normalization_408", "trainable": true, "dtype": "float32", "axis": [3], "momentum": 0.99, "epsilon": 0.001, "center": true, "scale": false, "beta_initializer": {"class_name": "Zeros", "config": {}}, "gamma_initializer": {"class_name": "Ones", "config": {}}, "moving_mean_initializer": {"class_name": "Zeros", "config": {}}, "moving_variance_initializer": {"class_name": "Ones", "config": {}}, "beta_regularizer": null, "gamma_regularizer": null, "beta_constraint": null, "gamma_constraint": null}, "name": "batch_normalization_408", "inbound_nodes": [[["conv2d_394", 0, 0, {}]]]}, {"class_name": "Activation", "config": {"name": "activation_394", "trainable": true, "dtype": "float32", "activation": "relu"}, "name": "activation_394", "inbound_nodes": [[["batch_normalization_408", 0, 0, {}]]]}, {"class_name": "Conv2D", "config": {"name": "conv2d_395", "trainable": true, "dtype": "float32", "filters": 192, "kernel_size": [3, 3], "strides": [1, 1], "padding": "valid", "data_format": "channels_last", "dilation_rate": [1, 1], "activation": "linear", "use_bias": false, "kernel_initializer": {"class_name": "GlorotUniform", "config": {"seed": null}}, "bias_initializer": {"class_name": "Zeros", "config": {}}, "kernel_regularizer": null, "bias_regularizer": null, "activity_regularizer": null, "kernel_constraint": null, "bias_constraint": null}, "name": "conv2d_395", "inbound_nodes": [[["activation_394", 0, 0, {}]]]}, {"class_name": "BatchNormalization", "config": {"name": "batch_normalization_409", "trainable": true, "dtype": "float32", "axis": [3], "momentum": 0.99, "epsilon": 0.001, "center": true, "scale": false, "beta_initializer": {"class_name": "Zeros", "config": {}}, "gamma_initializer": {"class_name": "Ones", "config": {}}, "moving_mean_initializer": {"class_name": "Zeros", "config": {}}, "moving_variance_initializer": {"class_name": "Ones", "config": {}}, "beta_regularizer": null, "gamma_regularizer": null, "beta_constraint": null, "gamma_constraint": null}, "name": "batch_normalization_409", "inbound_nodes": [[["conv2d_395", 0, 0, {}]]]}, {"class_name": "Activation", "config": {"name": "activation_395", "trainable": true, "dtype": "float32", "activation": "relu"}, "name": "activation_395", "inbound_nodes": [[["batch_normalization_409", 0, 0, {}]]]}, {"class_name": "MaxPooling2D", "config": {"name": "max_pooling2d_13", "trainable": true, "dtype": "float32", "pool_size": [3, 3], "padding": "valid", "strides": [2, 2], "data_format": "channels_last"}, "name": "max_pooling2d_13", "inbound_nodes": [[["activation_395", 0, 0, {}]]]}, {"class_name": "Conv2D", "config": {"name": "conv2d_399", "trainable": true, "dtype": "float32", "filters": 64, "kernel_size": [1, 1], "strides": [1, 1], "padding": "same", "data_format": "channels_last", "dilation_rate": [1, 1], "activation": "linear", "use_bias": false, "kernel_initializer": {"class_name": "GlorotUniform", "config": {"seed": null}}, "bias_initializer": {"class_name": "Zeros", "config": {}}, "kernel_regularizer": null, "bias_regularizer": null, "activity_regularizer": null, "kernel_constraint": null, "bias_constraint": null}, "name": "conv2d_399", "inbound_nodes": [[["max_pooling2d_13", 0, 0, {}]]]}, {"class_name": "BatchNormalization", "config": {"name": "batch_normalization_413", "trainable": true, "dtype": "float32", "axis": [3], "momentum": 0.99, "epsilon": 0.001, "center": true, "scale": false, "beta_initializer": {"class_name": "Zeros", "config": {}}, "gamma_initializer": {"class_name": "Ones", "config": {}}, "moving_mean_initializer": {"class_name": "Zeros", "config": {}}, "moving_variance_initializer": {"class_name": "Ones", "config": {}}, "beta_regularizer": null, "gamma_regularizer": null, "beta_constraint": null, "gamma_constraint": null}, "name": "batch_normalization_413", "inbound_nodes": [[["conv2d_399", 0, 0, {}]]]}, {"class_name": "Activation", "config": {"name": "activation_399", "trainable": true, "dtype": "float32", "activation": "relu"}, "name": "activation_399", "inbound_nodes": [[["batch_normalization_413", 0, 0, {}]]]}, {"class_name": "Conv2D", "config": {"name": "conv2d_397", "trainable": true, "dtype": "float32", "filters": 48, "kernel_size": [1, 1], "strides": [1, 1], "padding": "same", "data_format": "channels_last", "dilation_rate": [1, 1], "activation": "linear", "use_bias": false, "kernel_initializer": {"class_name": "GlorotUniform", "config": {"seed": null}}, "bias_initializer": {"class_name": "Zeros", "config": {}}, "kernel_regularizer": null, "bias_regularizer": null, "activity_regularizer": null, "kernel_constraint": null, "bias_constraint": null}, "name": "conv2d_397", "inbound_nodes": [[["max_pooling2d_13", 0, 0, {}]]]}, {"class_name": "Conv2D", "config": {"name": "conv2d_400", "trainable": true, "dtype": "float32", "filters": 96, "kernel_size": [3, 3], "strides": [1, 1], "padding": "same", "data_format": "channels_last", "dilation_rate": [1, 1], "activation": "linear", "use_bias": false, "kernel_initializer": {"class_name": "GlorotUniform", "config": {"seed": null}}, "bias_initializer": {"class_name": "Zeros", "config": {}}, "kernel_regularizer": null, "bias_regularizer": null, "activity_regularizer": null, "kernel_constraint": null, "bias_constraint": null}, "name": "conv2d_400", "inbound_nodes": [[["activation_399", 0, 0, {}]]]}, {"class_name": "BatchNormalization", "config": {"name": "batch_normalization_411", "trainable": true, "dtype": "float32", "axis": [3], "momentum": 0.99, "epsilon": 0.001, "center": true, "scale": false, "beta_initializer": {"class_name": "Zeros", "config": {}}, "gamma_initializer": {"class_name": "Ones", "config": {}}, "moving_mean_initializer": {"class_name": "Zeros", "config": {}}, "moving_variance_initializer": {"class_name": "Ones", "config": {}}, "beta_regularizer": null, "gamma_regularizer": null, "beta_constraint": null, "gamma_constraint": null}, "name": "batch_normalization_411", "inbound_nodes": [[["conv2d_397", 0, 0, {}]]]}, {"class_name": "BatchNormalization", "config": {"name": "batch_normalization_414", "trainable": true, "dtype": "float32", "axis": [3], "momentum": 0.99, "epsilon": 0.001, "center": true, "scale": false, "beta_initializer": {"class_name": "Zeros", "config": {}}, "gamma_initializer": {"class_name": "Ones", "config": {}}, "moving_mean_initializer": {"class_name": "Zeros", "config": {}}, "moving_variance_initializer": {"class_name": "Ones", "config": {}}, "beta_regularizer": null, "gamma_regularizer": null, "beta_constraint": null, "gamma_constraint": null}, "name": "batch_normalization_414", "inbound_nodes": [[["conv2d_400", 0, 0, {}]]]}, {"class_name": "Activation", "config": {"name": "activation_397", "trainable": true, "dtype": "float32", "activation": "relu"}, "name": "activation_397", "inbound_nodes": [[["batch_normalization_411", 0, 0, {}]]]}, {"class_name": "Activation", "config": {"name": "activation_400", "trainable": true, "dtype": "float32", "activation": "relu"}, "name": "activation_400", "inbound_nodes": [[["batch_normalization_414", 0, 0, {}]]]}, {"class_name": "AveragePooling2D", "config": {"name": "average_pooling2d_19", "trainable": true, "dtype": "float32", "pool_size": [3, 3], "padding": "same", "strides": [1, 1], "data_format": "channels_last"}, "name": "average_pooling2d_19", "inbound_nodes": [[["max_pooling2d_13", 0, 0, {}]]]}, {"class_name": "Conv2D", "config": {"name": "conv2d_396", "trainable": true, "dtype": "float32", "filters": 96, "kernel_size": [1, 1], "strides": [1, 1], "padding": "same", "data_format": "channels_last", "dilation_rate": [1, 1], "activation": "linear", "use_bias": false, "kernel_initializer": {"class_name": "GlorotUniform", "config": {"seed": null}}, "bias_initializer": {"class_name": "Zeros", "config": {}}, "kernel_regularizer": null, "bias_regularizer": null, "activity_regularizer": null, "kernel_constraint": null, "bias_constraint": null}, "name": "conv2d_396", "inbound_nodes": [[["max_pooling2d_13", 0, 0, {}]]]}, {"class_name": "Conv2D", "config": {"name": "conv2d_398", "trainable": true, "dtype": "float32", "filters": 64, "kernel_size": [5, 5], "strides": [1, 1], "padding": "same", "data_format": "channels_last", "dilation_rate": [1, 1], "activation": "linear", "use_bias": false, "kernel_initializer": {"class_name": "GlorotUniform", "config": {"seed": null}}, "bias_initializer": {"class_name": "Zeros", "config": {}}, "kernel_regularizer": null, "bias_regularizer": null, "activity_regularizer": null, "kernel_constraint": null, "bias_constraint": null}, "name": "conv2d_398", "inbound_nodes": [[["activation_397", 0, 0, {}]]]}, {"class_name": "Conv2D", "config": {"name": "conv2d_401", "trainable": true, "dtype": "float32", "filters": 96, "kernel_size": [3, 3], "strides": [1, 1], "padding": "same", "data_format": "channels_last", "dilation_rate": [1, 1], "activation": "linear", "use_bias": false, "kernel_initializer": {"class_name": "GlorotUniform", "config": {"seed": null}}, "bias_initializer": {"class_name": "Zeros", "config": {}}, "kernel_regularizer": null, "bias_regularizer": null, "activity_regularizer": null, "kernel_constraint": null, "bias_constraint": null}, "name": "conv2d_401", "inbound_nodes": [[["activation_400", 0, 0, {}]]]}, {"class_name": "Conv2D", "config": {"name": "conv2d_402", "trainable": true, "dtype": "float32", "filters": 64, "kernel_size": [1, 1], "strides": [1, 1], "padding": "same", "data_format": "channels_last", "dilation_rate": [1, 1], "activation": "linear", "use_bias": false, "kernel_initializer": {"class_name": "GlorotUniform", "config": {"seed": null}}, "bias_initializer": {"class_name": "Zeros", "config": {}}, "kernel_regularizer": null, "bias_regularizer": null, "activity_regularizer": null, "kernel_constraint": null, "bias_constraint": null}, "name": "conv2d_402", "inbound_nodes": [[["average_pooling2d_19", 0, 0, {}]]]}, {"class_name": "BatchNormalization", "config": {"name": "batch_normalization_410", "trainable": true, "dtype": "float32", "axis": [3], "momentum": 0.99, "epsilon": 0.001, "center": true, "scale": false, "beta_initializer": {"class_name": "Zeros", "config": {}}, "gamma_initializer": {"class_name": "Ones", "config": {}}, "moving_mean_initializer": {"class_name": "Zeros", "config": {}}, "moving_variance_initializer": {"class_name": "Ones", "config": {}}, "beta_regularizer": null, "gamma_regularizer": null, "beta_constraint": null, "gamma_constraint": null}, "name": "batch_normalization_410", "inbound_nodes": [[["conv2d_396", 0, 0, {}]]]}, {"class_name": "BatchNormalization", "config": {"name": "batch_normalization_412", "trainable": true, "dtype": "float32", "axis": [3], "momentum": 0.99, "epsilon": 0.001, "center": true, "scale": false, "beta_initializer": {"class_name": "Zeros", "config": {}}, "gamma_initializer": {"class_name": "Ones", "config": {}}, "moving_mean_initializer": {"class_name": "Zeros", "config": {}}, "moving_variance_initializer": {"class_name": "Ones", "config": {}}, "beta_regularizer": null, "gamma_regularizer": null, "beta_constraint": null, "gamma_constraint": null}, "name": "batch_normalization_412", "inbound_nodes": [[["conv2d_398", 0, 0, {}]]]}, {"class_name": "BatchNormalization", "config": {"name": "batch_normalization_415", "trainable": true, "dtype": "float32", "axis": [3], "momentum": 0.99, "epsilon": 0.001, "center": true, "scale": false, "beta_initializer": {"class_name": "Zeros", "config": {}}, "gamma_initializer": {"class_name": "Ones", "config": {}}, "moving_mean_initializer": {"class_name": "Zeros", "config": {}}, "moving_variance_initializer": {"class_name": "Ones", "config": {}}, "beta_regularizer": null, "gamma_regularizer": null, "beta_constraint": null, "gamma_constraint": null}, "name": "batch_normalization_415", "inbound_nodes": [[["conv2d_401", 0, 0, {}]]]}, {"class_name": "BatchNormalization", "config": {"name": "batch_normalization_416", "trainable": true, "dtype": "float32", "axis": [3], "momentum": 0.99, "epsilon": 0.001, "center": true, "scale": false, "beta_initializer": {"class_name": "Zeros", "config": {}}, "gamma_initializer": {"class_name": "Ones", "config": {}}, "moving_mean_initializer": {"class_name": "Zeros", "config": {}}, "moving_variance_initializer": {"class_name": "Ones", "config": {}}, "beta_regularizer": null, "gamma_regularizer": null, "beta_constraint": null, "gamma_constraint": null}, "name": "batch_normalization_416", "inbound_nodes": [[["conv2d_402", 0, 0, {}]]]}, {"class_name": "Activation", "config": {"name": "activation_396", "trainable": true, "dtype": "float32", "activation": "relu"}, "name": "activation_396", "inbound_nodes": [[["batch_normalization_410", 0, 0, {}]]]}, {"class_name": "Activation", "config": {"name": "activation_398", "trainable": true, "dtype": "float32", "activation": "relu"}, "name": "activation_398", "inbound_nodes": [[["batch_normalization_412", 0, 0, {}]]]}, {"class_name": "Activation", "config": {"name": "activation_401", "trainable": true, "dtype": "float32", "activation": "relu"}, "name": "activation_401", "inbound_nodes": [[["batch_normalization_415", 0, 0, {}]]]}, {"class_name": "Activation", "config": {"name": "activation_402", "trainable": true, "dtype": "float32", "activation": "relu"}, "name": "activation_402", "inbound_nodes": [[["batch_normalization_416", 0, 0, {}]]]}, {"class_name": "Concatenate", "config": {"name": "mixed_5b", "trainable": true, "dtype": "float32", "axis": 3}, "name": "mixed_5b", "inbound_nodes": [[["activation_396", 0, 0, {}], ["activation_398", 0, 0, {}], ["activation_401", 0, 0, {}], ["activation_402", 0, 0, {}]]]}, {"class_name": "Conv2D", "config": {"name": "conv2d_406", "trainable": true, "dtype": "float32", "filters": 32, "kernel_size": [1, 1], "strides": [1, 1], "padding": "same", "data_format": "channels_last", "dilation_rate": [1, 1], "activation": "linear", "use_bias": false, "kernel_initializer": {"class_name": "GlorotUniform", "config": {"seed": null}}, "bias_initializer": {"class_name": "Zeros", "config": {}}, "kernel_regularizer": null, "bias_regularizer": null, "activity_regularizer": null, "kernel_constraint": null, "bias_constraint": null}, "name": "conv2d_406", "inbound_nodes": [[["mixed_5b", 0, 0, {}]]]}, {"class_name": "BatchNormalization", "config": {"name": "batch_normalization_420", "trainable": true, "dtype": "float32", "axis": [3], "momentum": 0.99, "epsilon": 0.001, "center": true, "scale": false, "beta_initializer": {"class_name": "Zeros", "config": {}}, "gamma_initializer": {"class_name": "Ones", "config": {}}, "moving_mean_initializer": {"class_name": "Zeros", "config": {}}, "moving_variance_initializer": {"class_name": "Ones", "config": {}}, "beta_regularizer": null, "gamma_regularizer": null, "beta_constraint": null, "gamma_constraint": null}, "name": "batch_normalization_420", "inbound_nodes": [[["conv2d_406", 0, 0, {}]]]}, {"class_name": "Activation", "config": {"name": "activation_406", "trainable": true, "dtype": "float32", "activation": "relu"}, "name": "activation_406", "inbound_nodes": [[["batch_normalization_420", 0, 0, {}]]]}, {"class_name": "Conv2D", "config": {"name": "conv2d_404", "trainable": true, "dtype": "float32", "filters": 32, "kernel_size": [1, 1], "strides": [1, 1], "padding": "same", "data_format": "channels_last", "dilation_rate": [1, 1], "activation": "linear", "use_bias": false, "kernel_initializer": {"class_name": "GlorotUniform", "config": {"seed": null}}, "bias_initializer": {"class_name": "Zeros", "config": {}}, "kernel_regularizer": null, "bias_regularizer": null, "activity_regularizer": null, "kernel_constraint": null, "bias_constraint": null}, "name": "conv2d_404", "inbound_nodes": [[["mixed_5b", 0, 0, {}]]]}, {"class_name": "Conv2D", "config": {"name": "conv2d_407", "trainable": true, "dtype": "float32", "filters": 48, "kernel_size": [3, 3], "strides": [1, 1], "padding": "same", "data_format": "channels_last", "dilation_rate": [1, 1], "activation": "linear", "use_bias": false, "kernel_initializer": {"class_name": "GlorotUniform", "config": {"seed": null}}, "bias_initializer": {"class_name": "Zeros", "config": {}}, "kernel_regularizer": null, "bias_regularizer": null, "activity_regularizer": null, "kernel_constraint": null, "bias_constraint": null}, "name": "conv2d_407", "inbound_nodes": [[["activation_406", 0, 0, {}]]]}, {"class_name": "BatchNormalization", "config": {"name": "batch_normalization_418", "trainable": true, "dtype": "float32", "axis": [3], "momentum": 0.99, "epsilon": 0.001, "center": true, "scale": false, "beta_initializer": {"class_name": "Zeros", "config": {}}, "gamma_initializer": {"class_name": "Ones", "config": {}}, "moving_mean_initializer": {"class_name": "Zeros", "config": {}}, "moving_variance_initializer": {"class_name": "Ones", "config": {}}, "beta_regularizer": null, "gamma_regularizer": null, "beta_constraint": null, "gamma_constraint": null}, "name": "batch_normalization_418", "inbound_nodes": [[["conv2d_404", 0, 0, {}]]]}, {"class_name": "BatchNormalization", "config": {"name": "batch_normalization_421", "trainable": true, "dtype": "float32", "axis": [3], "momentum": 0.99, "epsilon": 0.001, "center": true, "scale": false, "beta_initializer": {"class_name": "Zeros", "config": {}}, "gamma_initializer": {"class_name": "Ones", "config": {}}, "moving_mean_initializer": {"class_name": "Zeros", "config": {}}, "moving_variance_initializer": {"class_name": "Ones", "config": {}}, "beta_regularizer": null, "gamma_regularizer": null, "beta_constraint": null, "gamma_constraint": null}, "name": "batch_normalization_421", "inbound_nodes": [[["conv2d_407", 0, 0, {}]]]}, {"class_name": "Activation", "config": {"name": "activation_404", "trainable": true, "dtype": "float32", "activation": "relu"}, "name": "activation_404", "inbound_nodes": [[["batch_normalization_418", 0, 0, {}]]]}, {"class_name": "Activation", "config": {"name": "activation_407", "trainable": true, "dtype": "float32", "activation": "relu"}, "name": "activation_407", "inbound_nodes": [[["batch_normalization_421", 0, 0, {}]]]}, {"class_name": "Conv2D", "config": {"name": "conv2d_403", "trainable": true, "dtype": "float32", "filters": 32, "kernel_size": [1, 1], "strides": [1, 1], "padding": "same", "data_format": "channels_last", "dilation_rate": [1, 1], "activation": "linear", "use_bias": false, "kernel_initializer": {"class_name": "GlorotUniform", "config": {"seed": null}}, "bias_initializer": {"class_name": "Zeros", "config": {}}, "kernel_regularizer": null, "bias_regularizer": null, "activity_regularizer": null, "kernel_constraint": null, "bias_constraint": null}, "name": "conv2d_403", "inbound_nodes": [[["mixed_5b", 0, 0, {}]]]}, {"class_name": "Conv2D", "config": {"name": "conv2d_405", "trainable": true, "dtype": "float32", "filters": 32, "kernel_size": [3, 3], "strides": [1, 1], "padding": "same", "data_format": "channels_last", "dilation_rate": [1, 1], "activation": "linear", "use_bias": false, "kernel_initializer": {"class_name": "GlorotUniform", "config": {"seed": null}}, "bias_initializer": {"class_name": "Zeros", "config": {}}, "kernel_regularizer": null, "bias_regularizer": null, "activity_regularizer": null, "kernel_constraint": null, "bias_constraint": null}, "name": "conv2d_405", "inbound_nodes": [[["activation_404", 0, 0, {}]]]}, {"class_name": "Conv2D", "config": {"name": "conv2d_408", "trainable": true, "dtype": "float32", "filters": 64, "kernel_size": [3, 3], "strides": [1, 1], "padding": "same", "data_format": "channels_last", "dilation_rate": [1, 1], "activation": "linear", "use_bias": false, "kernel_initializer": {"class_name": "GlorotUniform", "config": {"seed": null}}, "bias_initializer": {"class_name": "Zeros", "config": {}}, "kernel_regularizer": null, "bias_regularizer": null, "activity_regularizer": null, "kernel_constraint": null, "bias_constraint": null}, "name": "conv2d_408", "inbound_nodes": [[["activation_407", 0, 0, {}]]]}, {"class_name": "BatchNormalization", "config": {"name": "batch_normalization_417", "trainable": true, "dtype": "float32", "axis": [3], "momentum": 0.99, "epsilon": 0.001, "center": true, "scale": false, "beta_initializer": {"class_name": "Zeros", "config": {}}, "gamma_initializer": {"class_name": "Ones", "config": {}}, "moving_mean_initializer": {"class_name": "Zeros", "config": {}}, "moving_variance_initializer": {"class_name": "Ones", "config": {}}, "beta_regularizer": null, "gamma_regularizer": null, "beta_constraint": null, "gamma_constraint": null}, "name": "batch_normalization_417", "inbound_nodes": [[["conv2d_403", 0, 0, {}]]]}, {"class_name": "BatchNormalization", "config": {"name": "batch_normalization_419", "trainable": true, "dtype": "float32", "axis": [3], "momentum": 0.99, "epsilon": 0.001, "center": true, "scale": false, "beta_initializer": {"class_name": "Zeros", "config": {}}, "gamma_initializer": {"class_name": "Ones", "config": {}}, "moving_mean_initializer": {"class_name": "Zeros", "config": {}}, "moving_variance_initializer": {"class_name": "Ones", "config": {}}, "beta_regularizer": null, "gamma_regularizer": null, "beta_constraint": null, "gamma_constraint": null}, "name": "batch_normalization_419", "inbound_nodes": [[["conv2d_405", 0, 0, {}]]]}, {"class_name": "BatchNormalization", "config": {"name": "batch_normalization_422", "trainable": true, "dtype": "float32", "axis": [3], "momentum": 0.99, "epsilon": 0.001, "center": true, "scale": false, "beta_initializer": {"class_name": "Zeros", "config": {}}, "gamma_initializer": {"class_name": "Ones", "config": {}}, "moving_mean_initializer": {"class_name": "Zeros", "config": {}}, "moving_variance_initializer": {"class_name": "Ones", "config": {}}, "beta_regularizer": null, "gamma_regularizer": null, "beta_constraint": null, "gamma_constraint": null}, "name": "batch_normalization_422", "inbound_nodes": [[["conv2d_408", 0, 0, {}]]]}, {"class_name": "Activation", "config": {"name": "activation_403", "trainable": true, "dtype": "float32", "activation": "relu"}, "name": "activation_403", "inbound_nodes": [[["batch_normalization_417", 0, 0, {}]]]}, {"class_name": "Activation", "config": {"name": "activation_405", "trainable": true, "dtype": "float32", "activation": "relu"}, "name": "activation_405", "inbound_nodes": [[["batch_normalization_419", 0, 0, {}]]]}, {"class_name": "Activation", "config": {"name": "activation_408", "trainable": true, "dtype": "float32", "activation": "relu"}, "name": "activation_408", "inbound_nodes": [[["batch_normalization_422", 0, 0, {}]]]}, {"class_name": "Concatenate", "config": {"name": "block35_1_mixed", "trainable": true, "dtype": "float32", "axis": 3}, "name": "block35_1_mixed", "inbound_nodes": [[["activation_403", 0, 0, {}], ["activation_405", 0, 0, {}], ["activation_408", 0, 0, {}]]]}, {"class_name": "Conv2D", "config": {"name": "block35_1_conv", "trainable": true, "dtype": "float32", "filters": 320, "kernel_size": [1, 1], "strides": [1, 1], "padding": "same", "data_format": "channels_last", "dilation_rate": [1, 1], "activation": "linear", "use_bias": true, "kernel_initializer": {"class_name": "GlorotUniform", "config": {"seed": null}}, "bias_initializer": {"class_name": "Zeros", "config": {}}, "kernel_regularizer": null, "bias_regularizer": null, "activity_regularizer": null, "kernel_constraint": null, "bias_constraint": null}, "name": "block35_1_conv", "inbound_nodes": [[["block35_1_mixed", 0, 0, {}]]]}, {"class_name": "Lambda", "config": {"name": "block35_1", "trainable": true, "dtype": "float32", "function": ["4wIAAAAAAAAAAgAAAAMAAABTAAAAcxQAAAB8AGQBGQB8AGQCGQB8ARQAFwBTACkDTukAAAAA6QEA\nAACpACkC2gZpbnB1dHPaBXNjYWxlcgMAAAByAwAAAPpYL2hvbWUvZmlsZnkvLmxvY2FsL2xpYi9w\neXRob24zLjcvc2l0ZS1wYWNrYWdlcy9rZXJhc19hcHBsaWNhdGlvbnMvaW5jZXB0aW9uX3Jlc25l\ndF92Mi5wedoIPGxhbWJkYT6oAAAA8wAAAAA=\n", null, null], "function_type": "lambda", "module": "keras_applications.inception_resnet_v2", "output_shape": [13, 13, 320], "output_shape_type": "raw", "output_shape_module": null, "arguments": {"scale": 0.17}}, "name": "block35_1", "inbound_nodes": [[["mixed_5b", 0, 0, {}], ["block35_1_conv", 0, 0, {}]]]}, {"class_name": "Activation", "config": {"name": "block35_1_ac", "trainable": true, "dtype": "float32", "activation": "relu"}, "name": "block35_1_ac", "inbound_nodes": [[["block35_1", 0, 0, {}]]]}, {"class_name": "Conv2D", "config": {"name": "conv2d_412", "trainable": true, "dtype": "float32", "filters": 32, "kernel_size": [1, 1], "strides": [1, 1], "padding": "same", "data_format": "channels_last", "dilation_rate": [1, 1], "activation": "linear", "use_bias": false, "kernel_initializer": {"class_name": "GlorotUniform", "config": {"seed": null}}, "bias_initializer": {"class_name": "Zeros", "config": {}}, "kernel_regularizer": null, "bias_regularizer": null, "activity_regularizer": null, "kernel_constraint": null, "bias_constraint": null}, "name": "conv2d_412", "inbound_nodes": [[["block35_1_ac", 0, 0, {}]]]}, {"class_name": "BatchNormalization", "config": {"name": "batch_normalization_426", "trainable": true, "dtype": "float32", "axis": [3], "momentum": 0.99, "epsilon": 0.001, "center": true, "scale": false, "beta_initializer": {"class_name": "Zeros", "config": {}}, "gamma_initializer": {"class_name": "Ones", "config": {}}, "moving_mean_initializer": {"class_name": "Zeros", "config": {}}, "moving_variance_initializer": {"class_name": "Ones", "config": {}}, "beta_regularizer": null, "gamma_regularizer": null, "beta_constraint": null, "gamma_constraint": null}, "name": "batch_normalization_426", "inbound_nodes": [[["conv2d_412", 0, 0, {}]]]}, {"class_name": "Activation", "config": {"name": "activation_412", "trainable": true, "dtype": "float32", "activation": "relu"}, "name": "activation_412", "inbound_nodes": [[["batch_normalization_426", 0, 0, {}]]]}, {"class_name": "Conv2D", "config": {"name": "conv2d_410", "trainable": true, "dtype": "float32", "filters": 32, "kernel_size": [1, 1], "strides": [1, 1], "padding": "same", "data_format": "channels_last", "dilation_rate": [1, 1], "activation": "linear", "use_bias": false, "kernel_initializer": {"class_name": "GlorotUniform", "config": {"seed": null}}, "bias_initializer": {"class_name": "Zeros", "config": {}}, "kernel_regularizer": null, "bias_regularizer": null, "activity_regularizer": null, "kernel_constraint": null, "bias_constraint": null}, "name": "conv2d_410", "inbound_nodes": [[["block35_1_ac", 0, 0, {}]]]}, {"class_name": "Conv2D", "config": {"name": "conv2d_413", "trainable": true, "dtype": "float32", "filters": 48, "kernel_size": [3, 3], "strides": [1, 1], "padding": "same", "data_format": "channels_last", "dilation_rate": [1, 1], "activation": "linear", "use_bias": false, "kernel_initializer": {"class_name": "GlorotUniform", "config": {"seed": null}}, "bias_initializer": {"class_name": "Zeros", "config": {}}, "kernel_regularizer": null, "bias_regularizer": null, "activity_regularizer": null, "kernel_constraint": null, "bias_constraint": null}, "name": "conv2d_413", "inbound_nodes": [[["activation_412", 0, 0, {}]]]}, {"class_name": "BatchNormalization", "config": {"name": "batch_normalization_424", "trainable": true, "dtype": "float32", "axis": [3], "momentum": 0.99, "epsilon": 0.001, "center": true, "scale": false, "beta_initializer": {"class_name": "Zeros", "config": {}}, "gamma_initializer": {"class_name": "Ones", "config": {}}, "moving_mean_initializer": {"class_name": "Zeros", "config": {}}, "moving_variance_initializer": {"class_name": "Ones", "config": {}}, "beta_regularizer": null, "gamma_regularizer": null, "beta_constraint": null, "gamma_constraint": null}, "name": "batch_normalization_424", "inbound_nodes": [[["conv2d_410", 0, 0, {}]]]}, {"class_name": "BatchNormalization", "config": {"name": "batch_normalization_427", "trainable": true, "dtype": "float32", "axis": [3], "momentum": 0.99, "epsilon": 0.001, "center": true, "scale": false, "beta_initializer": {"class_name": "Zeros", "config": {}}, "gamma_initializer": {"class_name": "Ones", "config": {}}, "moving_mean_initializer": {"class_name": "Zeros", "config": {}}, "moving_variance_initializer": {"class_name": "Ones", "config": {}}, "beta_regularizer": null, "gamma_regularizer": null, "beta_constraint": null, "gamma_constraint": null}, "name": "batch_normalization_427", "inbound_nodes": [[["conv2d_413", 0, 0, {}]]]}, {"class_name": "Activation", "config": {"name": "activation_410", "trainable": true, "dtype": "float32", "activation": "relu"}, "name": "activation_410", "inbound_nodes": [[["batch_normalization_424", 0, 0, {}]]]}, {"class_name": "Activation", "config": {"name": "activation_413", "trainable": true, "dtype": "float32", "activation": "relu"}, "name": "activation_413", "inbound_nodes": [[["batch_normalization_427", 0, 0, {}]]]}, {"class_name": "Conv2D", "config": {"name": "conv2d_409", "trainable": true, "dtype": "float32", "filters": 32, "kernel_size": [1, 1], "strides": [1, 1], "padding": "same", "data_format": "channels_last", "dilation_rate": [1, 1], "activation": "linear", "use_bias": false, "kernel_initializer": {"class_name": "GlorotUniform", "config": {"seed": null}}, "bias_initializer": {"class_name": "Zeros", "config": {}}, "kernel_regularizer": null, "bias_regularizer": null, "activity_regularizer": null, "kernel_constraint": null, "bias_constraint": null}, "name": "conv2d_409", "inbound_nodes": [[["block35_1_ac", 0, 0, {}]]]}, {"class_name": "Conv2D", "config": {"name": "conv2d_411", "trainable": true, "dtype": "float32", "filters": 32, "kernel_size": [3, 3], "strides": [1, 1], "padding": "same", "data_format": "channels_last", "dilation_rate": [1, 1], "activation": "linear", "use_bias": false, "kernel_initializer": {"class_name": "GlorotUniform", "config": {"seed": null}}, "bias_initializer": {"class_name": "Zeros", "config": {}}, "kernel_regularizer": null, "bias_regularizer": null, "activity_regularizer": null, "kernel_constraint": null, "bias_constraint": null}, "name": "conv2d_411", "inbound_nodes": [[["activation_410", 0, 0, {}]]]}, {"class_name": "Conv2D", "config": {"name": "conv2d_414", "trainable": true, "dtype": "float32", "filters": 64, "kernel_size": [3, 3], "strides": [1, 1], "padding": "same", "data_format": "channels_last", "dilation_rate": [1, 1], "activation": "linear", "use_bias": false, "kernel_initializer": {"class_name": "GlorotUniform", "config": {"seed": null}}, "bias_initializer": {"class_name": "Zeros", "config": {}}, "kernel_regularizer": null, "bias_regularizer": null, "activity_regularizer": null, "kernel_constraint": null, "bias_constraint": null}, "name": "conv2d_414", "inbound_nodes": [[["activation_413", 0, 0, {}]]]}, {"class_name": "BatchNormalization", "config": {"name": "batch_normalization_423", "trainable": true, "dtype": "float32", "axis": [3], "momentum": 0.99, "epsilon": 0.001, "center": true, "scale": false, "beta_initializer": {"class_name": "Zeros", "config": {}}, "gamma_initializer": {"class_name": "Ones", "config": {}}, "moving_mean_initializer": {"class_name": "Zeros", "config": {}}, "moving_variance_initializer": {"class_name": "Ones", "config": {}}, "beta_regularizer": null, "gamma_regularizer": null, "beta_constraint": null, "gamma_constraint": null}, "name": "batch_normalization_423", "inbound_nodes": [[["conv2d_409", 0, 0, {}]]]}, {"class_name": "BatchNormalization", "config": {"name": "batch_normalization_425", "trainable": true, "dtype": "float32", "axis": [3], "momentum": 0.99, "epsilon": 0.001, "center": true, "scale": false, "beta_initializer": {"class_name": "Zeros", "config": {}}, "gamma_initializer": {"class_name": "Ones", "config": {}}, "moving_mean_initializer": {"class_name": "Zeros", "config": {}}, "moving_variance_initializer": {"class_name": "Ones", "config": {}}, "beta_regularizer": null, "gamma_regularizer": null, "beta_constraint": null, "gamma_constraint": null}, "name": "batch_normalization_425", "inbound_nodes": [[["conv2d_411", 0, 0, {}]]]}, {"class_name": "BatchNormalization", "config": {"name": "batch_normalization_428", "trainable": true, "dtype": "float32", "axis": [3], "momentum": 0.99, "epsilon": 0.001, "center": true, "scale": false, "beta_initializer": {"class_name": "Zeros", "config": {}}, "gamma_initializer": {"class_name": "Ones", "config": {}}, "moving_mean_initializer": {"class_name": "Zeros", "config": {}}, "moving_variance_initializer": {"class_name": "Ones", "config": {}}, "beta_regularizer": null, "gamma_regularizer": null, "beta_constraint": null, "gamma_constraint": null}, "name": "batch_normalization_428", "inbound_nodes": [[["conv2d_414", 0, 0, {}]]]}, {"class_name": "Activation", "config": {"name": "activation_409", "trainable": true, "dtype": "float32", "activation": "relu"}, "name": "activation_409", "inbound_nodes": [[["batch_normalization_423", 0, 0, {}]]]}, {"class_name": "Activation", "config": {"name": "activation_411", "trainable": true, "dtype": "float32", "activation": "relu"}, "name": "activation_411", "inbound_nodes": [[["batch_normalization_425", 0, 0, {}]]]}, {"class_name": "Activation", "config": {"name": "activation_414", "trainable": true, "dtype": "float32", "activation": "relu"}, "name": "activation_414", "inbound_nodes": [[["batch_normalization_428", 0, 0, {}]]]}, {"class_name": "Concatenate", "config": {"name": "block35_2_mixed", "trainable": true, "dtype": "float32", "axis": 3}, "name": "block35_2_mixed", "inbound_nodes": [[["activation_409", 0, 0, {}], ["activation_411", 0, 0, {}], ["activation_414", 0, 0, {}]]]}, {"class_name": "Conv2D", "config": {"name": "block35_2_conv", "trainable": true, "dtype": "float32", "filters": 320, "kernel_size": [1, 1], "strides": [1, 1], "padding": "same", "data_format": "channels_last", "dilation_rate": [1, 1], "activation": "linear", "use_bias": true, "kernel_initializer": {"class_name": "GlorotUniform", "config": {"seed": null}}, "bias_initializer": {"class_name": "Zeros", "config": {}}, "kernel_regularizer": null, "bias_regularizer": null, "activity_regularizer": null, "kernel_constraint": null, "bias_constraint": null}, "name": "block35_2_conv", "inbound_nodes": [[["block35_2_mixed", 0, 0, {}]]]}, {"class_name": "Lambda", "config": {"name": "block35_2", "trainable": true, "dtype": "float32", "function": ["4wIAAAAAAAAAAgAAAAMAAABTAAAAcxQAAAB8AGQBGQB8AGQCGQB8ARQAFwBTACkDTukAAAAA6QEA\nAACpACkC2gZpbnB1dHPaBXNjYWxlcgMAAAByAwAAAPpYL2hvbWUvZmlsZnkvLmxvY2FsL2xpYi9w\neXRob24zLjcvc2l0ZS1wYWNrYWdlcy9rZXJhc19hcHBsaWNhdGlvbnMvaW5jZXB0aW9uX3Jlc25l\ndF92Mi5wedoIPGxhbWJkYT6oAAAA8wAAAAA=\n", null, null], "function_type": "lambda", "module": "keras_applications.inception_resnet_v2", "output_shape": [13, 13, 320], "output_shape_type": "raw", "output_shape_module": null, "arguments": {"scale": 0.17}}, "name": "block35_2", "inbound_nodes": [[["block35_1_ac", 0, 0, {}], ["block35_2_conv", 0, 0, {}]]]}, {"class_name": "Activation", "config": {"name": "block35_2_ac", "trainable": true, "dtype": "float32", "activation": "relu"}, "name": "block35_2_ac", "inbound_nodes": [[["block35_2", 0, 0, {}]]]}, {"class_name": "Conv2D", "config": {"name": "conv2d_418", "trainable": true, "dtype": "float32", "filters": 32, "kernel_size": [1, 1], "strides": [1, 1], "padding": "same", "data_format": "channels_last", "dilation_rate": [1, 1], "activation": "linear", "use_bias": false, "kernel_initializer": {"class_name": "GlorotUniform", "config": {"seed": null}}, "bias_initializer": {"class_name": "Zeros", "config": {}}, "kernel_regularizer": null, "bias_regularizer": null, "activity_regularizer": null, "kernel_constraint": null, "bias_constraint": null}, "name": "conv2d_418", "inbound_nodes": [[["block35_2_ac", 0, 0, {}]]]}, {"class_name": "BatchNormalization", "config": {"name": "batch_normalization_432", "trainable": true, "dtype": "float32", "axis": [3], "momentum": 0.99, "epsilon": 0.001, "center": true, "scale": false, "beta_initializer": {"class_name": "Zeros", "config": {}}, "gamma_initializer": {"class_name": "Ones", "config": {}}, "moving_mean_initializer": {"class_name": "Zeros", "config": {}}, "moving_variance_initializer": {"class_name": "Ones", "config": {}}, "beta_regularizer": null, "gamma_regularizer": null, "beta_constraint": null, "gamma_constraint": null}, "name": "batch_normalization_432", "inbound_nodes": [[["conv2d_418", 0, 0, {}]]]}, {"class_name": "Activation", "config": {"name": "activation_418", "trainable": true, "dtype": "float32", "activation": "relu"}, "name": "activation_418", "inbound_nodes": [[["batch_normalization_432", 0, 0, {}]]]}, {"class_name": "Conv2D", "config": {"name": "conv2d_416", "trainable": true, "dtype": "float32", "filters": 32, "kernel_size": [1, 1], "strides": [1, 1], "padding": "same", "data_format": "channels_last", "dilation_rate": [1, 1], "activation": "linear", "use_bias": false, "kernel_initializer": {"class_name": "GlorotUniform", "config": {"seed": null}}, "bias_initializer": {"class_name": "Zeros", "config": {}}, "kernel_regularizer": null, "bias_regularizer": null, "activity_regularizer": null, "kernel_constraint": null, "bias_constraint": null}, "name": "conv2d_416", "inbound_nodes": [[["block35_2_ac", 0, 0, {}]]]}, {"class_name": "Conv2D", "config": {"name": "conv2d_419", "trainable": true, "dtype": "float32", "filters": 48, "kernel_size": [3, 3], "strides": [1, 1], "padding": "same", "data_format": "channels_last", "dilation_rate": [1, 1], "activation": "linear", "use_bias": false, "kernel_initializer": {"class_name": "GlorotUniform", "config": {"seed": null}}, "bias_initializer": {"class_name": "Zeros", "config": {}}, "kernel_regularizer": null, "bias_regularizer": null, "activity_regularizer": null, "kernel_constraint": null, "bias_constraint": null}, "name": "conv2d_419", "inbound_nodes": [[["activation_418", 0, 0, {}]]]}, {"class_name": "BatchNormalization", "config": {"name": "batch_normalization_430", "trainable": true, "dtype": "float32", "axis": [3], "momentum": 0.99, "epsilon": 0.001, "center": true, "scale": false, "beta_initializer": {"class_name": "Zeros", "config": {}}, "gamma_initializer": {"class_name": "Ones", "config": {}}, "moving_mean_initializer": {"class_name": "Zeros", "config": {}}, "moving_variance_initializer": {"class_name": "Ones", "config": {}}, "beta_regularizer": null, "gamma_regularizer": null, "beta_constraint": null, "gamma_constraint": null}, "name": "batch_normalization_430", "inbound_nodes": [[["conv2d_416", 0, 0, {}]]]}, {"class_name": "BatchNormalization", "config": {"name": "batch_normalization_433", "trainable": true, "dtype": "float32", "axis": [3], "momentum": 0.99, "epsilon": 0.001, "center": true, "scale": false, "beta_initializer": {"class_name": "Zeros", "config": {}}, "gamma_initializer": {"class_name": "Ones", "config": {}}, "moving_mean_initializer": {"class_name": "Zeros", "config": {}}, "moving_variance_initializer": {"class_name": "Ones", "config": {}}, "beta_regularizer": null, "gamma_regularizer": null, "beta_constraint": null, "gamma_constraint": null}, "name": "batch_normalization_433", "inbound_nodes": [[["conv2d_419", 0, 0, {}]]]}, {"class_name": "Activation", "config": {"name": "activation_416", "trainable": true, "dtype": "float32", "activation": "relu"}, "name": "activation_416", "inbound_nodes": [[["batch_normalization_430", 0, 0, {}]]]}, {"class_name": "Activation", "config": {"name": "activation_419", "trainable": true, "dtype": "float32", "activation": "relu"}, "name": "activation_419", "inbound_nodes": [[["batch_normalization_433", 0, 0, {}]]]}, {"class_name": "Conv2D", "config": {"name": "conv2d_415", "trainable": true, "dtype": "float32", "filters": 32, "kernel_size": [1, 1], "strides": [1, 1], "padding": "same", "data_format": "channels_last", "dilation_rate": [1, 1], "activation": "linear", "use_bias": false, "kernel_initializer": {"class_name": "GlorotUniform", "config": {"seed": null}}, "bias_initializer": {"class_name": "Zeros", "config": {}}, "kernel_regularizer": null, "bias_regularizer": null, "activity_regularizer": null, "kernel_constraint": null, "bias_constraint": null}, "name": "conv2d_415", "inbound_nodes": [[["block35_2_ac", 0, 0, {}]]]}, {"class_name": "Conv2D", "config": {"name": "conv2d_417", "trainable": true, "dtype": "float32", "filters": 32, "kernel_size": [3, 3], "strides": [1, 1], "padding": "same", "data_format": "channels_last", "dilation_rate": [1, 1], "activation": "linear", "use_bias": false, "kernel_initializer": {"class_name": "GlorotUniform", "config": {"seed": null}}, "bias_initializer": {"class_name": "Zeros", "config": {}}, "kernel_regularizer": null, "bias_regularizer": null, "activity_regularizer": null, "kernel_constraint": null, "bias_constraint": null}, "name": "conv2d_417", "inbound_nodes": [[["activation_416", 0, 0, {}]]]}, {"class_name": "Conv2D", "config": {"name": "conv2d_420", "trainable": true, "dtype": "float32", "filters": 64, "kernel_size": [3, 3], "strides": [1, 1], "padding": "same", "data_format": "channels_last", "dilation_rate": [1, 1], "activation": "linear", "use_bias": false, "kernel_initializer": {"class_name": "GlorotUniform", "config": {"seed": null}}, "bias_initializer": {"class_name": "Zeros", "config": {}}, "kernel_regularizer": null, "bias_regularizer": null, "activity_regularizer": null, "kernel_constraint": null, "bias_constraint": null}, "name": "conv2d_420", "inbound_nodes": [[["activation_419", 0, 0, {}]]]}, {"class_name": "BatchNormalization", "config": {"name": "batch_normalization_429", "trainable": true, "dtype": "float32", "axis": [3], "momentum": 0.99, "epsilon": 0.001, "center": true, "scale": false, "beta_initializer": {"class_name": "Zeros", "config": {}}, "gamma_initializer": {"class_name": "Ones", "config": {}}, "moving_mean_initializer": {"class_name": "Zeros", "config": {}}, "moving_variance_initializer": {"class_name": "Ones", "config": {}}, "beta_regularizer": null, "gamma_regularizer": null, "beta_constraint": null, "gamma_constraint": null}, "name": "batch_normalization_429", "inbound_nodes": [[["conv2d_415", 0, 0, {}]]]}, {"class_name": "BatchNormalization", "config": {"name": "batch_normalization_431", "trainable": true, "dtype": "float32", "axis": [3], "momentum": 0.99, "epsilon": 0.001, "center": true, "scale": false, "beta_initializer": {"class_name": "Zeros", "config": {}}, "gamma_initializer": {"class_name": "Ones", "config": {}}, "moving_mean_initializer": {"class_name": "Zeros", "config": {}}, "moving_variance_initializer": {"class_name": "Ones", "config": {}}, "beta_regularizer": null, "gamma_regularizer": null, "beta_constraint": null, "gamma_constraint": null}, "name": "batch_normalization_431", "inbound_nodes": [[["conv2d_417", 0, 0, {}]]]}, {"class_name": "BatchNormalization", "config": {"name": "batch_normalization_434", "trainable": true, "dtype": "float32", "axis": [3], "momentum": 0.99, "epsilon": 0.001, "center": true, "scale": false, "beta_initializer": {"class_name": "Zeros", "config": {}}, "gamma_initializer": {"class_name": "Ones", "config": {}}, "moving_mean_initializer": {"class_name": "Zeros", "config": {}}, "moving_variance_initializer": {"class_name": "Ones", "config": {}}, "beta_regularizer": null, "gamma_regularizer": null, "beta_constraint": null, "gamma_constraint": null}, "name": "batch_normalization_434", "inbound_nodes": [[["conv2d_420", 0, 0, {}]]]}, {"class_name": "Activation", "config": {"name": "activation_415", "trainable": true, "dtype": "float32", "activation": "relu"}, "name": "activation_415", "inbound_nodes": [[["batch_normalization_429", 0, 0, {}]]]}, {"class_name": "Activation", "config": {"name": "activation_417", "trainable": true, "dtype": "float32", "activation": "relu"}, "name": "activation_417", "inbound_nodes": [[["batch_normalization_431", 0, 0, {}]]]}, {"class_name": "Activation", "config": {"name": "activation_420", "trainable": true, "dtype": "float32", "activation": "relu"}, "name": "activation_420", "inbound_nodes": [[["batch_normalization_434", 0, 0, {}]]]}, {"class_name": "Concatenate", "config": {"name": "block35_3_mixed", "trainable": true, "dtype": "float32", "axis": 3}, "name": "block35_3_mixed", "inbound_nodes": [[["activation_415", 0, 0, {}], ["activation_417", 0, 0, {}], ["activation_420", 0, 0, {}]]]}, {"class_name": "Conv2D", "config": {"name": "block35_3_conv", "trainable": true, "dtype": "float32", "filters": 320, "kernel_size": [1, 1], "strides": [1, 1], "padding": "same", "data_format": "channels_last", "dilation_rate": [1, 1], "activation": "linear", "use_bias": true, "kernel_initializer": {"class_name": "GlorotUniform", "config": {"seed": null}}, "bias_initializer": {"class_name": "Zeros", "config": {}}, "kernel_regularizer": null, "bias_regularizer": null, "activity_regularizer": null, "kernel_constraint": null, "bias_constraint": null}, "name": "block35_3_conv", "inbound_nodes": [[["block35_3_mixed", 0, 0, {}]]]}, {"class_name": "Lambda", "config": {"name": "block35_3", "trainable": true, "dtype": "float32", "function": ["4wIAAAAAAAAAAgAAAAMAAABTAAAAcxQAAAB8AGQBGQB8AGQCGQB8ARQAFwBTACkDTukAAAAA6QEA\nAACpACkC2gZpbnB1dHPaBXNjYWxlcgMAAAByAwAAAPpYL2hvbWUvZmlsZnkvLmxvY2FsL2xpYi9w\neXRob24zLjcvc2l0ZS1wYWNrYWdlcy9rZXJhc19hcHBsaWNhdGlvbnMvaW5jZXB0aW9uX3Jlc25l\ndF92Mi5wedoIPGxhbWJkYT6oAAAA8wAAAAA=\n", null, null], "function_type": "lambda", "module": "keras_applications.inception_resnet_v2", "output_shape": [13, 13, 320], "output_shape_type": "raw", "output_shape_module": null, "arguments": {"scale": 0.17}}, "name": "block35_3", "inbound_nodes": [[["block35_2_ac", 0, 0, {}], ["block35_3_conv", 0, 0, {}]]]}, {"class_name": "Activation", "config": {"name": "block35_3_ac", "trainable": true, "dtype": "float32", "activation": "relu"}, "name": "block35_3_ac", "inbound_nodes": [[["block35_3", 0, 0, {}]]]}, {"class_name": "Conv2D", "config": {"name": "conv2d_424", "trainable": true, "dtype": "float32", "filters": 32, "kernel_size": [1, 1], "strides": [1, 1], "padding": "same", "data_format": "channels_last", "dilation_rate": [1, 1], "activation": "linear", "use_bias": false, "kernel_initializer": {"class_name": "GlorotUniform", "config": {"seed": null}}, "bias_initializer": {"class_name": "Zeros", "config": {}}, "kernel_regularizer": null, "bias_regularizer": null, "activity_regularizer": null, "kernel_constraint": null, "bias_constraint": null}, "name": "conv2d_424", "inbound_nodes": [[["block35_3_ac", 0, 0, {}]]]}, {"class_name": "BatchNormalization", "config": {"name": "batch_normalization_438", "trainable": true, "dtype": "float32", "axis": [3], "momentum": 0.99, "epsilon": 0.001, "center": true, "scale": false, "beta_initializer": {"class_name": "Zeros", "config": {}}, "gamma_initializer": {"class_name": "Ones", "config": {}}, "moving_mean_initializer": {"class_name": "Zeros", "config": {}}, "moving_variance_initializer": {"class_name": "Ones", "config": {}}, "beta_regularizer": null, "gamma_regularizer": null, "beta_constraint": null, "gamma_constraint": null}, "name": "batch_normalization_438", "inbound_nodes": [[["conv2d_424", 0, 0, {}]]]}, {"class_name": "Activation", "config": {"name": "activation_424", "trainable": true, "dtype": "float32", "activation": "relu"}, "name": "activation_424", "inbound_nodes": [[["batch_normalization_438", 0, 0, {}]]]}, {"class_name": "Conv2D", "config": {"name": "conv2d_422", "trainable": true, "dtype": "float32", "filters": 32, "kernel_size": [1, 1], "strides": [1, 1], "padding": "same", "data_format": "channels_last", "dilation_rate": [1, 1], "activation": "linear", "use_bias": false, "kernel_initializer": {"class_name": "GlorotUniform", "config": {"seed": null}}, "bias_initializer": {"class_name": "Zeros", "config": {}}, "kernel_regularizer": null, "bias_regularizer": null, "activity_regularizer": null, "kernel_constraint": null, "bias_constraint": null}, "name": "conv2d_422", "inbound_nodes": [[["block35_3_ac", 0, 0, {}]]]}, {"class_name": "Conv2D", "config": {"name": "conv2d_425", "trainable": true, "dtype": "float32", "filters": 48, "kernel_size": [3, 3], "strides": [1, 1], "padding": "same", "data_format": "channels_last", "dilation_rate": [1, 1], "activation": "linear", "use_bias": false, "kernel_initializer": {"class_name": "GlorotUniform", "config": {"seed": null}}, "bias_initializer": {"class_name": "Zeros", "config": {}}, "kernel_regularizer": null, "bias_regularizer": null, "activity_regularizer": null, "kernel_constraint": null, "bias_constraint": null}, "name": "conv2d_425", "inbound_nodes": [[["activation_424", 0, 0, {}]]]}, {"class_name": "BatchNormalization", "config": {"name": "batch_normalization_436", "trainable": true, "dtype": "float32", "axis": [3], "momentum": 0.99, "epsilon": 0.001, "center": true, "scale": false, "beta_initializer": {"class_name": "Zeros", "config": {}}, "gamma_initializer": {"class_name": "Ones", "config": {}}, "moving_mean_initializer": {"class_name": "Zeros", "config": {}}, "moving_variance_initializer": {"class_name": "Ones", "config": {}}, "beta_regularizer": null, "gamma_regularizer": null, "beta_constraint": null, "gamma_constraint": null}, "name": "batch_normalization_436", "inbound_nodes": [[["conv2d_422", 0, 0, {}]]]}, {"class_name": "BatchNormalization", "config": {"name": "batch_normalization_439", "trainable": true, "dtype": "float32", "axis": [3], "momentum": 0.99, "epsilon": 0.001, "center": true, "scale": false, "beta_initializer": {"class_name": "Zeros", "config": {}}, "gamma_initializer": {"class_name": "Ones", "config": {}}, "moving_mean_initializer": {"class_name": "Zeros", "config": {}}, "moving_variance_initializer": {"class_name": "Ones", "config": {}}, "beta_regularizer": null, "gamma_regularizer": null, "beta_constraint": null, "gamma_constraint": null}, "name": "batch_normalization_439", "inbound_nodes": [[["conv2d_425", 0, 0, {}]]]}, {"class_name": "Activation", "config": {"name": "activation_422", "trainable": true, "dtype": "float32", "activation": "relu"}, "name": "activation_422", "inbound_nodes": [[["batch_normalization_436", 0, 0, {}]]]}, {"class_name": "Activation", "config": {"name": "activation_425", "trainable": true, "dtype": "float32", "activation": "relu"}, "name": "activation_425", "inbound_nodes": [[["batch_normalization_439", 0, 0, {}]]]}, {"class_name": "Conv2D", "config": {"name": "conv2d_421", "trainable": true, "dtype": "float32", "filters": 32, "kernel_size": [1, 1], "strides": [1, 1], "padding": "same", "data_format": "channels_last", "dilation_rate": [1, 1], "activation": "linear", "use_bias": false, "kernel_initializer": {"class_name": "GlorotUniform", "config": {"seed": null}}, "bias_initializer": {"class_name": "Zeros", "config": {}}, "kernel_regularizer": null, "bias_regularizer": null, "activity_regularizer": null, "kernel_constraint": null, "bias_constraint": null}, "name": "conv2d_421", "inbound_nodes": [[["block35_3_ac", 0, 0, {}]]]}, {"class_name": "Conv2D", "config": {"name": "conv2d_423", "trainable": true, "dtype": "float32", "filters": 32, "kernel_size": [3, 3], "strides": [1, 1], "padding": "same", "data_format": "channels_last", "dilation_rate": [1, 1], "activation": "linear", "use_bias": false, "kernel_initializer": {"class_name": "GlorotUniform", "config": {"seed": null}}, "bias_initializer": {"class_name": "Zeros", "config": {}}, "kernel_regularizer": null, "bias_regularizer": null, "activity_regularizer": null, "kernel_constraint": null, "bias_constraint": null}, "name": "conv2d_423", "inbound_nodes": [[["activation_422", 0, 0, {}]]]}, {"class_name": "Conv2D", "config": {"name": "conv2d_426", "trainable": true, "dtype": "float32", "filters": 64, "kernel_size": [3, 3], "strides": [1, 1], "padding": "same", "data_format": "channels_last", "dilation_rate": [1, 1], "activation": "linear", "use_bias": false, "kernel_initializer": {"class_name": "GlorotUniform", "config": {"seed": null}}, "bias_initializer": {"class_name": "Zeros", "config": {}}, "kernel_regularizer": null, "bias_regularizer": null, "activity_regularizer": null, "kernel_constraint": null, "bias_constraint": null}, "name": "conv2d_426", "inbound_nodes": [[["activation_425", 0, 0, {}]]]}, {"class_name": "BatchNormalization", "config": {"name": "batch_normalization_435", "trainable": true, "dtype": "float32", "axis": [3], "momentum": 0.99, "epsilon": 0.001, "center": true, "scale": false, "beta_initializer": {"class_name": "Zeros", "config": {}}, "gamma_initializer": {"class_name": "Ones", "config": {}}, "moving_mean_initializer": {"class_name": "Zeros", "config": {}}, "moving_variance_initializer": {"class_name": "Ones", "config": {}}, "beta_regularizer": null, "gamma_regularizer": null, "beta_constraint": null, "gamma_constraint": null}, "name": "batch_normalization_435", "inbound_nodes": [[["conv2d_421", 0, 0, {}]]]}, {"class_name": "BatchNormalization", "config": {"name": "batch_normalization_437", "trainable": true, "dtype": "float32", "axis": [3], "momentum": 0.99, "epsilon": 0.001, "center": true, "scale": false, "beta_initializer": {"class_name": "Zeros", "config": {}}, "gamma_initializer": {"class_name": "Ones", "config": {}}, "moving_mean_initializer": {"class_name": "Zeros", "config": {}}, "moving_variance_initializer": {"class_name": "Ones", "config": {}}, "beta_regularizer": null, "gamma_regularizer": null, "beta_constraint": null, "gamma_constraint": null}, "name": "batch_normalization_437", "inbound_nodes": [[["conv2d_423", 0, 0, {}]]]}, {"class_name": "BatchNormalization", "config": {"name": "batch_normalization_440", "trainable": true, "dtype": "float32", "axis": [3], "momentum": 0.99, "epsilon": 0.001, "center": true, "scale": false, "beta_initializer": {"class_name": "Zeros", "config": {}}, "gamma_initializer": {"class_name": "Ones", "config": {}}, "moving_mean_initializer": {"class_name": "Zeros", "config": {}}, "moving_variance_initializer": {"class_name": "Ones", "config": {}}, "beta_regularizer": null, "gamma_regularizer": null, "beta_constraint": null, "gamma_constraint": null}, "name": "batch_normalization_440", "inbound_nodes": [[["conv2d_426", 0, 0, {}]]]}, {"class_name": "Activation", "config": {"name": "activation_421", "trainable": true, "dtype": "float32", "activation": "relu"}, "name": "activation_421", "inbound_nodes": [[["batch_normalization_435", 0, 0, {}]]]}, {"class_name": "Activation", "config": {"name": "activation_423", "trainable": true, "dtype": "float32", "activation": "relu"}, "name": "activation_423", "inbound_nodes": [[["batch_normalization_437", 0, 0, {}]]]}, {"class_name": "Activation", "config": {"name": "activation_426", "trainable": true, "dtype": "float32", "activation": "relu"}, "name": "activation_426", "inbound_nodes": [[["batch_normalization_440", 0, 0, {}]]]}, {"class_name": "Concatenate", "config": {"name": "block35_4_mixed", "trainable": true, "dtype": "float32", "axis": 3}, "name": "block35_4_mixed", "inbound_nodes": [[["activation_421", 0, 0, {}], ["activation_423", 0, 0, {}], ["activation_426", 0, 0, {}]]]}, {"class_name": "Conv2D", "config": {"name": "block35_4_conv", "trainable": true, "dtype": "float32", "filters": 320, "kernel_size": [1, 1], "strides": [1, 1], "padding": "same", "data_format": "channels_last", "dilation_rate": [1, 1], "activation": "linear", "use_bias": true, "kernel_initializer": {"class_name": "GlorotUniform", "config": {"seed": null}}, "bias_initializer": {"class_name": "Zeros", "config": {}}, "kernel_regularizer": null, "bias_regularizer": null, "activity_regularizer": null, "kernel_constraint": null, "bias_constraint": null}, "name": "block35_4_conv", "inbound_nodes": [[["block35_4_mixed", 0, 0, {}]]]}, {"class_name": "Lambda", "config": {"name": "block35_4", "trainable": true, "dtype": "float32", "function": ["4wIAAAAAAAAAAgAAAAMAAABTAAAAcxQAAAB8AGQBGQB8AGQCGQB8ARQAFwBTACkDTukAAAAA6QEA\nAACpACkC2gZpbnB1dHPaBXNjYWxlcgMAAAByAwAAAPpYL2hvbWUvZmlsZnkvLmxvY2FsL2xpYi9w\neXRob24zLjcvc2l0ZS1wYWNrYWdlcy9rZXJhc19hcHBsaWNhdGlvbnMvaW5jZXB0aW9uX3Jlc25l\ndF92Mi5wedoIPGxhbWJkYT6oAAAA8wAAAAA=\n", null, null], "function_type": "lambda", "module": "keras_applications.inception_resnet_v2", "output_shape": [13, 13, 320], "output_shape_type": "raw", "output_shape_module": null, "arguments": {"scale": 0.17}}, "name": "block35_4", "inbound_nodes": [[["block35_3_ac", 0, 0, {}], ["block35_4_conv", 0, 0, {}]]]}, {"class_name": "Activation", "config": {"name": "block35_4_ac", "trainable": true, "dtype": "float32", "activation": "relu"}, "name": "block35_4_ac", "inbound_nodes": [[["block35_4", 0, 0, {}]]]}, {"class_name": "Conv2D", "config": {"name": "conv2d_430", "trainable": true, "dtype": "float32", "filters": 32, "kernel_size": [1, 1], "strides": [1, 1], "padding": "same", "data_format": "channels_last", "dilation_rate": [1, 1], "activation": "linear", "use_bias": false, "kernel_initializer": {"class_name": "GlorotUniform", "config": {"seed": null}}, "bias_initializer": {"class_name": "Zeros", "config": {}}, "kernel_regularizer": null, "bias_regularizer": null, "activity_regularizer": null, "kernel_constraint": null, "bias_constraint": null}, "name": "conv2d_430", "inbound_nodes": [[["block35_4_ac", 0, 0, {}]]]}, {"class_name": "BatchNormalization", "config": {"name": "batch_normalization_444", "trainable": true, "dtype": "float32", "axis": [3], "momentum": 0.99, "epsilon": 0.001, "center": true, "scale": false, "beta_initializer": {"class_name": "Zeros", "config": {}}, "gamma_initializer": {"class_name": "Ones", "config": {}}, "moving_mean_initializer": {"class_name": "Zeros", "config": {}}, "moving_variance_initializer": {"class_name": "Ones", "config": {}}, "beta_regularizer": null, "gamma_regularizer": null, "beta_constraint": null, "gamma_constraint": null}, "name": "batch_normalization_444", "inbound_nodes": [[["conv2d_430", 0, 0, {}]]]}, {"class_name": "Activation", "config": {"name": "activation_430", "trainable": true, "dtype": "float32", "activation": "relu"}, "name": "activation_430", "inbound_nodes": [[["batch_normalization_444", 0, 0, {}]]]}, {"class_name": "Conv2D", "config": {"name": "conv2d_428", "trainable": true, "dtype": "float32", "filters": 32, "kernel_size": [1, 1], "strides": [1, 1], "padding": "same", "data_format": "channels_last", "dilation_rate": [1, 1], "activation": "linear", "use_bias": false, "kernel_initializer": {"class_name": "GlorotUniform", "config": {"seed": null}}, "bias_initializer": {"class_name": "Zeros", "config": {}}, "kernel_regularizer": null, "bias_regularizer": null, "activity_regularizer": null, "kernel_constraint": null, "bias_constraint": null}, "name": "conv2d_428", "inbound_nodes": [[["block35_4_ac", 0, 0, {}]]]}, {"class_name": "Conv2D", "config": {"name": "conv2d_431", "trainable": true, "dtype": "float32", "filters": 48, "kernel_size": [3, 3], "strides": [1, 1], "padding": "same", "data_format": "channels_last", "dilation_rate": [1, 1], "activation": "linear", "use_bias": false, "kernel_initializer": {"class_name": "GlorotUniform", "config": {"seed": null}}, "bias_initializer": {"class_name": "Zeros", "config": {}}, "kernel_regularizer": null, "bias_regularizer": null, "activity_regularizer": null, "kernel_constraint": null, "bias_constraint": null}, "name": "conv2d_431", "inbound_nodes": [[["activation_430", 0, 0, {}]]]}, {"class_name": "BatchNormalization", "config": {"name": "batch_normalization_442", "trainable": true, "dtype": "float32", "axis": [3], "momentum": 0.99, "epsilon": 0.001, "center": true, "scale": false, "beta_initializer": {"class_name": "Zeros", "config": {}}, "gamma_initializer": {"class_name": "Ones", "config": {}}, "moving_mean_initializer": {"class_name": "Zeros", "config": {}}, "moving_variance_initializer": {"class_name": "Ones", "config": {}}, "beta_regularizer": null, "gamma_regularizer": null, "beta_constraint": null, "gamma_constraint": null}, "name": "batch_normalization_442", "inbound_nodes": [[["conv2d_428", 0, 0, {}]]]}, {"class_name": "BatchNormalization", "config": {"name": "batch_normalization_445", "trainable": true, "dtype": "float32", "axis": [3], "momentum": 0.99, "epsilon": 0.001, "center": true, "scale": false, "beta_initializer": {"class_name": "Zeros", "config": {}}, "gamma_initializer": {"class_name": "Ones", "config": {}}, "moving_mean_initializer": {"class_name": "Zeros", "config": {}}, "moving_variance_initializer": {"class_name": "Ones", "config": {}}, "beta_regularizer": null, "gamma_regularizer": null, "beta_constraint": null, "gamma_constraint": null}, "name": "batch_normalization_445", "inbound_nodes": [[["conv2d_431", 0, 0, {}]]]}, {"class_name": "Activation", "config": {"name": "activation_428", "trainable": true, "dtype": "float32", "activation": "relu"}, "name": "activation_428", "inbound_nodes": [[["batch_normalization_442", 0, 0, {}]]]}, {"class_name": "Activation", "config": {"name": "activation_431", "trainable": true, "dtype": "float32", "activation": "relu"}, "name": "activation_431", "inbound_nodes": [[["batch_normalization_445", 0, 0, {}]]]}, {"class_name": "Conv2D", "config": {"name": "conv2d_427", "trainable": true, "dtype": "float32", "filters": 32, "kernel_size": [1, 1], "strides": [1, 1], "padding": "same", "data_format": "channels_last", "dilation_rate": [1, 1], "activation": "linear", "use_bias": false, "kernel_initializer": {"class_name": "GlorotUniform", "config": {"seed": null}}, "bias_initializer": {"class_name": "Zeros", "config": {}}, "kernel_regularizer": null, "bias_regularizer": null, "activity_regularizer": null, "kernel_constraint": null, "bias_constraint": null}, "name": "conv2d_427", "inbound_nodes": [[["block35_4_ac", 0, 0, {}]]]}, {"class_name": "Conv2D", "config": {"name": "conv2d_429", "trainable": true, "dtype": "float32", "filters": 32, "kernel_size": [3, 3], "strides": [1, 1], "padding": "same", "data_format": "channels_last", "dilation_rate": [1, 1], "activation": "linear", "use_bias": false, "kernel_initializer": {"class_name": "GlorotUniform", "config": {"seed": null}}, "bias_initializer": {"class_name": "Zeros", "config": {}}, "kernel_regularizer": null, "bias_regularizer": null, "activity_regularizer": null, "kernel_constraint": null, "bias_constraint": null}, "name": "conv2d_429", "inbound_nodes": [[["activation_428", 0, 0, {}]]]}, {"class_name": "Conv2D", "config": {"name": "conv2d_432", "trainable": true, "dtype": "float32", "filters": 64, "kernel_size": [3, 3], "strides": [1, 1], "padding": "same", "data_format": "channels_last", "dilation_rate": [1, 1], "activation": "linear", "use_bias": false, "kernel_initializer": {"class_name": "GlorotUniform", "config": {"seed": null}}, "bias_initializer": {"class_name": "Zeros", "config": {}}, "kernel_regularizer": null, "bias_regularizer": null, "activity_regularizer": null, "kernel_constraint": null, "bias_constraint": null}, "name": "conv2d_432", "inbound_nodes": [[["activation_431", 0, 0, {}]]]}, {"class_name": "BatchNormalization", "config": {"name": "batch_normalization_441", "trainable": true, "dtype": "float32", "axis": [3], "momentum": 0.99, "epsilon": 0.001, "center": true, "scale": false, "beta_initializer": {"class_name": "Zeros", "config": {}}, "gamma_initializer": {"class_name": "Ones", "config": {}}, "moving_mean_initializer": {"class_name": "Zeros", "config": {}}, "moving_variance_initializer": {"class_name": "Ones", "config": {}}, "beta_regularizer": null, "gamma_regularizer": null, "beta_constraint": null, "gamma_constraint": null}, "name": "batch_normalization_441", "inbound_nodes": [[["conv2d_427", 0, 0, {}]]]}, {"class_name": "BatchNormalization", "config": {"name": "batch_normalization_443", "trainable": true, "dtype": "float32", "axis": [3], "momentum": 0.99, "epsilon": 0.001, "center": true, "scale": false, "beta_initializer": {"class_name": "Zeros", "config": {}}, "gamma_initializer": {"class_name": "Ones", "config": {}}, "moving_mean_initializer": {"class_name": "Zeros", "config": {}}, "moving_variance_initializer": {"class_name": "Ones", "config": {}}, "beta_regularizer": null, "gamma_regularizer": null, "beta_constraint": null, "gamma_constraint": null}, "name": "batch_normalization_443", "inbound_nodes": [[["conv2d_429", 0, 0, {}]]]}, {"class_name": "BatchNormalization", "config": {"name": "batch_normalization_446", "trainable": true, "dtype": "float32", "axis": [3], "momentum": 0.99, "epsilon": 0.001, "center": true, "scale": false, "beta_initializer": {"class_name": "Zeros", "config": {}}, "gamma_initializer": {"class_name": "Ones", "config": {}}, "moving_mean_initializer": {"class_name": "Zeros", "config": {}}, "moving_variance_initializer": {"class_name": "Ones", "config": {}}, "beta_regularizer": null, "gamma_regularizer": null, "beta_constraint": null, "gamma_constraint": null}, "name": "batch_normalization_446", "inbound_nodes": [[["conv2d_432", 0, 0, {}]]]}, {"class_name": "Activation", "config": {"name": "activation_427", "trainable": true, "dtype": "float32", "activation": "relu"}, "name": "activation_427", "inbound_nodes": [[["batch_normalization_441", 0, 0, {}]]]}, {"class_name": "Activation", "config": {"name": "activation_429", "trainable": true, "dtype": "float32", "activation": "relu"}, "name": "activation_429", "inbound_nodes": [[["batch_normalization_443", 0, 0, {}]]]}, {"class_name": "Activation", "config": {"name": "activation_432", "trainable": true, "dtype": "float32", "activation": "relu"}, "name": "activation_432", "inbound_nodes": [[["batch_normalization_446", 0, 0, {}]]]}, {"class_name": "Concatenate", "config": {"name": "block35_5_mixed", "trainable": true, "dtype": "float32", "axis": 3}, "name": "block35_5_mixed", "inbound_nodes": [[["activation_427", 0, 0, {}], ["activation_429", 0, 0, {}], ["activation_432", 0, 0, {}]]]}, {"class_name": "Conv2D", "config": {"name": "block35_5_conv", "trainable": true, "dtype": "float32", "filters": 320, "kernel_size": [1, 1], "strides": [1, 1], "padding": "same", "data_format": "channels_last", "dilation_rate": [1, 1], "activation": "linear", "use_bias": true, "kernel_initializer": {"class_name": "GlorotUniform", "config": {"seed": null}}, "bias_initializer": {"class_name": "Zeros", "config": {}}, "kernel_regularizer": null, "bias_regularizer": null, "activity_regularizer": null, "kernel_constraint": null, "bias_constraint": null}, "name": "block35_5_conv", "inbound_nodes": [[["block35_5_mixed", 0, 0, {}]]]}, {"class_name": "Lambda", "config": {"name": "block35_5", "trainable": true, "dtype": "float32", "function": ["4wIAAAAAAAAAAgAAAAMAAABTAAAAcxQAAAB8AGQBGQB8AGQCGQB8ARQAFwBTACkDTukAAAAA6QEA\nAACpACkC2gZpbnB1dHPaBXNjYWxlcgMAAAByAwAAAPpYL2hvbWUvZmlsZnkvLmxvY2FsL2xpYi9w\neXRob24zLjcvc2l0ZS1wYWNrYWdlcy9rZXJhc19hcHBsaWNhdGlvbnMvaW5jZXB0aW9uX3Jlc25l\ndF92Mi5wedoIPGxhbWJkYT6oAAAA8wAAAAA=\n", null, null], "function_type": "lambda", "module": "keras_applications.inception_resnet_v2", "output_shape": [13, 13, 320], "output_shape_type": "raw", "output_shape_module": null, "arguments": {"scale": 0.17}}, "name": "block35_5", "inbound_nodes": [[["block35_4_ac", 0, 0, {}], ["block35_5_conv", 0, 0, {}]]]}, {"class_name": "Activation", "config": {"name": "block35_5_ac", "trainable": true, "dtype": "float32", "activation": "relu"}, "name": "block35_5_ac", "inbound_nodes": [[["block35_5", 0, 0, {}]]]}, {"class_name": "Conv2D", "config": {"name": "conv2d_436", "trainable": true, "dtype": "float32", "filters": 32, "kernel_size": [1, 1], "strides": [1, 1], "padding": "same", "data_format": "channels_last", "dilation_rate": [1, 1], "activation": "linear", "use_bias": false, "kernel_initializer": {"class_name": "GlorotUniform", "config": {"seed": null}}, "bias_initializer": {"class_name": "Zeros", "config": {}}, "kernel_regularizer": null, "bias_regularizer": null, "activity_regularizer": null, "kernel_constraint": null, "bias_constraint": null}, "name": "conv2d_436", "inbound_nodes": [[["block35_5_ac", 0, 0, {}]]]}, {"class_name": "BatchNormalization", "config": {"name": "batch_normalization_450", "trainable": true, "dtype": "float32", "axis": [3], "momentum": 0.99, "epsilon": 0.001, "center": true, "scale": false, "beta_initializer": {"class_name": "Zeros", "config": {}}, "gamma_initializer": {"class_name": "Ones", "config": {}}, "moving_mean_initializer": {"class_name": "Zeros", "config": {}}, "moving_variance_initializer": {"class_name": "Ones", "config": {}}, "beta_regularizer": null, "gamma_regularizer": null, "beta_constraint": null, "gamma_constraint": null}, "name": "batch_normalization_450", "inbound_nodes": [[["conv2d_436", 0, 0, {}]]]}, {"class_name": "Activation", "config": {"name": "activation_436", "trainable": true, "dtype": "float32", "activation": "relu"}, "name": "activation_436", "inbound_nodes": [[["batch_normalization_450", 0, 0, {}]]]}, {"class_name": "Conv2D", "config": {"name": "conv2d_434", "trainable": true, "dtype": "float32", "filters": 32, "kernel_size": [1, 1], "strides": [1, 1], "padding": "same", "data_format": "channels_last", "dilation_rate": [1, 1], "activation": "linear", "use_bias": false, "kernel_initializer": {"class_name": "GlorotUniform", "config": {"seed": null}}, "bias_initializer": {"class_name": "Zeros", "config": {}}, "kernel_regularizer": null, "bias_regularizer": null, "activity_regularizer": null, "kernel_constraint": null, "bias_constraint": null}, "name": "conv2d_434", "inbound_nodes": [[["block35_5_ac", 0, 0, {}]]]}, {"class_name": "Conv2D", "config": {"name": "conv2d_437", "trainable": true, "dtype": "float32", "filters": 48, "kernel_size": [3, 3], "strides": [1, 1], "padding": "same", "data_format": "channels_last", "dilation_rate": [1, 1], "activation": "linear", "use_bias": false, "kernel_initializer": {"class_name": "GlorotUniform", "config": {"seed": null}}, "bias_initializer": {"class_name": "Zeros", "config": {}}, "kernel_regularizer": null, "bias_regularizer": null, "activity_regularizer": null, "kernel_constraint": null, "bias_constraint": null}, "name": "conv2d_437", "inbound_nodes": [[["activation_436", 0, 0, {}]]]}, {"class_name": "BatchNormalization", "config": {"name": "batch_normalization_448", "trainable": true, "dtype": "float32", "axis": [3], "momentum": 0.99, "epsilon": 0.001, "center": true, "scale": false, "beta_initializer": {"class_name": "Zeros", "config": {}}, "gamma_initializer": {"class_name": "Ones", "config": {}}, "moving_mean_initializer": {"class_name": "Zeros", "config": {}}, "moving_variance_initializer": {"class_name": "Ones", "config": {}}, "beta_regularizer": null, "gamma_regularizer": null, "beta_constraint": null, "gamma_constraint": null}, "name": "batch_normalization_448", "inbound_nodes": [[["conv2d_434", 0, 0, {}]]]}, {"class_name": "BatchNormalization", "config": {"name": "batch_normalization_451", "trainable": true, "dtype": "float32", "axis": [3], "momentum": 0.99, "epsilon": 0.001, "center": true, "scale": false, "beta_initializer": {"class_name": "Zeros", "config": {}}, "gamma_initializer": {"class_name": "Ones", "config": {}}, "moving_mean_initializer": {"class_name": "Zeros", "config": {}}, "moving_variance_initializer": {"class_name": "Ones", "config": {}}, "beta_regularizer": null, "gamma_regularizer": null, "beta_constraint": null, "gamma_constraint": null}, "name": "batch_normalization_451", "inbound_nodes": [[["conv2d_437", 0, 0, {}]]]}, {"class_name": "Activation", "config": {"name": "activation_434", "trainable": true, "dtype": "float32", "activation": "relu"}, "name": "activation_434", "inbound_nodes": [[["batch_normalization_448", 0, 0, {}]]]}, {"class_name": "Activation", "config": {"name": "activation_437", "trainable": true, "dtype": "float32", "activation": "relu"}, "name": "activation_437", "inbound_nodes": [[["batch_normalization_451", 0, 0, {}]]]}, {"class_name": "Conv2D", "config": {"name": "conv2d_433", "trainable": true, "dtype": "float32", "filters": 32, "kernel_size": [1, 1], "strides": [1, 1], "padding": "same", "data_format": "channels_last", "dilation_rate": [1, 1], "activation": "linear", "use_bias": false, "kernel_initializer": {"class_name": "GlorotUniform", "config": {"seed": null}}, "bias_initializer": {"class_name": "Zeros", "config": {}}, "kernel_regularizer": null, "bias_regularizer": null, "activity_regularizer": null, "kernel_constraint": null, "bias_constraint": null}, "name": "conv2d_433", "inbound_nodes": [[["block35_5_ac", 0, 0, {}]]]}, {"class_name": "Conv2D", "config": {"name": "conv2d_435", "trainable": true, "dtype": "float32", "filters": 32, "kernel_size": [3, 3], "strides": [1, 1], "padding": "same", "data_format": "channels_last", "dilation_rate": [1, 1], "activation": "linear", "use_bias": false, "kernel_initializer": {"class_name": "GlorotUniform", "config": {"seed": null}}, "bias_initializer": {"class_name": "Zeros", "config": {}}, "kernel_regularizer": null, "bias_regularizer": null, "activity_regularizer": null, "kernel_constraint": null, "bias_constraint": null}, "name": "conv2d_435", "inbound_nodes": [[["activation_434", 0, 0, {}]]]}, {"class_name": "Conv2D", "config": {"name": "conv2d_438", "trainable": true, "dtype": "float32", "filters": 64, "kernel_size": [3, 3], "strides": [1, 1], "padding": "same", "data_format": "channels_last", "dilation_rate": [1, 1], "activation": "linear", "use_bias": false, "kernel_initializer": {"class_name": "GlorotUniform", "config": {"seed": null}}, "bias_initializer": {"class_name": "Zeros", "config": {}}, "kernel_regularizer": null, "bias_regularizer": null, "activity_regularizer": null, "kernel_constraint": null, "bias_constraint": null}, "name": "conv2d_438", "inbound_nodes": [[["activation_437", 0, 0, {}]]]}, {"class_name": "BatchNormalization", "config": {"name": "batch_normalization_447", "trainable": true, "dtype": "float32", "axis": [3], "momentum": 0.99, "epsilon": 0.001, "center": true, "scale": false, "beta_initializer": {"class_name": "Zeros", "config": {}}, "gamma_initializer": {"class_name": "Ones", "config": {}}, "moving_mean_initializer": {"class_name": "Zeros", "config": {}}, "moving_variance_initializer": {"class_name": "Ones", "config": {}}, "beta_regularizer": null, "gamma_regularizer": null, "beta_constraint": null, "gamma_constraint": null}, "name": "batch_normalization_447", "inbound_nodes": [[["conv2d_433", 0, 0, {}]]]}, {"class_name": "BatchNormalization", "config": {"name": "batch_normalization_449", "trainable": true, "dtype": "float32", "axis": [3], "momentum": 0.99, "epsilon": 0.001, "center": true, "scale": false, "beta_initializer": {"class_name": "Zeros", "config": {}}, "gamma_initializer": {"class_name": "Ones", "config": {}}, "moving_mean_initializer": {"class_name": "Zeros", "config": {}}, "moving_variance_initializer": {"class_name": "Ones", "config": {}}, "beta_regularizer": null, "gamma_regularizer": null, "beta_constraint": null, "gamma_constraint": null}, "name": "batch_normalization_449", "inbound_nodes": [[["conv2d_435", 0, 0, {}]]]}, {"class_name": "BatchNormalization", "config": {"name": "batch_normalization_452", "trainable": true, "dtype": "float32", "axis": [3], "momentum": 0.99, "epsilon": 0.001, "center": true, "scale": false, "beta_initializer": {"class_name": "Zeros", "config": {}}, "gamma_initializer": {"class_name": "Ones", "config": {}}, "moving_mean_initializer": {"class_name": "Zeros", "config": {}}, "moving_variance_initializer": {"class_name": "Ones", "config": {}}, "beta_regularizer": null, "gamma_regularizer": null, "beta_constraint": null, "gamma_constraint": null}, "name": "batch_normalization_452", "inbound_nodes": [[["conv2d_438", 0, 0, {}]]]}, {"class_name": "Activation", "config": {"name": "activation_433", "trainable": true, "dtype": "float32", "activation": "relu"}, "name": "activation_433", "inbound_nodes": [[["batch_normalization_447", 0, 0, {}]]]}, {"class_name": "Activation", "config": {"name": "activation_435", "trainable": true, "dtype": "float32", "activation": "relu"}, "name": "activation_435", "inbound_nodes": [[["batch_normalization_449", 0, 0, {}]]]}, {"class_name": "Activation", "config": {"name": "activation_438", "trainable": true, "dtype": "float32", "activation": "relu"}, "name": "activation_438", "inbound_nodes": [[["batch_normalization_452", 0, 0, {}]]]}, {"class_name": "Concatenate", "config": {"name": "block35_6_mixed", "trainable": true, "dtype": "float32", "axis": 3}, "name": "block35_6_mixed", "inbound_nodes": [[["activation_433", 0, 0, {}], ["activation_435", 0, 0, {}], ["activation_438", 0, 0, {}]]]}, {"class_name": "Conv2D", "config": {"name": "block35_6_conv", "trainable": true, "dtype": "float32", "filters": 320, "kernel_size": [1, 1], "strides": [1, 1], "padding": "same", "data_format": "channels_last", "dilation_rate": [1, 1], "activation": "linear", "use_bias": true, "kernel_initializer": {"class_name": "GlorotUniform", "config": {"seed": null}}, "bias_initializer": {"class_name": "Zeros", "config": {}}, "kernel_regularizer": null, "bias_regularizer": null, "activity_regularizer": null, "kernel_constraint": null, "bias_constraint": null}, "name": "block35_6_conv", "inbound_nodes": [[["block35_6_mixed", 0, 0, {}]]]}, {"class_name": "Lambda", "config": {"name": "block35_6", "trainable": true, "dtype": "float32", "function": ["4wIAAAAAAAAAAgAAAAMAAABTAAAAcxQAAAB8AGQBGQB8AGQCGQB8ARQAFwBTACkDTukAAAAA6QEA\nAACpACkC2gZpbnB1dHPaBXNjYWxlcgMAAAByAwAAAPpYL2hvbWUvZmlsZnkvLmxvY2FsL2xpYi9w\neXRob24zLjcvc2l0ZS1wYWNrYWdlcy9rZXJhc19hcHBsaWNhdGlvbnMvaW5jZXB0aW9uX3Jlc25l\ndF92Mi5wedoIPGxhbWJkYT6oAAAA8wAAAAA=\n", null, null], "function_type": "lambda", "module": "keras_applications.inception_resnet_v2", "output_shape": [13, 13, 320], "output_shape_type": "raw", "output_shape_module": null, "arguments": {"scale": 0.17}}, "name": "block35_6", "inbound_nodes": [[["block35_5_ac", 0, 0, {}], ["block35_6_conv", 0, 0, {}]]]}, {"class_name": "Activation", "config": {"name": "block35_6_ac", "trainable": true, "dtype": "float32", "activation": "relu"}, "name": "block35_6_ac", "inbound_nodes": [[["block35_6", 0, 0, {}]]]}, {"class_name": "Conv2D", "config": {"name": "conv2d_442", "trainable": true, "dtype": "float32", "filters": 32, "kernel_size": [1, 1], "strides": [1, 1], "padding": "same", "data_format": "channels_last", "dilation_rate": [1, 1], "activation": "linear", "use_bias": false, "kernel_initializer": {"class_name": "GlorotUniform", "config": {"seed": null}}, "bias_initializer": {"class_name": "Zeros", "config": {}}, "kernel_regularizer": null, "bias_regularizer": null, "activity_regularizer": null, "kernel_constraint": null, "bias_constraint": null}, "name": "conv2d_442", "inbound_nodes": [[["block35_6_ac", 0, 0, {}]]]}, {"class_name": "BatchNormalization", "config": {"name": "batch_normalization_456", "trainable": true, "dtype": "float32", "axis": [3], "momentum": 0.99, "epsilon": 0.001, "center": true, "scale": false, "beta_initializer": {"class_name": "Zeros", "config": {}}, "gamma_initializer": {"class_name": "Ones", "config": {}}, "moving_mean_initializer": {"class_name": "Zeros", "config": {}}, "moving_variance_initializer": {"class_name": "Ones", "config": {}}, "beta_regularizer": null, "gamma_regularizer": null, "beta_constraint": null, "gamma_constraint": null}, "name": "batch_normalization_456", "inbound_nodes": [[["conv2d_442", 0, 0, {}]]]}, {"class_name": "Activation", "config": {"name": "activation_442", "trainable": true, "dtype": "float32", "activation": "relu"}, "name": "activation_442", "inbound_nodes": [[["batch_normalization_456", 0, 0, {}]]]}, {"class_name": "Conv2D", "config": {"name": "conv2d_440", "trainable": true, "dtype": "float32", "filters": 32, "kernel_size": [1, 1], "strides": [1, 1], "padding": "same", "data_format": "channels_last", "dilation_rate": [1, 1], "activation": "linear", "use_bias": false, "kernel_initializer": {"class_name": "GlorotUniform", "config": {"seed": null}}, "bias_initializer": {"class_name": "Zeros", "config": {}}, "kernel_regularizer": null, "bias_regularizer": null, "activity_regularizer": null, "kernel_constraint": null, "bias_constraint": null}, "name": "conv2d_440", "inbound_nodes": [[["block35_6_ac", 0, 0, {}]]]}, {"class_name": "Conv2D", "config": {"name": "conv2d_443", "trainable": true, "dtype": "float32", "filters": 48, "kernel_size": [3, 3], "strides": [1, 1], "padding": "same", "data_format": "channels_last", "dilation_rate": [1, 1], "activation": "linear", "use_bias": false, "kernel_initializer": {"class_name": "GlorotUniform", "config": {"seed": null}}, "bias_initializer": {"class_name": "Zeros", "config": {}}, "kernel_regularizer": null, "bias_regularizer": null, "activity_regularizer": null, "kernel_constraint": null, "bias_constraint": null}, "name": "conv2d_443", "inbound_nodes": [[["activation_442", 0, 0, {}]]]}, {"class_name": "BatchNormalization", "config": {"name": "batch_normalization_454", "trainable": true, "dtype": "float32", "axis": [3], "momentum": 0.99, "epsilon": 0.001, "center": true, "scale": false, "beta_initializer": {"class_name": "Zeros", "config": {}}, "gamma_initializer": {"class_name": "Ones", "config": {}}, "moving_mean_initializer": {"class_name": "Zeros", "config": {}}, "moving_variance_initializer": {"class_name": "Ones", "config": {}}, "beta_regularizer": null, "gamma_regularizer": null, "beta_constraint": null, "gamma_constraint": null}, "name": "batch_normalization_454", "inbound_nodes": [[["conv2d_440", 0, 0, {}]]]}, {"class_name": "BatchNormalization", "config": {"name": "batch_normalization_457", "trainable": true, "dtype": "float32", "axis": [3], "momentum": 0.99, "epsilon": 0.001, "center": true, "scale": false, "beta_initializer": {"class_name": "Zeros", "config": {}}, "gamma_initializer": {"class_name": "Ones", "config": {}}, "moving_mean_initializer": {"class_name": "Zeros", "config": {}}, "moving_variance_initializer": {"class_name": "Ones", "config": {}}, "beta_regularizer": null, "gamma_regularizer": null, "beta_constraint": null, "gamma_constraint": null}, "name": "batch_normalization_457", "inbound_nodes": [[["conv2d_443", 0, 0, {}]]]}, {"class_name": "Activation", "config": {"name": "activation_440", "trainable": true, "dtype": "float32", "activation": "relu"}, "name": "activation_440", "inbound_nodes": [[["batch_normalization_454", 0, 0, {}]]]}, {"class_name": "Activation", "config": {"name": "activation_443", "trainable": true, "dtype": "float32", "activation": "relu"}, "name": "activation_443", "inbound_nodes": [[["batch_normalization_457", 0, 0, {}]]]}, {"class_name": "Conv2D", "config": {"name": "conv2d_439", "trainable": true, "dtype": "float32", "filters": 32, "kernel_size": [1, 1], "strides": [1, 1], "padding": "same", "data_format": "channels_last", "dilation_rate": [1, 1], "activation": "linear", "use_bias": false, "kernel_initializer": {"class_name": "GlorotUniform", "config": {"seed": null}}, "bias_initializer": {"class_name": "Zeros", "config": {}}, "kernel_regularizer": null, "bias_regularizer": null, "activity_regularizer": null, "kernel_constraint": null, "bias_constraint": null}, "name": "conv2d_439", "inbound_nodes": [[["block35_6_ac", 0, 0, {}]]]}, {"class_name": "Conv2D", "config": {"name": "conv2d_441", "trainable": true, "dtype": "float32", "filters": 32, "kernel_size": [3, 3], "strides": [1, 1], "padding": "same", "data_format": "channels_last", "dilation_rate": [1, 1], "activation": "linear", "use_bias": false, "kernel_initializer": {"class_name": "GlorotUniform", "config": {"seed": null}}, "bias_initializer": {"class_name": "Zeros", "config": {}}, "kernel_regularizer": null, "bias_regularizer": null, "activity_regularizer": null, "kernel_constraint": null, "bias_constraint": null}, "name": "conv2d_441", "inbound_nodes": [[["activation_440", 0, 0, {}]]]}, {"class_name": "Conv2D", "config": {"name": "conv2d_444", "trainable": true, "dtype": "float32", "filters": 64, "kernel_size": [3, 3], "strides": [1, 1], "padding": "same", "data_format": "channels_last", "dilation_rate": [1, 1], "activation": "linear", "use_bias": false, "kernel_initializer": {"class_name": "GlorotUniform", "config": {"seed": null}}, "bias_initializer": {"class_name": "Zeros", "config": {}}, "kernel_regularizer": null, "bias_regularizer": null, "activity_regularizer": null, "kernel_constraint": null, "bias_constraint": null}, "name": "conv2d_444", "inbound_nodes": [[["activation_443", 0, 0, {}]]]}, {"class_name": "BatchNormalization", "config": {"name": "batch_normalization_453", "trainable": true, "dtype": "float32", "axis": [3], "momentum": 0.99, "epsilon": 0.001, "center": true, "scale": false, "beta_initializer": {"class_name": "Zeros", "config": {}}, "gamma_initializer": {"class_name": "Ones", "config": {}}, "moving_mean_initializer": {"class_name": "Zeros", "config": {}}, "moving_variance_initializer": {"class_name": "Ones", "config": {}}, "beta_regularizer": null, "gamma_regularizer": null, "beta_constraint": null, "gamma_constraint": null}, "name": "batch_normalization_453", "inbound_nodes": [[["conv2d_439", 0, 0, {}]]]}, {"class_name": "BatchNormalization", "config": {"name": "batch_normalization_455", "trainable": true, "dtype": "float32", "axis": [3], "momentum": 0.99, "epsilon": 0.001, "center": true, "scale": false, "beta_initializer": {"class_name": "Zeros", "config": {}}, "gamma_initializer": {"class_name": "Ones", "config": {}}, "moving_mean_initializer": {"class_name": "Zeros", "config": {}}, "moving_variance_initializer": {"class_name": "Ones", "config": {}}, "beta_regularizer": null, "gamma_regularizer": null, "beta_constraint": null, "gamma_constraint": null}, "name": "batch_normalization_455", "inbound_nodes": [[["conv2d_441", 0, 0, {}]]]}, {"class_name": "BatchNormalization", "config": {"name": "batch_normalization_458", "trainable": true, "dtype": "float32", "axis": [3], "momentum": 0.99, "epsilon": 0.001, "center": true, "scale": false, "beta_initializer": {"class_name": "Zeros", "config": {}}, "gamma_initializer": {"class_name": "Ones", "config": {}}, "moving_mean_initializer": {"class_name": "Zeros", "config": {}}, "moving_variance_initializer": {"class_name": "Ones", "config": {}}, "beta_regularizer": null, "gamma_regularizer": null, "beta_constraint": null, "gamma_constraint": null}, "name": "batch_normalization_458", "inbound_nodes": [[["conv2d_444", 0, 0, {}]]]}, {"class_name": "Activation", "config": {"name": "activation_439", "trainable": true, "dtype": "float32", "activation": "relu"}, "name": "activation_439", "inbound_nodes": [[["batch_normalization_453", 0, 0, {}]]]}, {"class_name": "Activation", "config": {"name": "activation_441", "trainable": true, "dtype": "float32", "activation": "relu"}, "name": "activation_441", "inbound_nodes": [[["batch_normalization_455", 0, 0, {}]]]}, {"class_name": "Activation", "config": {"name": "activation_444", "trainable": true, "dtype": "float32", "activation": "relu"}, "name": "activation_444", "inbound_nodes": [[["batch_normalization_458", 0, 0, {}]]]}, {"class_name": "Concatenate", "config": {"name": "block35_7_mixed", "trainable": true, "dtype": "float32", "axis": 3}, "name": "block35_7_mixed", "inbound_nodes": [[["activation_439", 0, 0, {}], ["activation_441", 0, 0, {}], ["activation_444", 0, 0, {}]]]}, {"class_name": "Conv2D", "config": {"name": "block35_7_conv", "trainable": true, "dtype": "float32", "filters": 320, "kernel_size": [1, 1], "strides": [1, 1], "padding": "same", "data_format": "channels_last", "dilation_rate": [1, 1], "activation": "linear", "use_bias": true, "kernel_initializer": {"class_name": "GlorotUniform", "config": {"seed": null}}, "bias_initializer": {"class_name": "Zeros", "config": {}}, "kernel_regularizer": null, "bias_regularizer": null, "activity_regularizer": null, "kernel_constraint": null, "bias_constraint": null}, "name": "block35_7_conv", "inbound_nodes": [[["block35_7_mixed", 0, 0, {}]]]}, {"class_name": "Lambda", "config": {"name": "block35_7", "trainable": true, "dtype": "float32", "function": ["4wIAAAAAAAAAAgAAAAMAAABTAAAAcxQAAAB8AGQBGQB8AGQCGQB8ARQAFwBTACkDTukAAAAA6QEA\nAACpACkC2gZpbnB1dHPaBXNjYWxlcgMAAAByAwAAAPpYL2hvbWUvZmlsZnkvLmxvY2FsL2xpYi9w\neXRob24zLjcvc2l0ZS1wYWNrYWdlcy9rZXJhc19hcHBsaWNhdGlvbnMvaW5jZXB0aW9uX3Jlc25l\ndF92Mi5wedoIPGxhbWJkYT6oAAAA8wAAAAA=\n", null, null], "function_type": "lambda", "module": "keras_applications.inception_resnet_v2", "output_shape": [13, 13, 320], "output_shape_type": "raw", "output_shape_module": null, "arguments": {"scale": 0.17}}, "name": "block35_7", "inbound_nodes": [[["block35_6_ac", 0, 0, {}], ["block35_7_conv", 0, 0, {}]]]}, {"class_name": "Activation", "config": {"name": "block35_7_ac", "trainable": true, "dtype": "float32", "activation": "relu"}, "name": "block35_7_ac", "inbound_nodes": [[["block35_7", 0, 0, {}]]]}, {"class_name": "Conv2D", "config": {"name": "conv2d_448", "trainable": true, "dtype": "float32", "filters": 32, "kernel_size": [1, 1], "strides": [1, 1], "padding": "same", "data_format": "channels_last", "dilation_rate": [1, 1], "activation": "linear", "use_bias": false, "kernel_initializer": {"class_name": "GlorotUniform", "config": {"seed": null}}, "bias_initializer": {"class_name": "Zeros", "config": {}}, "kernel_regularizer": null, "bias_regularizer": null, "activity_regularizer": null, "kernel_constraint": null, "bias_constraint": null}, "name": "conv2d_448", "inbound_nodes": [[["block35_7_ac", 0, 0, {}]]]}, {"class_name": "BatchNormalization", "config": {"name": "batch_normalization_462", "trainable": true, "dtype": "float32", "axis": [3], "momentum": 0.99, "epsilon": 0.001, "center": true, "scale": false, "beta_initializer": {"class_name": "Zeros", "config": {}}, "gamma_initializer": {"class_name": "Ones", "config": {}}, "moving_mean_initializer": {"class_name": "Zeros", "config": {}}, "moving_variance_initializer": {"class_name": "Ones", "config": {}}, "beta_regularizer": null, "gamma_regularizer": null, "beta_constraint": null, "gamma_constraint": null}, "name": "batch_normalization_462", "inbound_nodes": [[["conv2d_448", 0, 0, {}]]]}, {"class_name": "Activation", "config": {"name": "activation_448", "trainable": true, "dtype": "float32", "activation": "relu"}, "name": "activation_448", "inbound_nodes": [[["batch_normalization_462", 0, 0, {}]]]}, {"class_name": "Conv2D", "config": {"name": "conv2d_446", "trainable": true, "dtype": "float32", "filters": 32, "kernel_size": [1, 1], "strides": [1, 1], "padding": "same", "data_format": "channels_last", "dilation_rate": [1, 1], "activation": "linear", "use_bias": false, "kernel_initializer": {"class_name": "GlorotUniform", "config": {"seed": null}}, "bias_initializer": {"class_name": "Zeros", "config": {}}, "kernel_regularizer": null, "bias_regularizer": null, "activity_regularizer": null, "kernel_constraint": null, "bias_constraint": null}, "name": "conv2d_446", "inbound_nodes": [[["block35_7_ac", 0, 0, {}]]]}, {"class_name": "Conv2D", "config": {"name": "conv2d_449", "trainable": true, "dtype": "float32", "filters": 48, "kernel_size": [3, 3], "strides": [1, 1], "padding": "same", "data_format": "channels_last", "dilation_rate": [1, 1], "activation": "linear", "use_bias": false, "kernel_initializer": {"class_name": "GlorotUniform", "config": {"seed": null}}, "bias_initializer": {"class_name": "Zeros", "config": {}}, "kernel_regularizer": null, "bias_regularizer": null, "activity_regularizer": null, "kernel_constraint": null, "bias_constraint": null}, "name": "conv2d_449", "inbound_nodes": [[["activation_448", 0, 0, {}]]]}, {"class_name": "BatchNormalization", "config": {"name": "batch_normalization_460", "trainable": true, "dtype": "float32", "axis": [3], "momentum": 0.99, "epsilon": 0.001, "center": true, "scale": false, "beta_initializer": {"class_name": "Zeros", "config": {}}, "gamma_initializer": {"class_name": "Ones", "config": {}}, "moving_mean_initializer": {"class_name": "Zeros", "config": {}}, "moving_variance_initializer": {"class_name": "Ones", "config": {}}, "beta_regularizer": null, "gamma_regularizer": null, "beta_constraint": null, "gamma_constraint": null}, "name": "batch_normalization_460", "inbound_nodes": [[["conv2d_446", 0, 0, {}]]]}, {"class_name": "BatchNormalization", "config": {"name": "batch_normalization_463", "trainable": true, "dtype": "float32", "axis": [3], "momentum": 0.99, "epsilon": 0.001, "center": true, "scale": false, "beta_initializer": {"class_name": "Zeros", "config": {}}, "gamma_initializer": {"class_name": "Ones", "config": {}}, "moving_mean_initializer": {"class_name": "Zeros", "config": {}}, "moving_variance_initializer": {"class_name": "Ones", "config": {}}, "beta_regularizer": null, "gamma_regularizer": null, "beta_constraint": null, "gamma_constraint": null}, "name": "batch_normalization_463", "inbound_nodes": [[["conv2d_449", 0, 0, {}]]]}, {"class_name": "Activation", "config": {"name": "activation_446", "trainable": true, "dtype": "float32", "activation": "relu"}, "name": "activation_446", "inbound_nodes": [[["batch_normalization_460", 0, 0, {}]]]}, {"class_name": "Activation", "config": {"name": "activation_449", "trainable": true, "dtype": "float32", "activation": "relu"}, "name": "activation_449", "inbound_nodes": [[["batch_normalization_463", 0, 0, {}]]]}, {"class_name": "Conv2D", "config": {"name": "conv2d_445", "trainable": true, "dtype": "float32", "filters": 32, "kernel_size": [1, 1], "strides": [1, 1], "padding": "same", "data_format": "channels_last", "dilation_rate": [1, 1], "activation": "linear", "use_bias": false, "kernel_initializer": {"class_name": "GlorotUniform", "config": {"seed": null}}, "bias_initializer": {"class_name": "Zeros", "config": {}}, "kernel_regularizer": null, "bias_regularizer": null, "activity_regularizer": null, "kernel_constraint": null, "bias_constraint": null}, "name": "conv2d_445", "inbound_nodes": [[["block35_7_ac", 0, 0, {}]]]}, {"class_name": "Conv2D", "config": {"name": "conv2d_447", "trainable": true, "dtype": "float32", "filters": 32, "kernel_size": [3, 3], "strides": [1, 1], "padding": "same", "data_format": "channels_last", "dilation_rate": [1, 1], "activation": "linear", "use_bias": false, "kernel_initializer": {"class_name": "GlorotUniform", "config": {"seed": null}}, "bias_initializer": {"class_name": "Zeros", "config": {}}, "kernel_regularizer": null, "bias_regularizer": null, "activity_regularizer": null, "kernel_constraint": null, "bias_constraint": null}, "name": "conv2d_447", "inbound_nodes": [[["activation_446", 0, 0, {}]]]}, {"class_name": "Conv2D", "config": {"name": "conv2d_450", "trainable": true, "dtype": "float32", "filters": 64, "kernel_size": [3, 3], "strides": [1, 1], "padding": "same", "data_format": "channels_last", "dilation_rate": [1, 1], "activation": "linear", "use_bias": false, "kernel_initializer": {"class_name": "GlorotUniform", "config": {"seed": null}}, "bias_initializer": {"class_name": "Zeros", "config": {}}, "kernel_regularizer": null, "bias_regularizer": null, "activity_regularizer": null, "kernel_constraint": null, "bias_constraint": null}, "name": "conv2d_450", "inbound_nodes": [[["activation_449", 0, 0, {}]]]}, {"class_name": "BatchNormalization", "config": {"name": "batch_normalization_459", "trainable": true, "dtype": "float32", "axis": [3], "momentum": 0.99, "epsilon": 0.001, "center": true, "scale": false, "beta_initializer": {"class_name": "Zeros", "config": {}}, "gamma_initializer": {"class_name": "Ones", "config": {}}, "moving_mean_initializer": {"class_name": "Zeros", "config": {}}, "moving_variance_initializer": {"class_name": "Ones", "config": {}}, "beta_regularizer": null, "gamma_regularizer": null, "beta_constraint": null, "gamma_constraint": null}, "name": "batch_normalization_459", "inbound_nodes": [[["conv2d_445", 0, 0, {}]]]}, {"class_name": "BatchNormalization", "config": {"name": "batch_normalization_461", "trainable": true, "dtype": "float32", "axis": [3], "momentum": 0.99, "epsilon": 0.001, "center": true, "scale": false, "beta_initializer": {"class_name": "Zeros", "config": {}}, "gamma_initializer": {"class_name": "Ones", "config": {}}, "moving_mean_initializer": {"class_name": "Zeros", "config": {}}, "moving_variance_initializer": {"class_name": "Ones", "config": {}}, "beta_regularizer": null, "gamma_regularizer": null, "beta_constraint": null, "gamma_constraint": null}, "name": "batch_normalization_461", "inbound_nodes": [[["conv2d_447", 0, 0, {}]]]}, {"class_name": "BatchNormalization", "config": {"name": "batch_normalization_464", "trainable": true, "dtype": "float32", "axis": [3], "momentum": 0.99, "epsilon": 0.001, "center": true, "scale": false, "beta_initializer": {"class_name": "Zeros", "config": {}}, "gamma_initializer": {"class_name": "Ones", "config": {}}, "moving_mean_initializer": {"class_name": "Zeros", "config": {}}, "moving_variance_initializer": {"class_name": "Ones", "config": {}}, "beta_regularizer": null, "gamma_regularizer": null, "beta_constraint": null, "gamma_constraint": null}, "name": "batch_normalization_464", "inbound_nodes": [[["conv2d_450", 0, 0, {}]]]}, {"class_name": "Activation", "config": {"name": "activation_445", "trainable": true, "dtype": "float32", "activation": "relu"}, "name": "activation_445", "inbound_nodes": [[["batch_normalization_459", 0, 0, {}]]]}, {"class_name": "Activation", "config": {"name": "activation_447", "trainable": true, "dtype": "float32", "activation": "relu"}, "name": "activation_447", "inbound_nodes": [[["batch_normalization_461", 0, 0, {}]]]}, {"class_name": "Activation", "config": {"name": "activation_450", "trainable": true, "dtype": "float32", "activation": "relu"}, "name": "activation_450", "inbound_nodes": [[["batch_normalization_464", 0, 0, {}]]]}, {"class_name": "Concatenate", "config": {"name": "block35_8_mixed", "trainable": true, "dtype": "float32", "axis": 3}, "name": "block35_8_mixed", "inbound_nodes": [[["activation_445", 0, 0, {}], ["activation_447", 0, 0, {}], ["activation_450", 0, 0, {}]]]}, {"class_name": "Conv2D", "config": {"name": "block35_8_conv", "trainable": true, "dtype": "float32", "filters": 320, "kernel_size": [1, 1], "strides": [1, 1], "padding": "same", "data_format": "channels_last", "dilation_rate": [1, 1], "activation": "linear", "use_bias": true, "kernel_initializer": {"class_name": "GlorotUniform", "config": {"seed": null}}, "bias_initializer": {"class_name": "Zeros", "config": {}}, "kernel_regularizer": null, "bias_regularizer": null, "activity_regularizer": null, "kernel_constraint": null, "bias_constraint": null}, "name": "block35_8_conv", "inbound_nodes": [[["block35_8_mixed", 0, 0, {}]]]}, {"class_name": "Lambda", "config": {"name": "block35_8", "trainable": true, "dtype": "float32", "function": ["4wIAAAAAAAAAAgAAAAMAAABTAAAAcxQAAAB8AGQBGQB8AGQCGQB8ARQAFwBTACkDTukAAAAA6QEA\nAACpACkC2gZpbnB1dHPaBXNjYWxlcgMAAAByAwAAAPpYL2hvbWUvZmlsZnkvLmxvY2FsL2xpYi9w\neXRob24zLjcvc2l0ZS1wYWNrYWdlcy9rZXJhc19hcHBsaWNhdGlvbnMvaW5jZXB0aW9uX3Jlc25l\ndF92Mi5wedoIPGxhbWJkYT6oAAAA8wAAAAA=\n", null, null], "function_type": "lambda", "module": "keras_applications.inception_resnet_v2", "output_shape": [13, 13, 320], "output_shape_type": "raw", "output_shape_module": null, "arguments": {"scale": 0.17}}, "name": "block35_8", "inbound_nodes": [[["block35_7_ac", 0, 0, {}], ["block35_8_conv", 0, 0, {}]]]}, {"class_name": "Activation", "config": {"name": "block35_8_ac", "trainable": true, "dtype": "float32", "activation": "relu"}, "name": "block35_8_ac", "inbound_nodes": [[["block35_8", 0, 0, {}]]]}, {"class_name": "Conv2D", "config": {"name": "conv2d_454", "trainable": true, "dtype": "float32", "filters": 32, "kernel_size": [1, 1], "strides": [1, 1], "padding": "same", "data_format": "channels_last", "dilation_rate": [1, 1], "activation": "linear", "use_bias": false, "kernel_initializer": {"class_name": "GlorotUniform", "config": {"seed": null}}, "bias_initializer": {"class_name": "Zeros", "config": {}}, "kernel_regularizer": null, "bias_regularizer": null, "activity_regularizer": null, "kernel_constraint": null, "bias_constraint": null}, "name": "conv2d_454", "inbound_nodes": [[["block35_8_ac", 0, 0, {}]]]}, {"class_name": "BatchNormalization", "config": {"name": "batch_normalization_468", "trainable": true, "dtype": "float32", "axis": [3], "momentum": 0.99, "epsilon": 0.001, "center": true, "scale": false, "beta_initializer": {"class_name": "Zeros", "config": {}}, "gamma_initializer": {"class_name": "Ones", "config": {}}, "moving_mean_initializer": {"class_name": "Zeros", "config": {}}, "moving_variance_initializer": {"class_name": "Ones", "config": {}}, "beta_regularizer": null, "gamma_regularizer": null, "beta_constraint": null, "gamma_constraint": null}, "name": "batch_normalization_468", "inbound_nodes": [[["conv2d_454", 0, 0, {}]]]}, {"class_name": "Activation", "config": {"name": "activation_454", "trainable": true, "dtype": "float32", "activation": "relu"}, "name": "activation_454", "inbound_nodes": [[["batch_normalization_468", 0, 0, {}]]]}, {"class_name": "Conv2D", "config": {"name": "conv2d_452", "trainable": true, "dtype": "float32", "filters": 32, "kernel_size": [1, 1], "strides": [1, 1], "padding": "same", "data_format": "channels_last", "dilation_rate": [1, 1], "activation": "linear", "use_bias": false, "kernel_initializer": {"class_name": "GlorotUniform", "config": {"seed": null}}, "bias_initializer": {"class_name": "Zeros", "config": {}}, "kernel_regularizer": null, "bias_regularizer": null, "activity_regularizer": null, "kernel_constraint": null, "bias_constraint": null}, "name": "conv2d_452", "inbound_nodes": [[["block35_8_ac", 0, 0, {}]]]}, {"class_name": "Conv2D", "config": {"name": "conv2d_455", "trainable": true, "dtype": "float32", "filters": 48, "kernel_size": [3, 3], "strides": [1, 1], "padding": "same", "data_format": "channels_last", "dilation_rate": [1, 1], "activation": "linear", "use_bias": false, "kernel_initializer": {"class_name": "GlorotUniform", "config": {"seed": null}}, "bias_initializer": {"class_name": "Zeros", "config": {}}, "kernel_regularizer": null, "bias_regularizer": null, "activity_regularizer": null, "kernel_constraint": null, "bias_constraint": null}, "name": "conv2d_455", "inbound_nodes": [[["activation_454", 0, 0, {}]]]}, {"class_name": "BatchNormalization", "config": {"name": "batch_normalization_466", "trainable": true, "dtype": "float32", "axis": [3], "momentum": 0.99, "epsilon": 0.001, "center": true, "scale": false, "beta_initializer": {"class_name": "Zeros", "config": {}}, "gamma_initializer": {"class_name": "Ones", "config": {}}, "moving_mean_initializer": {"class_name": "Zeros", "config": {}}, "moving_variance_initializer": {"class_name": "Ones", "config": {}}, "beta_regularizer": null, "gamma_regularizer": null, "beta_constraint": null, "gamma_constraint": null}, "name": "batch_normalization_466", "inbound_nodes": [[["conv2d_452", 0, 0, {}]]]}, {"class_name": "BatchNormalization", "config": {"name": "batch_normalization_469", "trainable": true, "dtype": "float32", "axis": [3], "momentum": 0.99, "epsilon": 0.001, "center": true, "scale": false, "beta_initializer": {"class_name": "Zeros", "config": {}}, "gamma_initializer": {"class_name": "Ones", "config": {}}, "moving_mean_initializer": {"class_name": "Zeros", "config": {}}, "moving_variance_initializer": {"class_name": "Ones", "config": {}}, "beta_regularizer": null, "gamma_regularizer": null, "beta_constraint": null, "gamma_constraint": null}, "name": "batch_normalization_469", "inbound_nodes": [[["conv2d_455", 0, 0, {}]]]}, {"class_name": "Activation", "config": {"name": "activation_452", "trainable": true, "dtype": "float32", "activation": "relu"}, "name": "activation_452", "inbound_nodes": [[["batch_normalization_466", 0, 0, {}]]]}, {"class_name": "Activation", "config": {"name": "activation_455", "trainable": true, "dtype": "float32", "activation": "relu"}, "name": "activation_455", "inbound_nodes": [[["batch_normalization_469", 0, 0, {}]]]}, {"class_name": "Conv2D", "config": {"name": "conv2d_451", "trainable": true, "dtype": "float32", "filters": 32, "kernel_size": [1, 1], "strides": [1, 1], "padding": "same", "data_format": "channels_last", "dilation_rate": [1, 1], "activation": "linear", "use_bias": false, "kernel_initializer": {"class_name": "GlorotUniform", "config": {"seed": null}}, "bias_initializer": {"class_name": "Zeros", "config": {}}, "kernel_regularizer": null, "bias_regularizer": null, "activity_regularizer": null, "kernel_constraint": null, "bias_constraint": null}, "name": "conv2d_451", "inbound_nodes": [[["block35_8_ac", 0, 0, {}]]]}, {"class_name": "Conv2D", "config": {"name": "conv2d_453", "trainable": true, "dtype": "float32", "filters": 32, "kernel_size": [3, 3], "strides": [1, 1], "padding": "same", "data_format": "channels_last", "dilation_rate": [1, 1], "activation": "linear", "use_bias": false, "kernel_initializer": {"class_name": "GlorotUniform", "config": {"seed": null}}, "bias_initializer": {"class_name": "Zeros", "config": {}}, "kernel_regularizer": null, "bias_regularizer": null, "activity_regularizer": null, "kernel_constraint": null, "bias_constraint": null}, "name": "conv2d_453", "inbound_nodes": [[["activation_452", 0, 0, {}]]]}, {"class_name": "Conv2D", "config": {"name": "conv2d_456", "trainable": true, "dtype": "float32", "filters": 64, "kernel_size": [3, 3], "strides": [1, 1], "padding": "same", "data_format": "channels_last", "dilation_rate": [1, 1], "activation": "linear", "use_bias": false, "kernel_initializer": {"class_name": "GlorotUniform", "config": {"seed": null}}, "bias_initializer": {"class_name": "Zeros", "config": {}}, "kernel_regularizer": null, "bias_regularizer": null, "activity_regularizer": null, "kernel_constraint": null, "bias_constraint": null}, "name": "conv2d_456", "inbound_nodes": [[["activation_455", 0, 0, {}]]]}, {"class_name": "BatchNormalization", "config": {"name": "batch_normalization_465", "trainable": true, "dtype": "float32", "axis": [3], "momentum": 0.99, "epsilon": 0.001, "center": true, "scale": false, "beta_initializer": {"class_name": "Zeros", "config": {}}, "gamma_initializer": {"class_name": "Ones", "config": {}}, "moving_mean_initializer": {"class_name": "Zeros", "config": {}}, "moving_variance_initializer": {"class_name": "Ones", "config": {}}, "beta_regularizer": null, "gamma_regularizer": null, "beta_constraint": null, "gamma_constraint": null}, "name": "batch_normalization_465", "inbound_nodes": [[["conv2d_451", 0, 0, {}]]]}, {"class_name": "BatchNormalization", "config": {"name": "batch_normalization_467", "trainable": true, "dtype": "float32", "axis": [3], "momentum": 0.99, "epsilon": 0.001, "center": true, "scale": false, "beta_initializer": {"class_name": "Zeros", "config": {}}, "gamma_initializer": {"class_name": "Ones", "config": {}}, "moving_mean_initializer": {"class_name": "Zeros", "config": {}}, "moving_variance_initializer": {"class_name": "Ones", "config": {}}, "beta_regularizer": null, "gamma_regularizer": null, "beta_constraint": null, "gamma_constraint": null}, "name": "batch_normalization_467", "inbound_nodes": [[["conv2d_453", 0, 0, {}]]]}, {"class_name": "BatchNormalization", "config": {"name": "batch_normalization_470", "trainable": true, "dtype": "float32", "axis": [3], "momentum": 0.99, "epsilon": 0.001, "center": true, "scale": false, "beta_initializer": {"class_name": "Zeros", "config": {}}, "gamma_initializer": {"class_name": "Ones", "config": {}}, "moving_mean_initializer": {"class_name": "Zeros", "config": {}}, "moving_variance_initializer": {"class_name": "Ones", "config": {}}, "beta_regularizer": null, "gamma_regularizer": null, "beta_constraint": null, "gamma_constraint": null}, "name": "batch_normalization_470", "inbound_nodes": [[["conv2d_456", 0, 0, {}]]]}, {"class_name": "Activation", "config": {"name": "activation_451", "trainable": true, "dtype": "float32", "activation": "relu"}, "name": "activation_451", "inbound_nodes": [[["batch_normalization_465", 0, 0, {}]]]}, {"class_name": "Activation", "config": {"name": "activation_453", "trainable": true, "dtype": "float32", "activation": "relu"}, "name": "activation_453", "inbound_nodes": [[["batch_normalization_467", 0, 0, {}]]]}, {"class_name": "Activation", "config": {"name": "activation_456", "trainable": true, "dtype": "float32", "activation": "relu"}, "name": "activation_456", "inbound_nodes": [[["batch_normalization_470", 0, 0, {}]]]}, {"class_name": "Concatenate", "config": {"name": "block35_9_mixed", "trainable": true, "dtype": "float32", "axis": 3}, "name": "block35_9_mixed", "inbound_nodes": [[["activation_451", 0, 0, {}], ["activation_453", 0, 0, {}], ["activation_456", 0, 0, {}]]]}, {"class_name": "Conv2D", "config": {"name": "block35_9_conv", "trainable": true, "dtype": "float32", "filters": 320, "kernel_size": [1, 1], "strides": [1, 1], "padding": "same", "data_format": "channels_last", "dilation_rate": [1, 1], "activation": "linear", "use_bias": true, "kernel_initializer": {"class_name": "GlorotUniform", "config": {"seed": null}}, "bias_initializer": {"class_name": "Zeros", "config": {}}, "kernel_regularizer": null, "bias_regularizer": null, "activity_regularizer": null, "kernel_constraint": null, "bias_constraint": null}, "name": "block35_9_conv", "inbound_nodes": [[["block35_9_mixed", 0, 0, {}]]]}, {"class_name": "Lambda", "config": {"name": "block35_9", "trainable": true, "dtype": "float32", "function": ["4wIAAAAAAAAAAgAAAAMAAABTAAAAcxQAAAB8AGQBGQB8AGQCGQB8ARQAFwBTACkDTukAAAAA6QEA\nAACpACkC2gZpbnB1dHPaBXNjYWxlcgMAAAByAwAAAPpYL2hvbWUvZmlsZnkvLmxvY2FsL2xpYi9w\neXRob24zLjcvc2l0ZS1wYWNrYWdlcy9rZXJhc19hcHBsaWNhdGlvbnMvaW5jZXB0aW9uX3Jlc25l\ndF92Mi5wedoIPGxhbWJkYT6oAAAA8wAAAAA=\n", null, null], "function_type": "lambda", "module": "keras_applications.inception_resnet_v2", "output_shape": [13, 13, 320], "output_shape_type": "raw", "output_shape_module": null, "arguments": {"scale": 0.17}}, "name": "block35_9", "inbound_nodes": [[["block35_8_ac", 0, 0, {}], ["block35_9_conv", 0, 0, {}]]]}, {"class_name": "Activation", "config": {"name": "block35_9_ac", "trainable": true, "dtype": "float32", "activation": "relu"}, "name": "block35_9_ac", "inbound_nodes": [[["block35_9", 0, 0, {}]]]}, {"class_name": "Conv2D", "config": {"name": "conv2d_460", "trainable": true, "dtype": "float32", "filters": 32, "kernel_size": [1, 1], "strides": [1, 1], "padding": "same", "data_format": "channels_last", "dilation_rate": [1, 1], "activation": "linear", "use_bias": false, "kernel_initializer": {"class_name": "GlorotUniform", "config": {"seed": null}}, "bias_initializer": {"class_name": "Zeros", "config": {}}, "kernel_regularizer": null, "bias_regularizer": null, "activity_regularizer": null, "kernel_constraint": null, "bias_constraint": null}, "name": "conv2d_460", "inbound_nodes": [[["block35_9_ac", 0, 0, {}]]]}, {"class_name": "BatchNormalization", "config": {"name": "batch_normalization_474", "trainable": true, "dtype": "float32", "axis": [3], "momentum": 0.99, "epsilon": 0.001, "center": true, "scale": false, "beta_initializer": {"class_name": "Zeros", "config": {}}, "gamma_initializer": {"class_name": "Ones", "config": {}}, "moving_mean_initializer": {"class_name": "Zeros", "config": {}}, "moving_variance_initializer": {"class_name": "Ones", "config": {}}, "beta_regularizer": null, "gamma_regularizer": null, "beta_constraint": null, "gamma_constraint": null}, "name": "batch_normalization_474", "inbound_nodes": [[["conv2d_460", 0, 0, {}]]]}, {"class_name": "Activation", "config": {"name": "activation_460", "trainable": true, "dtype": "float32", "activation": "relu"}, "name": "activation_460", "inbound_nodes": [[["batch_normalization_474", 0, 0, {}]]]}, {"class_name": "Conv2D", "config": {"name": "conv2d_458", "trainable": true, "dtype": "float32", "filters": 32, "kernel_size": [1, 1], "strides": [1, 1], "padding": "same", "data_format": "channels_last", "dilation_rate": [1, 1], "activation": "linear", "use_bias": false, "kernel_initializer": {"class_name": "GlorotUniform", "config": {"seed": null}}, "bias_initializer": {"class_name": "Zeros", "config": {}}, "kernel_regularizer": null, "bias_regularizer": null, "activity_regularizer": null, "kernel_constraint": null, "bias_constraint": null}, "name": "conv2d_458", "inbound_nodes": [[["block35_9_ac", 0, 0, {}]]]}, {"class_name": "Conv2D", "config": {"name": "conv2d_461", "trainable": true, "dtype": "float32", "filters": 48, "kernel_size": [3, 3], "strides": [1, 1], "padding": "same", "data_format": "channels_last", "dilation_rate": [1, 1], "activation": "linear", "use_bias": false, "kernel_initializer": {"class_name": "GlorotUniform", "config": {"seed": null}}, "bias_initializer": {"class_name": "Zeros", "config": {}}, "kernel_regularizer": null, "bias_regularizer": null, "activity_regularizer": null, "kernel_constraint": null, "bias_constraint": null}, "name": "conv2d_461", "inbound_nodes": [[["activation_460", 0, 0, {}]]]}, {"class_name": "BatchNormalization", "config": {"name": "batch_normalization_472", "trainable": true, "dtype": "float32", "axis": [3], "momentum": 0.99, "epsilon": 0.001, "center": true, "scale": false, "beta_initializer": {"class_name": "Zeros", "config": {}}, "gamma_initializer": {"class_name": "Ones", "config": {}}, "moving_mean_initializer": {"class_name": "Zeros", "config": {}}, "moving_variance_initializer": {"class_name": "Ones", "config": {}}, "beta_regularizer": null, "gamma_regularizer": null, "beta_constraint": null, "gamma_constraint": null}, "name": "batch_normalization_472", "inbound_nodes": [[["conv2d_458", 0, 0, {}]]]}, {"class_name": "BatchNormalization", "config": {"name": "batch_normalization_475", "trainable": true, "dtype": "float32", "axis": [3], "momentum": 0.99, "epsilon": 0.001, "center": true, "scale": false, "beta_initializer": {"class_name": "Zeros", "config": {}}, "gamma_initializer": {"class_name": "Ones", "config": {}}, "moving_mean_initializer": {"class_name": "Zeros", "config": {}}, "moving_variance_initializer": {"class_name": "Ones", "config": {}}, "beta_regularizer": null, "gamma_regularizer": null, "beta_constraint": null, "gamma_constraint": null}, "name": "batch_normalization_475", "inbound_nodes": [[["conv2d_461", 0, 0, {}]]]}, {"class_name": "Activation", "config": {"name": "activation_458", "trainable": true, "dtype": "float32", "activation": "relu"}, "name": "activation_458", "inbound_nodes": [[["batch_normalization_472", 0, 0, {}]]]}, {"class_name": "Activation", "config": {"name": "activation_461", "trainable": true, "dtype": "float32", "activation": "relu"}, "name": "activation_461", "inbound_nodes": [[["batch_normalization_475", 0, 0, {}]]]}, {"class_name": "Conv2D", "config": {"name": "conv2d_457", "trainable": true, "dtype": "float32", "filters": 32, "kernel_size": [1, 1], "strides": [1, 1], "padding": "same", "data_format": "channels_last", "dilation_rate": [1, 1], "activation": "linear", "use_bias": false, "kernel_initializer": {"class_name": "GlorotUniform", "config": {"seed": null}}, "bias_initializer": {"class_name": "Zeros", "config": {}}, "kernel_regularizer": null, "bias_regularizer": null, "activity_regularizer": null, "kernel_constraint": null, "bias_constraint": null}, "name": "conv2d_457", "inbound_nodes": [[["block35_9_ac", 0, 0, {}]]]}, {"class_name": "Conv2D", "config": {"name": "conv2d_459", "trainable": true, "dtype": "float32", "filters": 32, "kernel_size": [3, 3], "strides": [1, 1], "padding": "same", "data_format": "channels_last", "dilation_rate": [1, 1], "activation": "linear", "use_bias": false, "kernel_initializer": {"class_name": "GlorotUniform", "config": {"seed": null}}, "bias_initializer": {"class_name": "Zeros", "config": {}}, "kernel_regularizer": null, "bias_regularizer": null, "activity_regularizer": null, "kernel_constraint": null, "bias_constraint": null}, "name": "conv2d_459", "inbound_nodes": [[["activation_458", 0, 0, {}]]]}, {"class_name": "Conv2D", "config": {"name": "conv2d_462", "trainable": true, "dtype": "float32", "filters": 64, "kernel_size": [3, 3], "strides": [1, 1], "padding": "same", "data_format": "channels_last", "dilation_rate": [1, 1], "activation": "linear", "use_bias": false, "kernel_initializer": {"class_name": "GlorotUniform", "config": {"seed": null}}, "bias_initializer": {"class_name": "Zeros", "config": {}}, "kernel_regularizer": null, "bias_regularizer": null, "activity_regularizer": null, "kernel_constraint": null, "bias_constraint": null}, "name": "conv2d_462", "inbound_nodes": [[["activation_461", 0, 0, {}]]]}, {"class_name": "BatchNormalization", "config": {"name": "batch_normalization_471", "trainable": true, "dtype": "float32", "axis": [3], "momentum": 0.99, "epsilon": 0.001, "center": true, "scale": false, "beta_initializer": {"class_name": "Zeros", "config": {}}, "gamma_initializer": {"class_name": "Ones", "config": {}}, "moving_mean_initializer": {"class_name": "Zeros", "config": {}}, "moving_variance_initializer": {"class_name": "Ones", "config": {}}, "beta_regularizer": null, "gamma_regularizer": null, "beta_constraint": null, "gamma_constraint": null}, "name": "batch_normalization_471", "inbound_nodes": [[["conv2d_457", 0, 0, {}]]]}, {"class_name": "BatchNormalization", "config": {"name": "batch_normalization_473", "trainable": true, "dtype": "float32", "axis": [3], "momentum": 0.99, "epsilon": 0.001, "center": true, "scale": false, "beta_initializer": {"class_name": "Zeros", "config": {}}, "gamma_initializer": {"class_name": "Ones", "config": {}}, "moving_mean_initializer": {"class_name": "Zeros", "config": {}}, "moving_variance_initializer": {"class_name": "Ones", "config": {}}, "beta_regularizer": null, "gamma_regularizer": null, "beta_constraint": null, "gamma_constraint": null}, "name": "batch_normalization_473", "inbound_nodes": [[["conv2d_459", 0, 0, {}]]]}, {"class_name": "BatchNormalization", "config": {"name": "batch_normalization_476", "trainable": true, "dtype": "float32", "axis": [3], "momentum": 0.99, "epsilon": 0.001, "center": true, "scale": false, "beta_initializer": {"class_name": "Zeros", "config": {}}, "gamma_initializer": {"class_name": "Ones", "config": {}}, "moving_mean_initializer": {"class_name": "Zeros", "config": {}}, "moving_variance_initializer": {"class_name": "Ones", "config": {}}, "beta_regularizer": null, "gamma_regularizer": null, "beta_constraint": null, "gamma_constraint": null}, "name": "batch_normalization_476", "inbound_nodes": [[["conv2d_462", 0, 0, {}]]]}, {"class_name": "Activation", "config": {"name": "activation_457", "trainable": true, "dtype": "float32", "activation": "relu"}, "name": "activation_457", "inbound_nodes": [[["batch_normalization_471", 0, 0, {}]]]}, {"class_name": "Activation", "config": {"name": "activation_459", "trainable": true, "dtype": "float32", "activation": "relu"}, "name": "activation_459", "inbound_nodes": [[["batch_normalization_473", 0, 0, {}]]]}, {"class_name": "Activation", "config": {"name": "activation_462", "trainable": true, "dtype": "float32", "activation": "relu"}, "name": "activation_462", "inbound_nodes": [[["batch_normalization_476", 0, 0, {}]]]}, {"class_name": "Concatenate", "config": {"name": "block35_10_mixed", "trainable": true, "dtype": "float32", "axis": 3}, "name": "block35_10_mixed", "inbound_nodes": [[["activation_457", 0, 0, {}], ["activation_459", 0, 0, {}], ["activation_462", 0, 0, {}]]]}, {"class_name": "Conv2D", "config": {"name": "block35_10_conv", "trainable": true, "dtype": "float32", "filters": 320, "kernel_size": [1, 1], "strides": [1, 1], "padding": "same", "data_format": "channels_last", "dilation_rate": [1, 1], "activation": "linear", "use_bias": true, "kernel_initializer": {"class_name": "GlorotUniform", "config": {"seed": null}}, "bias_initializer": {"class_name": "Zeros", "config": {}}, "kernel_regularizer": null, "bias_regularizer": null, "activity_regularizer": null, "kernel_constraint": null, "bias_constraint": null}, "name": "block35_10_conv", "inbound_nodes": [[["block35_10_mixed", 0, 0, {}]]]}, {"class_name": "Lambda", "config": {"name": "block35_10", "trainable": true, "dtype": "float32", "function": ["4wIAAAAAAAAAAgAAAAMAAABTAAAAcxQAAAB8AGQBGQB8AGQCGQB8ARQAFwBTACkDTukAAAAA6QEA\nAACpACkC2gZpbnB1dHPaBXNjYWxlcgMAAAByAwAAAPpYL2hvbWUvZmlsZnkvLmxvY2FsL2xpYi9w\neXRob24zLjcvc2l0ZS1wYWNrYWdlcy9rZXJhc19hcHBsaWNhdGlvbnMvaW5jZXB0aW9uX3Jlc25l\ndF92Mi5wedoIPGxhbWJkYT6oAAAA8wAAAAA=\n", null, null], "function_type": "lambda", "module": "keras_applications.inception_resnet_v2", "output_shape": [13, 13, 320], "output_shape_type": "raw", "output_shape_module": null, "arguments": {"scale": 0.17}}, "name": "block35_10", "inbound_nodes": [[["block35_9_ac", 0, 0, {}], ["block35_10_conv", 0, 0, {}]]]}, {"class_name": "Activation", "config": {"name": "block35_10_ac", "trainable": true, "dtype": "float32", "activation": "relu"}, "name": "block35_10_ac", "inbound_nodes": [[["block35_10", 0, 0, {}]]]}, {"class_name": "Conv2D", "config": {"name": "conv2d_464", "trainable": true, "dtype": "float32", "filters": 256, "kernel_size": [1, 1], "strides": [1, 1], "padding": "same", "data_format": "channels_last", "dilation_rate": [1, 1], "activation": "linear", "use_bias": false, "kernel_initializer": {"class_name": "GlorotUniform", "config": {"seed": null}}, "bias_initializer": {"class_name": "Zeros", "config": {}}, "kernel_regularizer": null, "bias_regularizer": null, "activity_regularizer": null, "kernel_constraint": null, "bias_constraint": null}, "name": "conv2d_464", "inbound_nodes": [[["block35_10_ac", 0, 0, {}]]]}, {"class_name": "BatchNormalization", "config": {"name": "batch_normalization_478", "trainable": true, "dtype": "float32", "axis": [3], "momentum": 0.99, "epsilon": 0.001, "center": true, "scale": false, "beta_initializer": {"class_name": "Zeros", "config": {}}, "gamma_initializer": {"class_name": "Ones", "config": {}}, "moving_mean_initializer": {"class_name": "Zeros", "config": {}}, "moving_variance_initializer": {"class_name": "Ones", "config": {}}, "beta_regularizer": null, "gamma_regularizer": null, "beta_constraint": null, "gamma_constraint": null}, "name": "batch_normalization_478", "inbound_nodes": [[["conv2d_464", 0, 0, {}]]]}, {"class_name": "Activation", "config": {"name": "activation_464", "trainable": true, "dtype": "float32", "activation": "relu"}, "name": "activation_464", "inbound_nodes": [[["batch_normalization_478", 0, 0, {}]]]}, {"class_name": "Conv2D", "config": {"name": "conv2d_465", "trainable": true, "dtype": "float32", "filters": 256, "kernel_size": [3, 3], "strides": [1, 1], "padding": "same", "data_format": "channels_last", "dilation_rate": [1, 1], "activation": "linear", "use_bias": false, "kernel_initializer": {"class_name": "GlorotUniform", "config": {"seed": null}}, "bias_initializer": {"class_name": "Zeros", "config": {}}, "kernel_regularizer": null, "bias_regularizer": null, "activity_regularizer": null, "kernel_constraint": null, "bias_constraint": null}, "name": "conv2d_465", "inbound_nodes": [[["activation_464", 0, 0, {}]]]}, {"class_name": "BatchNormalization", "config": {"name": "batch_normalization_479", "trainable": true, "dtype": "float32", "axis": [3], "momentum": 0.99, "epsilon": 0.001, "center": true, "scale": false, "beta_initializer": {"class_name": "Zeros", "config": {}}, "gamma_initializer": {"class_name": "Ones", "config": {}}, "moving_mean_initializer": {"class_name": "Zeros", "config": {}}, "moving_variance_initializer": {"class_name": "Ones", "config": {}}, "beta_regularizer": null, "gamma_regularizer": null, "beta_constraint": null, "gamma_constraint": null}, "name": "batch_normalization_479", "inbound_nodes": [[["conv2d_465", 0, 0, {}]]]}, {"class_name": "Activation", "config": {"name": "activation_465", "trainable": true, "dtype": "float32", "activation": "relu"}, "name": "activation_465", "inbound_nodes": [[["batch_normalization_479", 0, 0, {}]]]}, {"class_name": "Conv2D", "config": {"name": "conv2d_463", "trainable": true, "dtype": "float32", "filters": 384, "kernel_size": [3, 3], "strides": [2, 2], "padding": "valid", "data_format": "channels_last", "dilation_rate": [1, 1], "activation": "linear", "use_bias": false, "kernel_initializer": {"class_name": "GlorotUniform", "config": {"seed": null}}, "bias_initializer": {"class_name": "Zeros", "config": {}}, "kernel_regularizer": null, "bias_regularizer": null, "activity_regularizer": null, "kernel_constraint": null, "bias_constraint": null}, "name": "conv2d_463", "inbound_nodes": [[["block35_10_ac", 0, 0, {}]]]}, {"class_name": "Conv2D", "config": {"name": "conv2d_466", "trainable": true, "dtype": "float32", "filters": 384, "kernel_size": [3, 3], "strides": [2, 2], "padding": "valid", "data_format": "channels_last", "dilation_rate": [1, 1], "activation": "linear", "use_bias": false, "kernel_initializer": {"class_name": "GlorotUniform", "config": {"seed": null}}, "bias_initializer": {"class_name": "Zeros", "config": {}}, "kernel_regularizer": null, "bias_regularizer": null, "activity_regularizer": null, "kernel_constraint": null, "bias_constraint": null}, "name": "conv2d_466", "inbound_nodes": [[["activation_465", 0, 0, {}]]]}, {"class_name": "BatchNormalization", "config": {"name": "batch_normalization_477", "trainable": true, "dtype": "float32", "axis": [3], "momentum": 0.99, "epsilon": 0.001, "center": true, "scale": false, "beta_initializer": {"class_name": "Zeros", "config": {}}, "gamma_initializer": {"class_name": "Ones", "config": {}}, "moving_mean_initializer": {"class_name": "Zeros", "config": {}}, "moving_variance_initializer": {"class_name": "Ones", "config": {}}, "beta_regularizer": null, "gamma_regularizer": null, "beta_constraint": null, "gamma_constraint": null}, "name": "batch_normalization_477", "inbound_nodes": [[["conv2d_463", 0, 0, {}]]]}, {"class_name": "BatchNormalization", "config": {"name": "batch_normalization_480", "trainable": true, "dtype": "float32", "axis": [3], "momentum": 0.99, "epsilon": 0.001, "center": true, "scale": false, "beta_initializer": {"class_name": "Zeros", "config": {}}, "gamma_initializer": {"class_name": "Ones", "config": {}}, "moving_mean_initializer": {"class_name": "Zeros", "config": {}}, "moving_variance_initializer": {"class_name": "Ones", "config": {}}, "beta_regularizer": null, "gamma_regularizer": null, "beta_constraint": null, "gamma_constraint": null}, "name": "batch_normalization_480", "inbound_nodes": [[["conv2d_466", 0, 0, {}]]]}, {"class_name": "Activation", "config": {"name": "activation_463", "trainable": true, "dtype": "float32", "activation": "relu"}, "name": "activation_463", "inbound_nodes": [[["batch_normalization_477", 0, 0, {}]]]}, {"class_name": "Activation", "config": {"name": "activation_466", "trainable": true, "dtype": "float32", "activation": "relu"}, "name": "activation_466", "inbound_nodes": [[["batch_normalization_480", 0, 0, {}]]]}, {"class_name": "MaxPooling2D", "config": {"name": "max_pooling2d_14", "trainable": true, "dtype": "float32", "pool_size": [3, 3], "padding": "valid", "strides": [2, 2], "data_format": "channels_last"}, "name": "max_pooling2d_14", "inbound_nodes": [[["block35_10_ac", 0, 0, {}]]]}, {"class_name": "Concatenate", "config": {"name": "mixed_6a", "trainable": true, "dtype": "float32", "axis": 3}, "name": "mixed_6a", "inbound_nodes": [[["activation_463", 0, 0, {}], ["activation_466", 0, 0, {}], ["max_pooling2d_14", 0, 0, {}]]]}, {"class_name": "Conv2D", "config": {"name": "conv2d_468", "trainable": true, "dtype": "float32", "filters": 128, "kernel_size": [1, 1], "strides": [1, 1], "padding": "same", "data_format": "channels_last", "dilation_rate": [1, 1], "activation": "linear", "use_bias": false, "kernel_initializer": {"class_name": "GlorotUniform", "config": {"seed": null}}, "bias_initializer": {"class_name": "Zeros", "config": {}}, "kernel_regularizer": null, "bias_regularizer": null, "activity_regularizer": null, "kernel_constraint": null, "bias_constraint": null}, "name": "conv2d_468", "inbound_nodes": [[["mixed_6a", 0, 0, {}]]]}, {"class_name": "BatchNormalization", "config": {"name": "batch_normalization_482", "trainable": true, "dtype": "float32", "axis": [3], "momentum": 0.99, "epsilon": 0.001, "center": true, "scale": false, "beta_initializer": {"class_name": "Zeros", "config": {}}, "gamma_initializer": {"class_name": "Ones", "config": {}}, "moving_mean_initializer": {"class_name": "Zeros", "config": {}}, "moving_variance_initializer": {"class_name": "Ones", "config": {}}, "beta_regularizer": null, "gamma_regularizer": null, "beta_constraint": null, "gamma_constraint": null}, "name": "batch_normalization_482", "inbound_nodes": [[["conv2d_468", 0, 0, {}]]]}, {"class_name": "Activation", "config": {"name": "activation_468", "trainable": true, "dtype": "float32", "activation": "relu"}, "name": "activation_468", "inbound_nodes": [[["batch_normalization_482", 0, 0, {}]]]}, {"class_name": "Conv2D", "config": {"name": "conv2d_469", "trainable": true, "dtype": "float32", "filters": 160, "kernel_size": [1, 7], "strides": [1, 1], "padding": "same", "data_format": "channels_last", "dilation_rate": [1, 1], "activation": "linear", "use_bias": false, "kernel_initializer": {"class_name": "GlorotUniform", "config": {"seed": null}}, "bias_initializer": {"class_name": "Zeros", "config": {}}, "kernel_regularizer": null, "bias_regularizer": null, "activity_regularizer": null, "kernel_constraint": null, "bias_constraint": null}, "name": "conv2d_469", "inbound_nodes": [[["activation_468", 0, 0, {}]]]}, {"class_name": "BatchNormalization", "config": {"name": "batch_normalization_483", "trainable": true, "dtype": "float32", "axis": [3], "momentum": 0.99, "epsilon": 0.001, "center": true, "scale": false, "beta_initializer": {"class_name": "Zeros", "config": {}}, "gamma_initializer": {"class_name": "Ones", "config": {}}, "moving_mean_initializer": {"class_name": "Zeros", "config": {}}, "moving_variance_initializer": {"class_name": "Ones", "config": {}}, "beta_regularizer": null, "gamma_regularizer": null, "beta_constraint": null, "gamma_constraint": null}, "name": "batch_normalization_483", "inbound_nodes": [[["conv2d_469", 0, 0, {}]]]}, {"class_name": "Activation", "config": {"name": "activation_469", "trainable": true, "dtype": "float32", "activation": "relu"}, "name": "activation_469", "inbound_nodes": [[["batch_normalization_483", 0, 0, {}]]]}, {"class_name": "Conv2D", "config": {"name": "conv2d_467", "trainable": true, "dtype": "float32", "filters": 192, "kernel_size": [1, 1], "strides": [1, 1], "padding": "same", "data_format": "channels_last", "dilation_rate": [1, 1], "activation": "linear", "use_bias": false, "kernel_initializer": {"class_name": "GlorotUniform", "config": {"seed": null}}, "bias_initializer": {"class_name": "Zeros", "config": {}}, "kernel_regularizer": null, "bias_regularizer": null, "activity_regularizer": null, "kernel_constraint": null, "bias_constraint": null}, "name": "conv2d_467", "inbound_nodes": [[["mixed_6a", 0, 0, {}]]]}, {"class_name": "Conv2D", "config": {"name": "conv2d_470", "trainable": true, "dtype": "float32", "filters": 192, "kernel_size": [7, 1], "strides": [1, 1], "padding": "same", "data_format": "channels_last", "dilation_rate": [1, 1], "activation": "linear", "use_bias": false, "kernel_initializer": {"class_name": "GlorotUniform", "config": {"seed": null}}, "bias_initializer": {"class_name": "Zeros", "config": {}}, "kernel_regularizer": null, "bias_regularizer": null, "activity_regularizer": null, "kernel_constraint": null, "bias_constraint": null}, "name": "conv2d_470", "inbound_nodes": [[["activation_469", 0, 0, {}]]]}, {"class_name": "BatchNormalization", "config": {"name": "batch_normalization_481", "trainable": true, "dtype": "float32", "axis": [3], "momentum": 0.99, "epsilon": 0.001, "center": true, "scale": false, "beta_initializer": {"class_name": "Zeros", "config": {}}, "gamma_initializer": {"class_name": "Ones", "config": {}}, "moving_mean_initializer": {"class_name": "Zeros", "config": {}}, "moving_variance_initializer": {"class_name": "Ones", "config": {}}, "beta_regularizer": null, "gamma_regularizer": null, "beta_constraint": null, "gamma_constraint": null}, "name": "batch_normalization_481", "inbound_nodes": [[["conv2d_467", 0, 0, {}]]]}, {"class_name": "BatchNormalization", "config": {"name": "batch_normalization_484", "trainable": true, "dtype": "float32", "axis": [3], "momentum": 0.99, "epsilon": 0.001, "center": true, "scale": false, "beta_initializer": {"class_name": "Zeros", "config": {}}, "gamma_initializer": {"class_name": "Ones", "config": {}}, "moving_mean_initializer": {"class_name": "Zeros", "config": {}}, "moving_variance_initializer": {"class_name": "Ones", "config": {}}, "beta_regularizer": null, "gamma_regularizer": null, "beta_constraint": null, "gamma_constraint": null}, "name": "batch_normalization_484", "inbound_nodes": [[["conv2d_470", 0, 0, {}]]]}, {"class_name": "Activation", "config": {"name": "activation_467", "trainable": true, "dtype": "float32", "activation": "relu"}, "name": "activation_467", "inbound_nodes": [[["batch_normalization_481", 0, 0, {}]]]}, {"class_name": "Activation", "config": {"name": "activation_470", "trainable": true, "dtype": "float32", "activation": "relu"}, "name": "activation_470", "inbound_nodes": [[["batch_normalization_484", 0, 0, {}]]]}, {"class_name": "Concatenate", "config": {"name": "block17_1_mixed", "trainable": true, "dtype": "float32", "axis": 3}, "name": "block17_1_mixed", "inbound_nodes": [[["activation_467", 0, 0, {}], ["activation_470", 0, 0, {}]]]}, {"class_name": "Conv2D", "config": {"name": "block17_1_conv", "trainable": true, "dtype": "float32", "filters": 1088, "kernel_size": [1, 1], "strides": [1, 1], "padding": "same", "data_format": "channels_last", "dilation_rate": [1, 1], "activation": "linear", "use_bias": true, "kernel_initializer": {"class_name": "GlorotUniform", "config": {"seed": null}}, "bias_initializer": {"class_name": "Zeros", "config": {}}, "kernel_regularizer": null, "bias_regularizer": null, "activity_regularizer": null, "kernel_constraint": null, "bias_constraint": null}, "name": "block17_1_conv", "inbound_nodes": [[["block17_1_mixed", 0, 0, {}]]]}, {"class_name": "Lambda", "config": {"name": "block17_1", "trainable": true, "dtype": "float32", "function": ["4wIAAAAAAAAAAgAAAAMAAABTAAAAcxQAAAB8AGQBGQB8AGQCGQB8ARQAFwBTACkDTukAAAAA6QEA\nAACpACkC2gZpbnB1dHPaBXNjYWxlcgMAAAByAwAAAPpYL2hvbWUvZmlsZnkvLmxvY2FsL2xpYi9w\neXRob24zLjcvc2l0ZS1wYWNrYWdlcy9rZXJhc19hcHBsaWNhdGlvbnMvaW5jZXB0aW9uX3Jlc25l\ndF92Mi5wedoIPGxhbWJkYT6oAAAA8wAAAAA=\n", null, null], "function_type": "lambda", "module": "keras_applications.inception_resnet_v2", "output_shape": [6, 6, 1088], "output_shape_type": "raw", "output_shape_module": null, "arguments": {"scale": 0.1}}, "name": "block17_1", "inbound_nodes": [[["mixed_6a", 0, 0, {}], ["block17_1_conv", 0, 0, {}]]]}, {"class_name": "Activation", "config": {"name": "block17_1_ac", "trainable": true, "dtype": "float32", "activation": "relu"}, "name": "block17_1_ac", "inbound_nodes": [[["block17_1", 0, 0, {}]]]}, {"class_name": "Conv2D", "config": {"name": "conv2d_472", "trainable": true, "dtype": "float32", "filters": 128, "kernel_size": [1, 1], "strides": [1, 1], "padding": "same", "data_format": "channels_last", "dilation_rate": [1, 1], "activation": "linear", "use_bias": false, "kernel_initializer": {"class_name": "GlorotUniform", "config": {"seed": null}}, "bias_initializer": {"class_name": "Zeros", "config": {}}, "kernel_regularizer": null, "bias_regularizer": null, "activity_regularizer": null, "kernel_constraint": null, "bias_constraint": null}, "name": "conv2d_472", "inbound_nodes": [[["block17_1_ac", 0, 0, {}]]]}, {"class_name": "BatchNormalization", "config": {"name": "batch_normalization_486", "trainable": true, "dtype": "float32", "axis": [3], "momentum": 0.99, "epsilon": 0.001, "center": true, "scale": false, "beta_initializer": {"class_name": "Zeros", "config": {}}, "gamma_initializer": {"class_name": "Ones", "config": {}}, "moving_mean_initializer": {"class_name": "Zeros", "config": {}}, "moving_variance_initializer": {"class_name": "Ones", "config": {}}, "beta_regularizer": null, "gamma_regularizer": null, "beta_constraint": null, "gamma_constraint": null}, "name": "batch_normalization_486", "inbound_nodes": [[["conv2d_472", 0, 0, {}]]]}, {"class_name": "Activation", "config": {"name": "activation_472", "trainable": true, "dtype": "float32", "activation": "relu"}, "name": "activation_472", "inbound_nodes": [[["batch_normalization_486", 0, 0, {}]]]}, {"class_name": "Conv2D", "config": {"name": "conv2d_473", "trainable": true, "dtype": "float32", "filters": 160, "kernel_size": [1, 7], "strides": [1, 1], "padding": "same", "data_format": "channels_last", "dilation_rate": [1, 1], "activation": "linear", "use_bias": false, "kernel_initializer": {"class_name": "GlorotUniform", "config": {"seed": null}}, "bias_initializer": {"class_name": "Zeros", "config": {}}, "kernel_regularizer": null, "bias_regularizer": null, "activity_regularizer": null, "kernel_constraint": null, "bias_constraint": null}, "name": "conv2d_473", "inbound_nodes": [[["activation_472", 0, 0, {}]]]}, {"class_name": "BatchNormalization", "config": {"name": "batch_normalization_487", "trainable": true, "dtype": "float32", "axis": [3], "momentum": 0.99, "epsilon": 0.001, "center": true, "scale": false, "beta_initializer": {"class_name": "Zeros", "config": {}}, "gamma_initializer": {"class_name": "Ones", "config": {}}, "moving_mean_initializer": {"class_name": "Zeros", "config": {}}, "moving_variance_initializer": {"class_name": "Ones", "config": {}}, "beta_regularizer": null, "gamma_regularizer": null, "beta_constraint": null, "gamma_constraint": null}, "name": "batch_normalization_487", "inbound_nodes": [[["conv2d_473", 0, 0, {}]]]}, {"class_name": "Activation", "config": {"name": "activation_473", "trainable": true, "dtype": "float32", "activation": "relu"}, "name": "activation_473", "inbound_nodes": [[["batch_normalization_487", 0, 0, {}]]]}, {"class_name": "Conv2D", "config": {"name": "conv2d_471", "trainable": true, "dtype": "float32", "filters": 192, "kernel_size": [1, 1], "strides": [1, 1], "padding": "same", "data_format": "channels_last", "dilation_rate": [1, 1], "activation": "linear", "use_bias": false, "kernel_initializer": {"class_name": "GlorotUniform", "config": {"seed": null}}, "bias_initializer": {"class_name": "Zeros", "config": {}}, "kernel_regularizer": null, "bias_regularizer": null, "activity_regularizer": null, "kernel_constraint": null, "bias_constraint": null}, "name": "conv2d_471", "inbound_nodes": [[["block17_1_ac", 0, 0, {}]]]}, {"class_name": "Conv2D", "config": {"name": "conv2d_474", "trainable": true, "dtype": "float32", "filters": 192, "kernel_size": [7, 1], "strides": [1, 1], "padding": "same", "data_format": "channels_last", "dilation_rate": [1, 1], "activation": "linear", "use_bias": false, "kernel_initializer": {"class_name": "GlorotUniform", "config": {"seed": null}}, "bias_initializer": {"class_name": "Zeros", "config": {}}, "kernel_regularizer": null, "bias_regularizer": null, "activity_regularizer": null, "kernel_constraint": null, "bias_constraint": null}, "name": "conv2d_474", "inbound_nodes": [[["activation_473", 0, 0, {}]]]}, {"class_name": "BatchNormalization", "config": {"name": "batch_normalization_485", "trainable": true, "dtype": "float32", "axis": [3], "momentum": 0.99, "epsilon": 0.001, "center": true, "scale": false, "beta_initializer": {"class_name": "Zeros", "config": {}}, "gamma_initializer": {"class_name": "Ones", "config": {}}, "moving_mean_initializer": {"class_name": "Zeros", "config": {}}, "moving_variance_initializer": {"class_name": "Ones", "config": {}}, "beta_regularizer": null, "gamma_regularizer": null, "beta_constraint": null, "gamma_constraint": null}, "name": "batch_normalization_485", "inbound_nodes": [[["conv2d_471", 0, 0, {}]]]}, {"class_name": "BatchNormalization", "config": {"name": "batch_normalization_488", "trainable": true, "dtype": "float32", "axis": [3], "momentum": 0.99, "epsilon": 0.001, "center": true, "scale": false, "beta_initializer": {"class_name": "Zeros", "config": {}}, "gamma_initializer": {"class_name": "Ones", "config": {}}, "moving_mean_initializer": {"class_name": "Zeros", "config": {}}, "moving_variance_initializer": {"class_name": "Ones", "config": {}}, "beta_regularizer": null, "gamma_regularizer": null, "beta_constraint": null, "gamma_constraint": null}, "name": "batch_normalization_488", "inbound_nodes": [[["conv2d_474", 0, 0, {}]]]}, {"class_name": "Activation", "config": {"name": "activation_471", "trainable": true, "dtype": "float32", "activation": "relu"}, "name": "activation_471", "inbound_nodes": [[["batch_normalization_485", 0, 0, {}]]]}, {"class_name": "Activation", "config": {"name": "activation_474", "trainable": true, "dtype": "float32", "activation": "relu"}, "name": "activation_474", "inbound_nodes": [[["batch_normalization_488", 0, 0, {}]]]}, {"class_name": "Concatenate", "config": {"name": "block17_2_mixed", "trainable": true, "dtype": "float32", "axis": 3}, "name": "block17_2_mixed", "inbound_nodes": [[["activation_471", 0, 0, {}], ["activation_474", 0, 0, {}]]]}, {"class_name": "Conv2D", "config": {"name": "block17_2_conv", "trainable": true, "dtype": "float32", "filters": 1088, "kernel_size": [1, 1], "strides": [1, 1], "padding": "same", "data_format": "channels_last", "dilation_rate": [1, 1], "activation": "linear", "use_bias": true, "kernel_initializer": {"class_name": "GlorotUniform", "config": {"seed": null}}, "bias_initializer": {"class_name": "Zeros", "config": {}}, "kernel_regularizer": null, "bias_regularizer": null, "activity_regularizer": null, "kernel_constraint": null, "bias_constraint": null}, "name": "block17_2_conv", "inbound_nodes": [[["block17_2_mixed", 0, 0, {}]]]}, {"class_name": "Lambda", "config": {"name": "block17_2", "trainable": true, "dtype": "float32", "function": ["4wIAAAAAAAAAAgAAAAMAAABTAAAAcxQAAAB8AGQBGQB8AGQCGQB8ARQAFwBTACkDTukAAAAA6QEA\nAACpACkC2gZpbnB1dHPaBXNjYWxlcgMAAAByAwAAAPpYL2hvbWUvZmlsZnkvLmxvY2FsL2xpYi9w\neXRob24zLjcvc2l0ZS1wYWNrYWdlcy9rZXJhc19hcHBsaWNhdGlvbnMvaW5jZXB0aW9uX3Jlc25l\ndF92Mi5wedoIPGxhbWJkYT6oAAAA8wAAAAA=\n", null, null], "function_type": "lambda", "module": "keras_applications.inception_resnet_v2", "output_shape": [6, 6, 1088], "output_shape_type": "raw", "output_shape_module": null, "arguments": {"scale": 0.1}}, "name": "block17_2", "inbound_nodes": [[["block17_1_ac", 0, 0, {}], ["block17_2_conv", 0, 0, {}]]]}, {"class_name": "Activation", "config": {"name": "block17_2_ac", "trainable": true, "dtype": "float32", "activation": "relu"}, "name": "block17_2_ac", "inbound_nodes": [[["block17_2", 0, 0, {}]]]}, {"class_name": "Conv2D", "config": {"name": "conv2d_476", "trainable": true, "dtype": "float32", "filters": 128, "kernel_size": [1, 1], "strides": [1, 1], "padding": "same", "data_format": "channels_last", "dilation_rate": [1, 1], "activation": "linear", "use_bias": false, "kernel_initializer": {"class_name": "GlorotUniform", "config": {"seed": null}}, "bias_initializer": {"class_name": "Zeros", "config": {}}, "kernel_regularizer": null, "bias_regularizer": null, "activity_regularizer": null, "kernel_constraint": null, "bias_constraint": null}, "name": "conv2d_476", "inbound_nodes": [[["block17_2_ac", 0, 0, {}]]]}, {"class_name": "BatchNormalization", "config": {"name": "batch_normalization_490", "trainable": true, "dtype": "float32", "axis": [3], "momentum": 0.99, "epsilon": 0.001, "center": true, "scale": false, "beta_initializer": {"class_name": "Zeros", "config": {}}, "gamma_initializer": {"class_name": "Ones", "config": {}}, "moving_mean_initializer": {"class_name": "Zeros", "config": {}}, "moving_variance_initializer": {"class_name": "Ones", "config": {}}, "beta_regularizer": null, "gamma_regularizer": null, "beta_constraint": null, "gamma_constraint": null}, "name": "batch_normalization_490", "inbound_nodes": [[["conv2d_476", 0, 0, {}]]]}, {"class_name": "Activation", "config": {"name": "activation_476", "trainable": true, "dtype": "float32", "activation": "relu"}, "name": "activation_476", "inbound_nodes": [[["batch_normalization_490", 0, 0, {}]]]}, {"class_name": "Conv2D", "config": {"name": "conv2d_47…
n_rate": [1, 1], "activation": "linear", "use_bias": true, "kernel_initializer": {"class_name": "GlorotUniform", "config": {"seed": null}}, "bias_initializer": {"class_name": "Zeros", "config": {}}, "kernel_regularizer": null, "bias_regularizer": null, "activity_regularizer": null, "kernel_constraint": null, "bias_constraint": null}, "name": "block8_4_conv", "inbound_nodes": [[["block8_4_mixed", 0, 0, {}]]]}, {"class_name": "Lambda", "config": {"name": "block8_4", "trainable": true, "dtype": "float32", "function": ["4wIAAAAAAAAAAgAAAAMAAABTAAAAcxQAAAB8AGQBGQB8AGQCGQB8ARQAFwBTACkDTukAAAAA6QEA\nAACpACkC2gZpbnB1dHPaBXNjYWxlcgMAAAByAwAAAPpYL2hvbWUvZmlsZnkvLmxvY2FsL2xpYi9w\neXRob24zLjcvc2l0ZS1wYWNrYWdlcy9rZXJhc19hcHBsaWNhdGlvbnMvaW5jZXB0aW9uX3Jlc25l\ndF92Mi5wedoIPGxhbWJkYT6oAAAA8wAAAAA=\n", null, null], "function_type": "lambda", "module": "keras_applications.inception_resnet_v2", "output_shape": [2, 2, 2080], "output_shape_type": "raw", "output_shape_module": null, "arguments": {"scale": 0.2}}, "name": "block8_4", "inbound_nodes": [[["block8_3_ac", 0, 0, {}], ["block8_4_conv", 0, 0, {}]]]}, {"class_name": "Activation", "config": {"name": "block8_4_ac", "trainable": true, "dtype": "float32", "activation": "relu"}, "name": "block8_4_ac", "inbound_nodes": [[["block8_4", 0, 0, {}]]]}, {"class_name": "Conv2D", "config": {"name": "conv2d_571", "trainable": true, "dtype": "float32", "filters": 192, "kernel_size": [1, 1], "strides": [1, 1], "padding": "same", "data_format": "channels_last", "dilation_rate": [1, 1], "activation": "linear", "use_bias": false, "kernel_initializer": {"class_name": "GlorotUniform", "config": {"seed": null}}, "bias_initializer": {"class_name": "Zeros", "config": {}}, "kernel_regularizer": null, "bias_regularizer": null, "activity_regularizer": null, "kernel_constraint": null, "bias_constraint": null}, "name": "conv2d_571", "inbound_nodes": [[["block8_4_ac", 0, 0, {}]]]}, {"class_name": "BatchNormalization", "config": {"name": "batch_normalization_585", "trainable": true, "dtype": "float32", "axis": [3], "momentum": 0.99, "epsilon": 0.001, "center": true, "scale": false, "beta_initializer": {"class_name": "Zeros", "config": {}}, "gamma_initializer": {"class_name": "Ones", "config": {}}, "moving_mean_initializer": {"class_name": "Zeros", "config": {}}, "moving_variance_initializer": {"class_name": "Ones", "config": {}}, "beta_regularizer": null, "gamma_regularizer": null, "beta_constraint": null, "gamma_constraint": null}, "name": "batch_normalization_585", "inbound_nodes": [[["conv2d_571", 0, 0, {}]]]}, {"class_name": "Activation", "config": {"name": "activation_571", "trainable": true, "dtype": "float32", "activation": "relu"}, "name": "activation_571", "inbound_nodes": [[["batch_normalization_585", 0, 0, {}]]]}, {"class_name": "Conv2D", "config": {"name": "conv2d_572", "trainable": true, "dtype": "float32", "filters": 224, "kernel_size": [1, 3], "strides": [1, 1], "padding": "same", "data_format": "channels_last", "dilation_rate": [1, 1], "activation": "linear", "use_bias": false, "kernel_initializer": {"class_name": "GlorotUniform", "config": {"seed": null}}, "bias_initializer": {"class_name": "Zeros", "config": {}}, "kernel_regularizer": null, "bias_regularizer": null, "activity_regularizer": null, "kernel_constraint": null, "bias_constraint": null}, "name": "conv2d_572", "inbound_nodes": [[["activation_571", 0, 0, {}]]]}, {"class_name": "BatchNormalization", "config": {"name": "batch_normalization_586", "trainable": true, "dtype": "float32", "axis": [3], "momentum": 0.99, "epsilon": 0.001, "center": true, "scale": false, "beta_initializer": {"class_name": "Zeros", "config": {}}, "gamma_initializer": {"class_name": "Ones", "config": {}}, "moving_mean_initializer": {"class_name": "Zeros", "config": {}}, "moving_variance_initializer": {"class_name": "Ones", "config": {}}, "beta_regularizer": null, "gamma_regularizer": null, "beta_constraint": null, "gamma_constraint": null}, "name": "batch_normalization_586", "inbound_nodes": [[["conv2d_572", 0, 0, {}]]]}, {"class_name": "Activation", "config": {"name": "activation_572", "trainable": true, "dtype": "float32", "activation": "relu"}, "name": "activation_572", "inbound_nodes": [[["batch_normalization_586", 0, 0, {}]]]}, {"class_name": "Conv2D", "config": {"name": "conv2d_570", "trainable": true, "dtype": "float32", "filters": 192, "kernel_size": [1, 1], "strides": [1, 1], "padding": "same", "data_format": "channels_last", "dilation_rate": [1, 1], "activation": "linear", "use_bias": false, "kernel_initializer": {"class_name": "GlorotUniform", "config": {"seed": null}}, "bias_initializer": {"class_name": "Zeros", "config": {}}, "kernel_regularizer": null, "bias_regularizer": null, "activity_regularizer": null, "kernel_constraint": null, "bias_constraint": null}, "name": "conv2d_570", "inbound_nodes": [[["block8_4_ac", 0, 0, {}]]]}, {"class_name": "Conv2D", "config": {"name": "conv2d_573", "trainable": true, "dtype": "float32", "filters": 256, "kernel_size": [3, 1], "strides": [1, 1], "padding": "same", "data_format": "channels_last", "dilation_rate": [1, 1], "activation": "linear", "use_bias": false, "kernel_initializer": {"class_name": "GlorotUniform", "config": {"seed": null}}, "bias_initializer": {"class_name": "Zeros", "config": {}}, "kernel_regularizer": null, "bias_regularizer": null, "activity_regularizer": null, "kernel_constraint": null, "bias_constraint": null}, "name": "conv2d_573", "inbound_nodes": [[["activation_572", 0, 0, {}]]]}, {"class_name": "BatchNormalization", "config": {"name": "batch_normalization_584", "trainable": true, "dtype": "float32", "axis": [3], "momentum": 0.99, "epsilon": 0.001, "center": true, "scale": false, "beta_initializer": {"class_name": "Zeros", "config": {}}, "gamma_initializer": {"class_name": "Ones", "config": {}}, "moving_mean_initializer": {"class_name": "Zeros", "config": {}}, "moving_variance_initializer": {"class_name": "Ones", "config": {}}, "beta_regularizer": null, "gamma_regularizer": null, "beta_constraint": null, "gamma_constraint": null}, "name": "batch_normalization_584", "inbound_nodes": [[["conv2d_570", 0, 0, {}]]]}, {"class_name": "BatchNormalization", "config": {"name": "batch_normalization_587", "trainable": true, "dtype": "float32", "axis": [3], "momentum": 0.99, "epsilon": 0.001, "center": true, "scale": false, "beta_initializer": {"class_name": "Zeros", "config": {}}, "gamma_initializer": {"class_name": "Ones", "config": {}}, "moving_mean_initializer": {"class_name": "Zeros", "config": {}}, "moving_variance_initializer": {"class_name": "Ones", "config": {}}, "beta_regularizer": null, "gamma_regularizer": null, "beta_constraint": null, "gamma_constraint": null}, "name": "batch_normalization_587", "inbound_nodes": [[["conv2d_573", 0, 0, {}]]]}, {"class_name": "Activation", "config": {"name": "activation_570", "trainable": true, "dtype": "float32", "activation": "relu"}, "name": "activation_570", "inbound_nodes": [[["batch_normalization_584", 0, 0, {}]]]}, {"class_name": "Activation", "config": {"name": "activation_573", "trainable": true, "dtype": "float32", "activation": "relu"}, "name": "activation_573", "inbound_nodes": [[["batch_normalization_587", 0, 0, {}]]]}, {"class_name": "Concatenate", "config": {"name": "block8_5_mixed", "trainable": true, "dtype": "float32", "axis": 3}, "name": "block8_5_mixed", "inbound_nodes": [[["activation_570", 0, 0, {}], ["activation_573", 0, 0, {}]]]}, {"class_name": "Conv2D", "config": {"name": "block8_5_conv", "trainable": true, "dtype": "float32", "filters": 2080, "kernel_size": [1, 1], "strides": [1, 1], "padding": "same", "data_format": "channels_last", "dilation_rate": [1, 1], "activation": "linear", "use_bias": true, "kernel_initializer": {"class_name": "GlorotUniform", "config": {"seed": null}}, "bias_initializer": {"class_name": "Zeros", "config": {}}, "kernel_regularizer": null, "bias_regularizer": null, "activity_regularizer": null, "kernel_constraint": null, "bias_constraint": null}, "name": "block8_5_conv", "inbound_nodes": [[["block8_5_mixed", 0, 0, {}]]]}, {"class_name": "Lambda", "config": {"name": "block8_5", "trainable": true, "dtype": "float32", "function": ["4wIAAAAAAAAAAgAAAAMAAABTAAAAcxQAAAB8AGQBGQB8AGQCGQB8ARQAFwBTACkDTukAAAAA6QEA\nAACpACkC2gZpbnB1dHPaBXNjYWxlcgMAAAByAwAAAPpYL2hvbWUvZmlsZnkvLmxvY2FsL2xpYi9w\neXRob24zLjcvc2l0ZS1wYWNrYWdlcy9rZXJhc19hcHBsaWNhdGlvbnMvaW5jZXB0aW9uX3Jlc25l\ndF92Mi5wedoIPGxhbWJkYT6oAAAA8wAAAAA=\n", null, null], "function_type": "lambda", "module": "keras_applications.inception_resnet_v2", "output_shape": [2, 2, 2080], "output_shape_type": "raw", "output_shape_module": null, "arguments": {"scale": 0.2}}, "name": "block8_5", "inbound_nodes": [[["block8_4_ac", 0, 0, {}], ["block8_5_conv", 0, 0, {}]]]}, {"class_name": "Activation", "config": {"name": "block8_5_ac", "trainable": true, "dtype": "float32", "activation": "relu"}, "name": "block8_5_ac", "inbound_nodes": [[["block8_5", 0, 0, {}]]]}, {"class_name": "Conv2D", "config": {"name": "conv2d_575", "trainable": true, "dtype": "float32", "filters": 192, "kernel_size": [1, 1], "strides": [1, 1], "padding": "same", "data_format": "channels_last", "dilation_rate": [1, 1], "activation": "linear", "use_bias": false, "kernel_initializer": {"class_name": "GlorotUniform", "config": {"seed": null}}, "bias_initializer": {"class_name": "Zeros", "config": {}}, "kernel_regularizer": null, "bias_regularizer": null, "activity_regularizer": null, "kernel_constraint": null, "bias_constraint": null}, "name": "conv2d_575", "inbound_nodes": [[["block8_5_ac", 0, 0, {}]]]}, {"class_name": "BatchNormalization", "config": {"name": "batch_normalization_589", "trainable": true, "dtype": "float32", "axis": [3], "momentum": 0.99, "epsilon": 0.001, "center": true, "scale": false, "beta_initializer": {"class_name": "Zeros", "config": {}}, "gamma_initializer": {"class_name": "Ones", "config": {}}, "moving_mean_initializer": {"class_name": "Zeros", "config": {}}, "moving_variance_initializer": {"class_name": "Ones", "config": {}}, "beta_regularizer": null, "gamma_regularizer": null, "beta_constraint": null, "gamma_constraint": null}, "name": "batch_normalization_589", "inbound_nodes": [[["conv2d_575", 0, 0, {}]]]}, {"class_name": "Activation", "config": {"name": "activation_575", "trainable": true, "dtype": "float32", "activation": "relu"}, "name": "activation_575", "inbound_nodes": [[["batch_normalization_589", 0, 0, {}]]]}, {"class_name": "Conv2D", "config": {"name": "conv2d_576", "trainable": true, "dtype": "float32", "filters": 224, "kernel_size": [1, 3], "strides": [1, 1], "padding": "same", "data_format": "channels_last", "dilation_rate": [1, 1], "activation": "linear", "use_bias": false, "kernel_initializer": {"class_name": "GlorotUniform", "config": {"seed": null}}, "bias_initializer": {"class_name": "Zeros", "config": {}}, "kernel_regularizer": null, "bias_regularizer": null, "activity_regularizer": null, "kernel_constraint": null, "bias_constraint": null}, "name": "conv2d_576", "inbound_nodes": [[["activation_575", 0, 0, {}]]]}, {"class_name": "BatchNormalization", "config": {"name": "batch_normalization_590", "trainable": true, "dtype": "float32", "axis": [3], "momentum": 0.99, "epsilon": 0.001, "center": true, "scale": false, "beta_initializer": {"class_name": "Zeros", "config": {}}, "gamma_initializer": {"class_name": "Ones", "config": {}}, "moving_mean_initializer": {"class_name": "Zeros", "config": {}}, "moving_variance_initializer": {"class_name": "Ones", "config": {}}, "beta_regularizer": null, "gamma_regularizer": null, "beta_constraint": null, "gamma_constraint": null}, "name": "batch_normalization_590", "inbound_nodes": [[["conv2d_576", 0, 0, {}]]]}, {"class_name": "Activation", "config": {"name": "activation_576", "trainable": true, "dtype": "float32", "activation": "relu"}, "name": "activation_576", "inbound_nodes": [[["batch_normalization_590", 0, 0, {}]]]}, {"class_name": "Conv2D", "config": {"name": "conv2d_574", "trainable": true, "dtype": "float32", "filters": 192, "kernel_size": [1, 1], "strides": [1, 1], "padding": "same", "data_format": "channels_last", "dilation_rate": [1, 1], "activation": "linear", "use_bias": false, "kernel_initializer": {"class_name": "GlorotUniform", "config": {"seed": null}}, "bias_initializer": {"class_name": "Zeros", "config": {}}, "kernel_regularizer": null, "bias_regularizer": null, "activity_regularizer": null, "kernel_constraint": null, "bias_constraint": null}, "name": "conv2d_574", "inbound_nodes": [[["block8_5_ac", 0, 0, {}]]]}, {"class_name": "Conv2D", "config": {"name": "conv2d_577", "trainable": true, "dtype": "float32", "filters": 256, "kernel_size": [3, 1], "strides": [1, 1], "padding": "same", "data_format": "channels_last", "dilation_rate": [1, 1], "activation": "linear", "use_bias": false, "kernel_initializer": {"class_name": "GlorotUniform", "config": {"seed": null}}, "bias_initializer": {"class_name": "Zeros", "config": {}}, "kernel_regularizer": null, "bias_regularizer": null, "activity_regularizer": null, "kernel_constraint": null, "bias_constraint": null}, "name": "conv2d_577", "inbound_nodes": [[["activation_576", 0, 0, {}]]]}, {"class_name": "BatchNormalization", "config": {"name": "batch_normalization_588", "trainable": true, "dtype": "float32", "axis": [3], "momentum": 0.99, "epsilon": 0.001, "center": true, "scale": false, "beta_initializer": {"class_name": "Zeros", "config": {}}, "gamma_initializer": {"class_name": "Ones", "config": {}}, "moving_mean_initializer": {"class_name": "Zeros", "config": {}}, "moving_variance_initializer": {"class_name": "Ones", "config": {}}, "beta_regularizer": null, "gamma_regularizer": null, "beta_constraint": null, "gamma_constraint": null}, "name": "batch_normalization_588", "inbound_nodes": [[["conv2d_574", 0, 0, {}]]]}, {"class_name": "BatchNormalization", "config": {"name": "batch_normalization_591", "trainable": true, "dtype": "float32", "axis": [3], "momentum": 0.99, "epsilon": 0.001, "center": true, "scale": false, "beta_initializer": {"class_name": "Zeros", "config": {}}, "gamma_initializer": {"class_name": "Ones", "config": {}}, "moving_mean_initializer": {"class_name": "Zeros", "config": {}}, "moving_variance_initializer": {"class_name": "Ones", "config": {}}, "beta_regularizer": null, "gamma_regularizer": null, "beta_constraint": null, "gamma_constraint": null}, "name": "batch_normalization_591", "inbound_nodes": [[["conv2d_577", 0, 0, {}]]]}, {"class_name": "Activation", "config": {"name": "activation_574", "trainable": true, "dtype": "float32", "activation": "relu"}, "name": "activation_574", "inbound_nodes": [[["batch_normalization_588", 0, 0, {}]]]}, {"class_name": "Activation", "config": {"name": "activation_577", "trainable": true, "dtype": "float32", "activation": "relu"}, "name": "activation_577", "inbound_nodes": [[["batch_normalization_591", 0, 0, {}]]]}, {"class_name": "Concatenate", "config": {"name": "block8_6_mixed", "trainable": true, "dtype": "float32", "axis": 3}, "name": "block8_6_mixed", "inbound_nodes": [[["activation_574", 0, 0, {}], ["activation_577", 0, 0, {}]]]}, {"class_name": "Conv2D", "config": {"name": "block8_6_conv", "trainable": true, "dtype": "float32", "filters": 2080, "kernel_size": [1, 1], "strides": [1, 1], "padding": "same", "data_format": "channels_last", "dilation_rate": [1, 1], "activation": "linear", "use_bias": true, "kernel_initializer": {"class_name": "GlorotUniform", "config": {"seed": null}}, "bias_initializer": {"class_name": "Zeros", "config": {}}, "kernel_regularizer": null, "bias_regularizer": null, "activity_regularizer": null, "kernel_constraint": null, "bias_constraint": null}, "name": "block8_6_conv", "inbound_nodes": [[["block8_6_mixed", 0, 0, {}]]]}, {"class_name": "Lambda", "config": {"name": "block8_6", "trainable": true, "dtype": "float32", "function": ["4wIAAAAAAAAAAgAAAAMAAABTAAAAcxQAAAB8AGQBGQB8AGQCGQB8ARQAFwBTACkDTukAAAAA6QEA\nAACpACkC2gZpbnB1dHPaBXNjYWxlcgMAAAByAwAAAPpYL2hvbWUvZmlsZnkvLmxvY2FsL2xpYi9w\neXRob24zLjcvc2l0ZS1wYWNrYWdlcy9rZXJhc19hcHBsaWNhdGlvbnMvaW5jZXB0aW9uX3Jlc25l\ndF92Mi5wedoIPGxhbWJkYT6oAAAA8wAAAAA=\n", null, null], "function_type": "lambda", "module": "keras_applications.inception_resnet_v2", "output_shape": [2, 2, 2080], "output_shape_type": "raw", "output_shape_module": null, "arguments": {"scale": 0.2}}, "name": "block8_6", "inbound_nodes": [[["block8_5_ac", 0, 0, {}], ["block8_6_conv", 0, 0, {}]]]}, {"class_name": "Activation", "config": {"name": "block8_6_ac", "trainable": true, "dtype": "float32", "activation": "relu"}, "name": "block8_6_ac", "inbound_nodes": [[["block8_6", 0, 0, {}]]]}, {"class_name": "Conv2D", "config": {"name": "conv2d_579", "trainable": true, "dtype": "float32", "filters": 192, "kernel_size": [1, 1], "strides": [1, 1], "padding": "same", "data_format": "channels_last", "dilation_rate": [1, 1], "activation": "linear", "use_bias": false, "kernel_initializer": {"class_name": "GlorotUniform", "config": {"seed": null}}, "bias_initializer": {"class_name": "Zeros", "config": {}}, "kernel_regularizer": null, "bias_regularizer": null, "activity_regularizer": null, "kernel_constraint": null, "bias_constraint": null}, "name": "conv2d_579", "inbound_nodes": [[["block8_6_ac", 0, 0, {}]]]}, {"class_name": "BatchNormalization", "config": {"name": "batch_normalization_593", "trainable": true, "dtype": "float32", "axis": [3], "momentum": 0.99, "epsilon": 0.001, "center": true, "scale": false, "beta_initializer": {"class_name": "Zeros", "config": {}}, "gamma_initializer": {"class_name": "Ones", "config": {}}, "moving_mean_initializer": {"class_name": "Zeros", "config": {}}, "moving_variance_initializer": {"class_name": "Ones", "config": {}}, "beta_regularizer": null, "gamma_regularizer": null, "beta_constraint": null, "gamma_constraint": null}, "name": "batch_normalization_593", "inbound_nodes": [[["conv2d_579", 0, 0, {}]]]}, {"class_name": "Activation", "config": {"name": "activation_579", "trainable": true, "dtype": "float32", "activation": "relu"}, "name": "activation_579", "inbound_nodes": [[["batch_normalization_593", 0, 0, {}]]]}, {"class_name": "Conv2D", "config": {"name": "conv2d_580", "trainable": true, "dtype": "float32", "filters": 224, "kernel_size": [1, 3], "strides": [1, 1], "padding": "same", "data_format": "channels_last", "dilation_rate": [1, 1], "activation": "linear", "use_bias": false, "kernel_initializer": {"class_name": "GlorotUniform", "config": {"seed": null}}, "bias_initializer": {"class_name": "Zeros", "config": {}}, "kernel_regularizer": null, "bias_regularizer": null, "activity_regularizer": null, "kernel_constraint": null, "bias_constraint": null}, "name": "conv2d_580", "inbound_nodes": [[["activation_579", 0, 0, {}]]]}, {"class_name": "BatchNormalization", "config": {"name": "batch_normalization_594", "trainable": true, "dtype": "float32", "axis": [3], "momentum": 0.99, "epsilon": 0.001, "center": true, "scale": false, "beta_initializer": {"class_name": "Zeros", "config": {}}, "gamma_initializer": {"class_name": "Ones", "config": {}}, "moving_mean_initializer": {"class_name": "Zeros", "config": {}}, "moving_variance_initializer": {"class_name": "Ones", "config": {}}, "beta_regularizer": null, "gamma_regularizer": null, "beta_constraint": null, "gamma_constraint": null}, "name": "batch_normalization_594", "inbound_nodes": [[["conv2d_580", 0, 0, {}]]]}, {"class_name": "Activation", "config": {"name": "activation_580", "trainable": true, "dtype": "float32", "activation": "relu"}, "name": "activation_580", "inbound_nodes": [[["batch_normalization_594", 0, 0, {}]]]}, {"class_name": "Conv2D", "config": {"name": "conv2d_578", "trainable": true, "dtype": "float32", "filters": 192, "kernel_size": [1, 1], "strides": [1, 1], "padding": "same", "data_format": "channels_last", "dilation_rate": [1, 1], "activation": "linear", "use_bias": false, "kernel_initializer": {"class_name": "GlorotUniform", "config": {"seed": null}}, "bias_initializer": {"class_name": "Zeros", "config": {}}, "kernel_regularizer": null, "bias_regularizer": null, "activity_regularizer": null, "kernel_constraint": null, "bias_constraint": null}, "name": "conv2d_578", "inbound_nodes": [[["block8_6_ac", 0, 0, {}]]]}, {"class_name": "Conv2D", "config": {"name": "conv2d_581", "trainable": true, "dtype": "float32", "filters": 256, "kernel_size": [3, 1], "strides": [1, 1], "padding": "same", "data_format": "channels_last", "dilation_rate": [1, 1], "activation": "linear", "use_bias": false, "kernel_initializer": {"class_name": "GlorotUniform", "config": {"seed": null}}, "bias_initializer": {"class_name": "Zeros", "config": {}}, "kernel_regularizer": null, "bias_regularizer": null, "activity_regularizer": null, "kernel_constraint": null, "bias_constraint": null}, "name": "conv2d_581", "inbound_nodes": [[["activation_580", 0, 0, {}]]]}, {"class_name": "BatchNormalization", "config": {"name": "batch_normalization_592", "trainable": true, "dtype": "float32", "axis": [3], "momentum": 0.99, "epsilon": 0.001, "center": true, "scale": false, "beta_initializer": {"class_name": "Zeros", "config": {}}, "gamma_initializer": {"class_name": "Ones", "config": {}}, "moving_mean_initializer": {"class_name": "Zeros", "config": {}}, "moving_variance_initializer": {"class_name": "Ones", "config": {}}, "beta_regularizer": null, "gamma_regularizer": null, "beta_constraint": null, "gamma_constraint": null}, "name": "batch_normalization_592", "inbound_nodes": [[["conv2d_578", 0, 0, {}]]]}, {"class_name": "BatchNormalization", "config": {"name": "batch_normalization_595", "trainable": true, "dtype": "float32", "axis": [3], "momentum": 0.99, "epsilon": 0.001, "center": true, "scale": false, "beta_initializer": {"class_name": "Zeros", "config": {}}, "gamma_initializer": {"class_name": "Ones", "config": {}}, "moving_mean_initializer": {"class_name": "Zeros", "config": {}}, "moving_variance_initializer": {"class_name": "Ones", "config": {}}, "beta_regularizer": null, "gamma_regularizer": null, "beta_constraint": null, "gamma_constraint": null}, "name": "batch_normalization_595", "inbound_nodes": [[["conv2d_581", 0, 0, {}]]]}, {"class_name": "Activation", "config": {"name": "activation_578", "trainable": true, "dtype": "float32", "activation": "relu"}, "name": "activation_578", "inbound_nodes": [[["batch_normalization_592", 0, 0, {}]]]}, {"class_name": "Activation", "config": {"name": "activation_581", "trainable": true, "dtype": "float32", "activation": "relu"}, "name": "activation_581", "inbound_nodes": [[["batch_normalization_595", 0, 0, {}]]]}, {"class_name": "Concatenate", "config": {"name": "block8_7_mixed", "trainable": true, "dtype": "float32", "axis": 3}, "name": "block8_7_mixed", "inbound_nodes": [[["activation_578", 0, 0, {}], ["activation_581", 0, 0, {}]]]}, {"class_name": "Conv2D", "config": {"name": "block8_7_conv", "trainable": true, "dtype": "float32", "filters": 2080, "kernel_size": [1, 1], "strides": [1, 1], "padding": "same", "data_format": "channels_last", "dilation_rate": [1, 1], "activation": "linear", "use_bias": true, "kernel_initializer": {"class_name": "GlorotUniform", "config": {"seed": null}}, "bias_initializer": {"class_name": "Zeros", "config": {}}, "kernel_regularizer": null, "bias_regularizer": null, "activity_regularizer": null, "kernel_constraint": null, "bias_constraint": null}, "name": "block8_7_conv", "inbound_nodes": [[["block8_7_mixed", 0, 0, {}]]]}, {"class_name": "Lambda", "config": {"name": "block8_7", "trainable": true, "dtype": "float32", "function": ["4wIAAAAAAAAAAgAAAAMAAABTAAAAcxQAAAB8AGQBGQB8AGQCGQB8ARQAFwBTACkDTukAAAAA6QEA\nAACpACkC2gZpbnB1dHPaBXNjYWxlcgMAAAByAwAAAPpYL2hvbWUvZmlsZnkvLmxvY2FsL2xpYi9w\neXRob24zLjcvc2l0ZS1wYWNrYWdlcy9rZXJhc19hcHBsaWNhdGlvbnMvaW5jZXB0aW9uX3Jlc25l\ndF92Mi5wedoIPGxhbWJkYT6oAAAA8wAAAAA=\n", null, null], "function_type": "lambda", "module": "keras_applications.inception_resnet_v2", "output_shape": [2, 2, 2080], "output_shape_type": "raw", "output_shape_module": null, "arguments": {"scale": 0.2}}, "name": "block8_7", "inbound_nodes": [[["block8_6_ac", 0, 0, {}], ["block8_7_conv", 0, 0, {}]]]}, {"class_name": "Activation", "config": {"name": "block8_7_ac", "trainable": true, "dtype": "float32", "activation": "relu"}, "name": "block8_7_ac", "inbound_nodes": [[["block8_7", 0, 0, {}]]]}, {"class_name": "Conv2D", "config": {"name": "conv2d_583", "trainable": true, "dtype": "float32", "filters": 192, "kernel_size": [1, 1], "strides": [1, 1], "padding": "same", "data_format": "channels_last", "dilation_rate": [1, 1], "activation": "linear", "use_bias": false, "kernel_initializer": {"class_name": "GlorotUniform", "config": {"seed": null}}, "bias_initializer": {"class_name": "Zeros", "config": {}}, "kernel_regularizer": null, "bias_regularizer": null, "activity_regularizer": null, "kernel_constraint": null, "bias_constraint": null}, "name": "conv2d_583", "inbound_nodes": [[["block8_7_ac", 0, 0, {}]]]}, {"class_name": "BatchNormalization", "config": {"name": "batch_normalization_597", "trainable": true, "dtype": "float32", "axis": [3], "momentum": 0.99, "epsilon": 0.001, "center": true, "scale": false, "beta_initializer": {"class_name": "Zeros", "config": {}}, "gamma_initializer": {"class_name": "Ones", "config": {}}, "moving_mean_initializer": {"class_name": "Zeros", "config": {}}, "moving_variance_initializer": {"class_name": "Ones", "config": {}}, "beta_regularizer": null, "gamma_regularizer": null, "beta_constraint": null, "gamma_constraint": null}, "name": "batch_normalization_597", "inbound_nodes": [[["conv2d_583", 0, 0, {}]]]}, {"class_name": "Activation", "config": {"name": "activation_583", "trainable": true, "dtype": "float32", "activation": "relu"}, "name": "activation_583", "inbound_nodes": [[["batch_normalization_597", 0, 0, {}]]]}, {"class_name": "Conv2D", "config": {"name": "conv2d_584", "trainable": true, "dtype": "float32", "filters": 224, "kernel_size": [1, 3], "strides": [1, 1], "padding": "same", "data_format": "channels_last", "dilation_rate": [1, 1], "activation": "linear", "use_bias": false, "kernel_initializer": {"class_name": "GlorotUniform", "config": {"seed": null}}, "bias_initializer": {"class_name": "Zeros", "config": {}}, "kernel_regularizer": null, "bias_regularizer": null, "activity_regularizer": null, "kernel_constraint": null, "bias_constraint": null}, "name": "conv2d_584", "inbound_nodes": [[["activation_583", 0, 0, {}]]]}, {"class_name": "BatchNormalization", "config": {"name": "batch_normalization_598", "trainable": true, "dtype": "float32", "axis": [3], "momentum": 0.99, "epsilon": 0.001, "center": true, "scale": false, "beta_initializer": {"class_name": "Zeros", "config": {}}, "gamma_initializer": {"class_name": "Ones", "config": {}}, "moving_mean_initializer": {"class_name": "Zeros", "config": {}}, "moving_variance_initializer": {"class_name": "Ones", "config": {}}, "beta_regularizer": null, "gamma_regularizer": null, "beta_constraint": null, "gamma_constraint": null}, "name": "batch_normalization_598", "inbound_nodes": [[["conv2d_584", 0, 0, {}]]]}, {"class_name": "Activation", "config": {"name": "activation_584", "trainable": true, "dtype": "float32", "activation": "relu"}, "name": "activation_584", "inbound_nodes": [[["batch_normalization_598", 0, 0, {}]]]}, {"class_name": "Conv2D", "config": {"name": "conv2d_582", "trainable": true, "dtype": "float32", "filters": 192, "kernel_size": [1, 1], "strides": [1, 1], "padding": "same", "data_format": "channels_last", "dilation_rate": [1, 1], "activation": "linear", "use_bias": false, "kernel_initializer": {"class_name": "GlorotUniform", "config": {"seed": null}}, "bias_initializer": {"class_name": "Zeros", "config": {}}, "kernel_regularizer": null, "bias_regularizer": null, "activity_regularizer": null, "kernel_constraint": null, "bias_constraint": null}, "name": "conv2d_582", "inbound_nodes": [[["block8_7_ac", 0, 0, {}]]]}, {"class_name": "Conv2D", "config": {"name": "conv2d_585", "trainable": true, "dtype": "float32", "filters": 256, "kernel_size": [3, 1], "strides": [1, 1], "padding": "same", "data_format": "channels_last", "dilation_rate": [1, 1], "activation": "linear", "use_bias": false, "kernel_initializer": {"class_name": "GlorotUniform", "config": {"seed": null}}, "bias_initializer": {"class_name": "Zeros", "config": {}}, "kernel_regularizer": null, "bias_regularizer": null, "activity_regularizer": null, "kernel_constraint": null, "bias_constraint": null}, "name": "conv2d_585", "inbound_nodes": [[["activation_584", 0, 0, {}]]]}, {"class_name": "BatchNormalization", "config": {"name": "batch_normalization_596", "trainable": true, "dtype": "float32", "axis": [3], "momentum": 0.99, "epsilon": 0.001, "center": true, "scale": false, "beta_initializer": {"class_name": "Zeros", "config": {}}, "gamma_initializer": {"class_name": "Ones", "config": {}}, "moving_mean_initializer": {"class_name": "Zeros", "config": {}}, "moving_variance_initializer": {"class_name": "Ones", "config": {}}, "beta_regularizer": null, "gamma_regularizer": null, "beta_constraint": null, "gamma_constraint": null}, "name": "batch_normalization_596", "inbound_nodes": [[["conv2d_582", 0, 0, {}]]]}, {"class_name": "BatchNormalization", "config": {"name": "batch_normalization_599", "trainable": true, "dtype": "float32", "axis": [3], "momentum": 0.99, "epsilon": 0.001, "center": true, "scale": false, "beta_initializer": {"class_name": "Zeros", "config": {}}, "gamma_initializer": {"class_name": "Ones", "config": {}}, "moving_mean_initializer": {"class_name": "Zeros", "config": {}}, "moving_variance_initializer": {"class_name": "Ones", "config": {}}, "beta_regularizer": null, "gamma_regularizer": null, "beta_constraint": null, "gamma_constraint": null}, "name": "batch_normalization_599", "inbound_nodes": [[["conv2d_585", 0, 0, {}]]]}, {"class_name": "Activation", "config": {"name": "activation_582", "trainable": true, "dtype": "float32", "activation": "relu"}, "name": "activation_582", "inbound_nodes": [[["batch_normalization_596", 0, 0, {}]]]}, {"class_name": "Activation", "config": {"name": "activation_585", "trainable": true, "dtype": "float32", "activation": "relu"}, "name": "activation_585", "inbound_nodes": [[["batch_normalization_599", 0, 0, {}]]]}, {"class_name": "Concatenate", "config": {"name": "block8_8_mixed", "trainable": true, "dtype": "float32", "axis": 3}, "name": "block8_8_mixed", "inbound_nodes": [[["activation_582", 0, 0, {}], ["activation_585", 0, 0, {}]]]}, {"class_name": "Conv2D", "config": {"name": "block8_8_conv", "trainable": true, "dtype": "float32", "filters": 2080, "kernel_size": [1, 1], "strides": [1, 1], "padding": "same", "data_format": "channels_last", "dilation_rate": [1, 1], "activation": "linear", "use_bias": true, "kernel_initializer": {"class_name": "GlorotUniform", "config": {"seed": null}}, "bias_initializer": {"class_name": "Zeros", "config": {}}, "kernel_regularizer": null, "bias_regularizer": null, "activity_regularizer": null, "kernel_constraint": null, "bias_constraint": null}, "name": "block8_8_conv", "inbound_nodes": [[["block8_8_mixed", 0, 0, {}]]]}, {"class_name": "Lambda", "config": {"name": "block8_8", "trainable": true, "dtype": "float32", "function": ["4wIAAAAAAAAAAgAAAAMAAABTAAAAcxQAAAB8AGQBGQB8AGQCGQB8ARQAFwBTACkDTukAAAAA6QEA\nAACpACkC2gZpbnB1dHPaBXNjYWxlcgMAAAByAwAAAPpYL2hvbWUvZmlsZnkvLmxvY2FsL2xpYi9w\neXRob24zLjcvc2l0ZS1wYWNrYWdlcy9rZXJhc19hcHBsaWNhdGlvbnMvaW5jZXB0aW9uX3Jlc25l\ndF92Mi5wedoIPGxhbWJkYT6oAAAA8wAAAAA=\n", null, null], "function_type": "lambda", "module": "keras_applications.inception_resnet_v2", "output_shape": [2, 2, 2080], "output_shape_type": "raw", "output_shape_module": null, "arguments": {"scale": 0.2}}, "name": "block8_8", "inbound_nodes": [[["block8_7_ac", 0, 0, {}], ["block8_8_conv", 0, 0, {}]]]}, {"class_name": "Activation", "config": {"name": "block8_8_ac", "trainable": true, "dtype": "float32", "activation": "relu"}, "name": "block8_8_ac", "inbound_nodes": [[["block8_8", 0, 0, {}]]]}, {"class_name": "Conv2D", "config": {"name": "conv2d_587", "trainable": true, "dtype": "float32", "filters": 192, "kernel_size": [1, 1], "strides": [1, 1], "padding": "same", "data_format": "channels_last", "dilation_rate": [1, 1], "activation": "linear", "use_bias": false, "kernel_initializer": {"class_name": "GlorotUniform", "config": {"seed": null}}, "bias_initializer": {"class_name": "Zeros", "config": {}}, "kernel_regularizer": null, "bias_regularizer": null, "activity_regularizer": null, "kernel_constraint": null, "bias_constraint": null}, "name": "conv2d_587", "inbound_nodes": [[["block8_8_ac", 0, 0, {}]]]}, {"class_name": "BatchNormalization", "config": {"name": "batch_normalization_601", "trainable": true, "dtype": "float32", "axis": [3], "momentum": 0.99, "epsilon": 0.001, "center": true, "scale": false, "beta_initializer": {"class_name": "Zeros", "config": {}}, "gamma_initializer": {"class_name": "Ones", "config": {}}, "moving_mean_initializer": {"class_name": "Zeros", "config": {}}, "moving_variance_initializer": {"class_name": "Ones", "config": {}}, "beta_regularizer": null, "gamma_regularizer": null, "beta_constraint": null, "gamma_constraint": null}, "name": "batch_normalization_601", "inbound_nodes": [[["conv2d_587", 0, 0, {}]]]}, {"class_name": "Activation", "config": {"name": "activation_587", "trainable": true, "dtype": "float32", "activation": "relu"}, "name": "activation_587", "inbound_nodes": [[["batch_normalization_601", 0, 0, {}]]]}, {"class_name": "Conv2D", "config": {"name": "conv2d_588", "trainable": true, "dtype": "float32", "filters": 224, "kernel_size": [1, 3], "strides": [1, 1], "padding": "same", "data_format": "channels_last", "dilation_rate": [1, 1], "activation": "linear", "use_bias": false, "kernel_initializer": {"class_name": "GlorotUniform", "config": {"seed": null}}, "bias_initializer": {"class_name": "Zeros", "config": {}}, "kernel_regularizer": null, "bias_regularizer": null, "activity_regularizer": null, "kernel_constraint": null, "bias_constraint": null}, "name": "conv2d_588", "inbound_nodes": [[["activation_587", 0, 0, {}]]]}, {"class_name": "BatchNormalization", "config": {"name": "batch_normalization_602", "trainable": true, "dtype": "float32", "axis": [3], "momentum": 0.99, "epsilon": 0.001, "center": true, "scale": false, "beta_initializer": {"class_name": "Zeros", "config": {}}, "gamma_initializer": {"class_name": "Ones", "config": {}}, "moving_mean_initializer": {"class_name": "Zeros", "config": {}}, "moving_variance_initializer": {"class_name": "Ones", "config": {}}, "beta_regularizer": null, "gamma_regularizer": null, "beta_constraint": null, "gamma_constraint": null}, "name": "batch_normalization_602", "inbound_nodes": [[["conv2d_588", 0, 0, {}]]]}, {"class_name": "Activation", "config": {"name": "activation_588", "trainable": true, "dtype": "float32", "activation": "relu"}, "name": "activation_588", "inbound_nodes": [[["batch_normalization_602", 0, 0, {}]]]}, {"class_name": "Conv2D", "config": {"name": "conv2d_586", "trainable": true, "dtype": "float32", "filters": 192, "kernel_size": [1, 1], "strides": [1, 1], "padding": "same", "data_format": "channels_last", "dilation_rate": [1, 1], "activation": "linear", "use_bias": false, "kernel_initializer": {"class_name": "GlorotUniform", "config": {"seed": null}}, "bias_initializer": {"class_name": "Zeros", "config": {}}, "kernel_regularizer": null, "bias_regularizer": null, "activity_regularizer": null, "kernel_constraint": null, "bias_constraint": null}, "name": "conv2d_586", "inbound_nodes": [[["block8_8_ac", 0, 0, {}]]]}, {"class_name": "Conv2D", "config": {"name": "conv2d_589", "trainable": true, "dtype": "float32", "filters": 256, "kernel_size": [3, 1], "strides": [1, 1], "padding": "same", "data_format": "channels_last", "dilation_rate": [1, 1], "activation": "linear", "use_bias": false, "kernel_initializer": {"class_name": "GlorotUniform", "config": {"seed": null}}, "bias_initializer": {"class_name": "Zeros", "config": {}}, "kernel_regularizer": null, "bias_regularizer": null, "activity_regularizer": null, "kernel_constraint": null, "bias_constraint": null}, "name": "conv2d_589", "inbound_nodes": [[["activation_588", 0, 0, {}]]]}, {"class_name": "BatchNormalization", "config": {"name": "batch_normalization_600", "trainable": true, "dtype": "float32", "axis": [3], "momentum": 0.99, "epsilon": 0.001, "center": true, "scale": false, "beta_initializer": {"class_name": "Zeros", "config": {}}, "gamma_initializer": {"class_name": "Ones", "config": {}}, "moving_mean_initializer": {"class_name": "Zeros", "config": {}}, "moving_variance_initializer": {"class_name": "Ones", "config": {}}, "beta_regularizer": null, "gamma_regularizer": null, "beta_constraint": null, "gamma_constraint": null}, "name": "batch_normalization_600", "inbound_nodes": [[["conv2d_586", 0, 0, {}]]]}, {"class_name": "BatchNormalization", "config": {"name": "batch_normalization_603", "trainable": true, "dtype": "float32", "axis": [3], "momentum": 0.99, "epsilon": 0.001, "center": true, "scale": false, "beta_initializer": {"class_name": "Zeros", "config": {}}, "gamma_initializer": {"class_name": "Ones", "config": {}}, "moving_mean_initializer": {"class_name": "Zeros", "config": {}}, "moving_variance_initializer": {"class_name": "Ones", "config": {}}, "beta_regularizer": null, "gamma_regularizer": null, "beta_constraint": null, "gamma_constraint": null}, "name": "batch_normalization_603", "inbound_nodes": [[["conv2d_589", 0, 0, {}]]]}, {"class_name": "Activation", "config": {"name": "activation_586", "trainable": true, "dtype": "float32", "activation": "relu"}, "name": "activation_586", "inbound_nodes": [[["batch_normalization_600", 0, 0, {}]]]}, {"class_name": "Activation", "config": {"name": "activation_589", "trainable": true, "dtype": "float32", "activation": "relu"}, "name": "activation_589", "inbound_nodes": [[["batch_normalization_603", 0, 0, {}]]]}, {"class_name": "Concatenate", "config": {"name": "block8_9_mixed", "trainable": true, "dtype": "float32", "axis": 3}, "name": "block8_9_mixed", "inbound_nodes": [[["activation_586", 0, 0, {}], ["activation_589", 0, 0, {}]]]}, {"class_name": "Conv2D", "config": {"name": "block8_9_conv", "trainable": true, "dtype": "float32", "filters": 2080, "kernel_size": [1, 1], "strides": [1, 1], "padding": "same", "data_format": "channels_last", "dilation_rate": [1, 1], "activation": "linear", "use_bias": true, "kernel_initializer": {"class_name": "GlorotUniform", "config": {"seed": null}}, "bias_initializer": {"class_name": "Zeros", "config": {}}, "kernel_regularizer": null, "bias_regularizer": null, "activity_regularizer": null, "kernel_constraint": null, "bias_constraint": null}, "name": "block8_9_conv", "inbound_nodes": [[["block8_9_mixed", 0, 0, {}]]]}, {"class_name": "Lambda", "config": {"name": "block8_9", "trainable": true, "dtype": "float32", "function": ["4wIAAAAAAAAAAgAAAAMAAABTAAAAcxQAAAB8AGQBGQB8AGQCGQB8ARQAFwBTACkDTukAAAAA6QEA\nAACpACkC2gZpbnB1dHPaBXNjYWxlcgMAAAByAwAAAPpYL2hvbWUvZmlsZnkvLmxvY2FsL2xpYi9w\neXRob24zLjcvc2l0ZS1wYWNrYWdlcy9rZXJhc19hcHBsaWNhdGlvbnMvaW5jZXB0aW9uX3Jlc25l\ndF92Mi5wedoIPGxhbWJkYT6oAAAA8wAAAAA=\n", null, null], "function_type": "lambda", "module": "keras_applications.inception_resnet_v2", "output_shape": [2, 2, 2080], "output_shape_type": "raw", "output_shape_module": null, "arguments": {"scale": 0.2}}, "name": "block8_9", "inbound_nodes": [[["block8_8_ac", 0, 0, {}], ["block8_9_conv", 0, 0, {}]]]}, {"class_name": "Activation", "config": {"name": "block8_9_ac", "trainable": true, "dtype": "float32", "activation": "relu"}, "name": "block8_9_ac", "inbound_nodes": [[["block8_9", 0, 0, {}]]]}, {"class_name": "Conv2D", "config": {"name": "conv2d_591", "trainable": true, "dtype": "float32", "filters": 192, "kernel_size": [1, 1], "strides": [1, 1], "padding": "same", "data_format": "channels_last", "dilation_rate": [1, 1], "activation": "linear", "use_bias": false, "kernel_initializer": {"class_name": "GlorotUniform", "config": {"seed": null}}, "bias_initializer": {"class_name": "Zeros", "config": {}}, "kernel_regularizer": null, "bias_regularizer": null, "activity_regularizer": null, "kernel_constraint": null, "bias_constraint": null}, "name": "conv2d_591", "inbound_nodes": [[["block8_9_ac", 0, 0, {}]]]}, {"class_name": "BatchNormalization", "config": {"name": "batch_normalization_605", "trainable": true, "dtype": "float32", "axis": [3], "momentum": 0.99, "epsilon": 0.001, "center": true, "scale": false, "beta_initializer": {"class_name": "Zeros", "config": {}}, "gamma_initializer": {"class_name": "Ones", "config": {}}, "moving_mean_initializer": {"class_name": "Zeros", "config": {}}, "moving_variance_initializer": {"class_name": "Ones", "config": {}}, "beta_regularizer": null, "gamma_regularizer": null, "beta_constraint": null, "gamma_constraint": null}, "name": "batch_normalization_605", "inbound_nodes": [[["conv2d_591", 0, 0, {}]]]}, {"class_name": "Activation", "config": {"name": "activation_591", "trainable": true, "dtype": "float32", "activation": "relu"}, "name": "activation_591", "inbound_nodes": [[["batch_normalization_605", 0, 0, {}]]]}, {"class_name": "Conv2D", "config": {"name": "conv2d_592", "trainable": true, "dtype": "float32", "filters": 224, "kernel_size": [1, 3], "strides": [1, 1], "padding": "same", "data_format": "channels_last", "dilation_rate": [1, 1], "activation": "linear", "use_bias": false, "kernel_initializer": {"class_name": "GlorotUniform", "config": {"seed": null}}, "bias_initializer": {"class_name": "Zeros", "config": {}}, "kernel_regularizer": null, "bias_regularizer": null, "activity_regularizer": null, "kernel_constraint": null, "bias_constraint": null}, "name": "conv2d_592", "inbound_nodes": [[["activation_591", 0, 0, {}]]]}, {"class_name": "BatchNormalization", "config": {"name": "batch_normalization_606", "trainable": true, "dtype": "float32", "axis": [3], "momentum": 0.99, "epsilon": 0.001, "center": true, "scale": false, "beta_initializer": {"class_name": "Zeros", "config": {}}, "gamma_initializer": {"class_name": "Ones", "config": {}}, "moving_mean_initializer": {"class_name": "Zeros", "config": {}}, "moving_variance_initializer": {"class_name": "Ones", "config": {}}, "beta_regularizer": null, "gamma_regularizer": null, "beta_constraint": null, "gamma_constraint": null}, "name": "batch_normalization_606", "inbound_nodes": [[["conv2d_592", 0, 0, {}]]]}, {"class_name": "Activation", "config": {"name": "activation_592", "trainable": true, "dtype": "float32", "activation": "relu"}, "name": "activation_592", "inbound_nodes": [[["batch_normalization_606", 0, 0, {}]]]}, {"class_name": "Conv2D", "config": {"name": "conv2d_590", "trainable": true, "dtype": "float32", "filters": 192, "kernel_size": [1, 1], "strides": [1, 1], "padding": "same", "data_format": "channels_last", "dilation_rate": [1, 1], "activation": "linear", "use_bias": false, "kernel_initializer": {"class_name": "GlorotUniform", "config": {"seed": null}}, "bias_initializer": {"class_name": "Zeros", "config": {}}, "kernel_regularizer": null, "bias_regularizer": null, "activity_regularizer": null, "kernel_constraint": null, "bias_constraint": null}, "name": "conv2d_590", "inbound_nodes": [[["block8_9_ac", 0, 0, {}]]]}, {"class_name": "Conv2D", "config": {"name": "conv2d_593", "trainable": true, "dtype": "float32", "filters": 256, "kernel_size": [3, 1], "strides": [1, 1], "padding": "same", "data_format": "channels_last", "dilation_rate": [1, 1], "activation": "linear", "use_bias": false, "kernel_initializer": {"class_name": "GlorotUniform", "config": {"seed": null}}, "bias_initializer": {"class_name": "Zeros", "config": {}}, "kernel_regularizer": null, "bias_regularizer": null, "activity_regularizer": null, "kernel_constraint": null, "bias_constraint": null}, "name": "conv2d_593", "inbound_nodes": [[["activation_592", 0, 0, {}]]]}, {"class_name": "BatchNormalization", "config": {"name": "batch_normalization_604", "trainable": true, "dtype": "float32", "axis": [3], "momentum": 0.99, "epsilon": 0.001, "center": true, "scale": false, "beta_initializer": {"class_name": "Zeros", "config": {}}, "gamma_initializer": {"class_name": "Ones", "config": {}}, "moving_mean_initializer": {"class_name": "Zeros", "config": {}}, "moving_variance_initializer": {"class_name": "Ones", "config": {}}, "beta_regularizer": null, "gamma_regularizer": null, "beta_constraint": null, "gamma_constraint": null}, "name": "batch_normalization_604", "inbound_nodes": [[["conv2d_590", 0, 0, {}]]]}, {"class_name": "BatchNormalization", "config": {"name": "batch_normalization_607", "trainable": true, "dtype": "float32", "axis": [3], "momentum": 0.99, "epsilon": 0.001, "center": true, "scale": false, "beta_initializer": {"class_name": "Zeros", "config": {}}, "gamma_initializer": {"class_name": "Ones", "config": {}}, "moving_mean_initializer": {"class_name": "Zeros", "config": {}}, "moving_variance_initializer": {"class_name": "Ones", "config": {}}, "beta_regularizer": null, "gamma_regularizer": null, "beta_constraint": null, "gamma_constraint": null}, "name": "batch_normalization_607", "inbound_nodes": [[["conv2d_593", 0, 0, {}]]]}, {"class_name": "Activation", "config": {"name": "activation_590", "trainable": true, "dtype": "float32", "activation": "relu"}, "name": "activation_590", "inbound_nodes": [[["batch_normalization_604", 0, 0, {}]]]}, {"class_name": "Activation", "config": {"name": "activation_593", "trainable": true, "dtype": "float32", "activation": "relu"}, "name": "activation_593", "inbound_nodes": [[["batch_normalization_607", 0, 0, {}]]]}, {"class_name": "Concatenate", "config": {"name": "block8_10_mixed", "trainable": true, "dtype": "float32", "axis": 3}, "name": "block8_10_mixed", "inbound_nodes": [[["activation_590", 0, 0, {}], ["activation_593", 0, 0, {}]]]}, {"class_name": "Conv2D", "config": {"name": "block8_10_conv", "trainable": true, "dtype": "float32", "filters": 2080, "kernel_size": [1, 1], "strides": [1, 1], "padding": "same", "data_format": "channels_last", "dilation_rate": [1, 1], "activation": "linear", "use_bias": true, "kernel_initializer": {"class_name": "GlorotUniform", "config": {"seed": null}}, "bias_initializer": {"class_name": "Zeros", "config": {}}, "kernel_regularizer": null, "bias_regularizer": null, "activity_regularizer": null, "kernel_constraint": null, "bias_constraint": null}, "name": "block8_10_conv", "inbound_nodes": [[["block8_10_mixed", 0, 0, {}]]]}, {"class_name": "Lambda", "config": {"name": "block8_10", "trainable": true, "dtype": "float32", "function": ["4wIAAAAAAAAAAgAAAAMAAABTAAAAcxQAAAB8AGQBGQB8AGQCGQB8ARQAFwBTACkDTukAAAAA6QEA\nAACpACkC2gZpbnB1dHPaBXNjYWxlcgMAAAByAwAAAPpYL2hvbWUvZmlsZnkvLmxvY2FsL2xpYi9w\neXRob24zLjcvc2l0ZS1wYWNrYWdlcy9rZXJhc19hcHBsaWNhdGlvbnMvaW5jZXB0aW9uX3Jlc25l\ndF92Mi5wedoIPGxhbWJkYT6oAAAA8wAAAAA=\n", null, null], "function_type": "lambda", "module": "keras_applications.inception_resnet_v2", "output_shape": [2, 2, 2080], "output_shape_type": "raw", "output_shape_module": null, "arguments": {"scale": 1.0}}, "name": "block8_10", "inbound_nodes": [[["block8_9_ac", 0, 0, {}], ["block8_10_conv", 0, 0, {}]]]}, {"class_name": "Conv2D", "config": {"name": "conv_7b", "trainable": true, "dtype": "float32", "filters": 1536, "kernel_size": [1, 1], "strides": [1, 1], "padding": "same", "data_format": "channels_last", "dilation_rate": [1, 1], "activation": "linear", "use_bias": false, "kernel_initializer": {"class_name": "GlorotUniform", "config": {"seed": null}}, "bias_initializer": {"class_name": "Zeros", "config": {}}, "kernel_regularizer": null, "bias_regularizer": null, "activity_regularizer": null, "kernel_constraint": null, "bias_constraint": null}, "name": "conv_7b", "inbound_nodes": [[["block8_10", 0, 0, {}]]]}, {"class_name": "BatchNormalization", "config": {"name": "conv_7b_bn", "trainable": true, "dtype": "float32", "axis": [3], "momentum": 0.99, "epsilon": 0.001, "center": true, "scale": false, "beta_initializer": {"class_name": "Zeros", "config": {}}, "gamma_initializer": {"class_name": "Ones", "config": {}}, "moving_mean_initializer": {"class_name": "Zeros", "config": {}}, "moving_variance_initializer": {"class_name": "Ones", "config": {}}, "beta_regularizer": null, "gamma_regularizer": null, "beta_constraint": null, "gamma_constraint": null}, "name": "conv_7b_bn", "inbound_nodes": [[["conv_7b", 0, 0, {}]]]}, {"class_name": "Activation", "config": {"name": "conv_7b_ac", "trainable": true, "dtype": "float32", "activation": "relu"}, "name": "conv_7b_ac", "inbound_nodes": [[["conv_7b_bn", 0, 0, {}]]]}], "input_layers": [["input_8", 0, 0]], "output_layers": [["conv_7b_ac", 0, 0]]}}, {"class_name": "BatchNormalization", "config": {"name": "batch_normalization_609", "trainable": true, "dtype": "float32", "axis": [3], "momentum": 0.99, "epsilon": 0.001, "center": true, "scale": true, "beta_initializer": {"class_name": "Zeros", "config": {}}, "gamma_initializer": {"class_name": "Ones", "config": {}}, "moving_mean_initializer": {"class_name": "Zeros", "config": {}}, "moving_variance_initializer": {"class_name": "Ones", "config": {}}, "beta_regularizer": null, "gamma_regularizer": null, "beta_constraint": null, "gamma_constraint": null}}, {"class_name": "GlobalAveragePooling2D", "config": {"name": "global_average_pooling2d_7", "trainable": true, "dtype": "float32", "data_format": "channels_last"}}, {"class_name": "Dropout", "config": {"name": "dropout_7", "trainable": true, "dtype": "float32", "rate": 0.5, "noise_shape": null, "seed": null}}, {"class_name": "Dense", "config": {"name": "dense_7", "trainable": true, "dtype": "float32", "units": 1, "activation": "linear", "use_bias": true, "kernel_initializer": {"class_name": "GlorotUniform", "config": {"seed": null}}, "bias_initializer": {"class_name": "Zeros", "config": {}}, "kernel_regularizer": null, "bias_regularizer": null, "activity_regularizer": null, "kernel_constraint": null, "bias_constraint": null}}]}, "keras_version": "2.2.4-tf", "backend": "tensorflow"}